torchRL/wandb/offline-run-20250601_183008-m4wkqhjd/files/models/actor_network.pt (torch, 22429 bytes, 6 tensors)

module.0.module.mlp_module.0.weight f4 [64, 4]
00000000: db40 a43e a7a5 313d 4ae4 833e 0b12 a03b
00000010: 2d95 683e 844e 12be 265d ad3e 1edb e23d
00000020: c4e2 80be 453a bb3d 7e27 2ebe ebfe 35bd
00000030: b3df 66be 8cdf b83e a3f7 c0be ff5c 78be
00000040: 5f85 53be a938 9abe 1470 813d fccb ffbe
00000050: b0c4 fe3e b61b d7be 954c 873e 3b4b b93d
00000060: 134a 6ebe c09c 833e 303c a53d 17b7 8e3e
00000070: 7c65 813d 5a0a abbd 5c09 023e c5e1 d6bd
00000080: b3d8 223e 5ecc ff3e 1b44 513e 617d 7ebe
00000090: 189c 7b3e ce01 163e dd47 833e 8d33 abbe
000000a0: 184c 03bf 6e36 4fbe 7b36 c2be 4f08 ef3e
000000b0: 7de7 033e 3fa9 833e 1b5d c83d 0d01 80bd
000000c0: 73e3 cc3e bb68 99be a554 d1bc bd90 5fbe
000000d0: 8d2b 2e3e ca35 5ebe 5380 0c3e 5ced 81bd
000000e0: 2fb5 f73e 81d3 75be 92c6 95be 8335 90be
000000f0: 51ba eb3e e96f 313e bd2b ee3e cdfe f7be
00000100: 4161 d3be 82d0 c8be 671f 2fbe 86aa 683e
00000110: 2783 503e 3908 fb3e c79d 88be 5259 bcbe
00000120: 1180 643e 55bc 51be 2053 b63e d259 0cbe
00000130: be3b b73e 73c8 cebe ebc4 85be 2c6d 2b3e
00000140: 9fd0 263d 432a d3bd 7621 9b3e c0a1 c03e
00000150: f9f9 bebe 5e2a 91be 7011 d43e 56f8 03be
00000160: 1925 0abe 6e34 07bf f510 75be 1980 423e
00000170: 5d7c 7c3b 8853 8fbe d66b 583d ac31 58be
00000180: 7508 dfbe d8d8 95be 839a c9be de3b 9dbe
00000190: 980f eb3e a3f6 c53d 98cc df3d 1814 dbbe
000001a0: b462 ccbe ae9c 1cbe 2bc4 cd3d 201d 02bf
000001b0: 0389 35be e5d9 aabe 477f 653c 9044 f1bd
000001c0: 22c0 97bb 7aa3 afbe 999e 90be 1c9c 22be
000001d0: 627f 38be 80c1 d0be b40e bf3e aeab 5cbc
000001e0: 3e2c ec3e 7720 4a3e 5cb0 ddbe c530 b53e
000001f0: a0cb 82be 508d 67be f439 02bf 9f44 03bf
00000200: 445f 033e b78b d6bd 68db 303e bf47 98be
00000210: e284 d63e eb2f bebe 4df6 01be 8c21 0d3e
00000220: d482 9b3e 2a19 dd3e a268 173f 8529 f4be
00000230: 6996 3f3e 774b 1ebe 087e 16bd 8b6c 8bbe
00000240: 5c02 e23e ff70 adbe 19a7 2b3e 72f9 363e
00000250: d259 f73d 7af5 9dbe 9d91 ea3e 964c 1b3e
00000260: 1e85 943d d69e e7be 2a6a 553e 1b4e 3abd
00000270: c251 89be 9f54 f53e dbb4 f43d 544e 9ebe
00000280: f8b4 a2be a365 febb 3a6f 9c3e 4930 e3bd
00000290: 26e3 54be 000e 41be c0ca 86be 2ab4 143e
000002a0: 0c29 c53e 4d57 efbe 4c36 6b3d 0eb1 9e3e
000002b0: 8e8a 033e 605f 70be 4cce 653e a0da 883e
000002c0: be68 773e 30e1 aebd ba94 febd d38d e13c
000002d0: fcde 09be a867 53be 7971 aa3e 5eb9 f43e
000002e0: 0c6c 183d e746 0dbe fc7d c63c f4b7 8dbc
000002f0: 8e58 453e 834f 203e dfbf f8be 6439 2bbe
00000300: 8a25 cb3e 9a98 883e 5734 aabd ff1a a3be
00000310: 4aa6 aabe a2ec cdbe 36fb fbbd 9fba 6b3e
00000320: d37e c03e 81b9 7f3e fa8d f7be f6ad a7be
00000330: 1d45 0fbd 25b6 e83e 278e 643d d58d 42be
00000340: 97e5 843e ee45 7bbe 54e1 a8be 10ee c23e
00000350: 8f6d 81be ccdf efbd 6105 29bf 1aa3 c03e
00000360: 2a1e d83e 4cbc 683e 4771 acbe 95e9 0ebf
00000370: 0890 e6be 2978 a63e 1f0f 883e 58d7 a33e
00000380: 2009 923e 9ca6 5a3e 65e8 18bd a291 b7be
00000390: d55d d8be a891 efbe 6f44 713e 1dd2 febd
000003a0: 8f13 05be b64b 99be 5571 fcbc b4f7 c5be
000003b0: ddc6 9cbe d143 113e ac1e 00be ed8e 5c3e
000003c0: 9b3d 55be 8bfd afbe a544 b7bc 6e30 5fbe
000003d0: b963 03be 5d3a e2be 246d 953e e68f 6cbe
000003e0: 3b11 713e c196 873e db9b b63e be5d eebe
000003f0: 24d9 c83e d773 8dbe 4d26 023e 7929 f43e
0.3208073 0.04337087 0.25760108 0.0048849634 0.22713156 -0.14287764 0.3386013 0.110769495
-0.25173008 0.091419734 -0.17007253 -0.04443256 -0.22546272 0.36108053 -0.37688932 -0.24254225
-0.20656346 -0.30121353 0.06320205 -0.49960315 0.49759436 -0.4201333 0.26425615 0.09047552
-0.23270445 0.25705528 0.080681205 0.2787406 0.06318185 -0.08351584 0.12698883 -0.10492281
0.15902977 0.49960607 0.20436136 -0.24852516 0.24571264 0.14649126 0.25640765 -0.33437768
-0.51287985 -0.20235607 -0.3793219 0.46686026 0.12881275 0.25715062 0.097833835 -0.062502004
0.4001728 -0.29962716 -0.025553057 -0.21832557 0.17008801 -0.21700206 0.13720827 -0.06344101
0.4838042 -0.24006464 -0.2925306 -0.28165826 0.46040586 0.17327847 0.46517745 -0.48436585
-0.41285136 -0.3922158 -0.17101823 0.227213 0.2036253 0.4902971 -0.26682875 -0.36786896
0.22314478 -0.20481999 0.35610294 -0.13706139 0.35787767 -0.40387306 -0.261268 0.16740865
0.0407263 -0.10310795 0.30298966 0.37623405 -0.3730009 -0.28352636 0.41419554 -0.12887701
-0.13490714 -0.52814376 -0.2393225 0.18994178 0.0038526275 -0.27993417 0.052837215 -0.21112698
-0.4356114 -0.29267 -0.39375696 -0.30709738 0.45910335 0.09666183 0.10927695 -0.42788768
-0.39919055 -0.15294144 0.10047182 -0.5082569 -0.17728047 -0.33369365 0.014007396 -0.117806554
-0.0046310583 -0.3430441 -0.28246 -0.15879864 -0.18017343 -0.4077263 0.37315905 -0.013468666
0.46127504 0.19738947 -0.43298614 0.3538877 -0.2554598 -0.226125 -0.5086968 -0.5127658
0.1282931 -0.10475867 0.17271197 -0.29742238 0.41898257 -0.37145934 -0.12691613 0.13782328
0.3037325 0.4318326 0.5914403 -0.47687927 0.1870972 -0.15458475 -0.036741287 -0.2723125
0.44142425 -0.33875272 0.16762961 0.17868593 0.12077679 -0.30851346 0.4581422 0.15165934
0.072519526 -0.4523837 0.2084128 -0.045484643 -0.2682019 0.47916123 0.11948558 -0.30919135
-0.31778693 -0.007763581 0.3055361 -0.11093194 -0.20789775 -0.18852997 -0.2632656 0.14521852
0.3850788 -0.46746293 0.05742483 0.30994457 0.12845823 -0.23473883 0.22441977 0.26729298
0.2416105 -0.08539045 -0.12430711 0.027533447 -0.13463968 -0.2064501 0.33289698 0.47797674
0.037212417 -0.13796578 0.024229996 -0.01729963 0.19272062 0.15655331 -0.48583886 -0.16721112
0.39677078 0.26678926 -0.08310764 -0.31856534 -0.33329993 -0.402196 -0.12303774 0.23020409
0.3759676 0.24973108 -0.48350507 -0.3274991 -0.03497802 0.45451465 0.05579963 -0.18999417
0.25956413 -0.24538395 -0.32984412 0.38072252 -0.252789 -0.11712608 -0.6602383 0.37624437
0.42210513 0.2272808 -0.33680174 -0.5582517 -0.45031762 0.3251355 0.26574036 0.32000232
0.28522587 0.21352619 -0.037331004 -0.35853297 -0.42259088 -0.46790814 0.23561262 -0.1244242
-0.12995742 -0.29940575 -0.03081576 -0.38665545 -0.3062047 0.14186026 -0.125117 0.21538897
-0.20824282 -0.34373125 -0.0223716 -0.21795818 -0.1283101 -0.44185153 0.2918483 -0.23101768
0.23541729 0.26482204 0.35665783 -0.46555895 0.39228165 -0.2762744 0.12709923 0.4768789

module.0.module.mlp_module.0.bias f4 [64]
00000000: 8df0 6fbd 7443 3e3c 60ae c9bd dd0b c4be
00000010: 6279 5a3e 3e6f 01bf 4ae2 863e 4a71 a43e
00000020: f296 d83e 9546 e2bd 8693 bfbe e099 bf3d
00000030: 361d 883e 05e6 e1be 6ff1 d8bd 3988 89be
00000040: 25fb 65bd 7f12 60be 7ec7 30be f194 0bbe
00000050: 5f08 debe 1987 b43e 2959 c53e 4c43 55bd
00000060: 1d1a 3ebd a134 0bbe 1dc0 d3be 9d74 d8be
00000070: 2b02 4d3e 9694 67be a4d1 90be f8a2 b7bc
00000080: a2c6 c8bd 75a8 11be 35a3 483c fe44 9fbd
00000090: d819 20be 3919 4cbe 52f1 aabe 7ca7 ae3e
000000a0: 6752 38be eb31 a73d e0ef 22be 37f0 2f3d
000000b0: ee54 d23e 12e6 493e 7ba2 b9be d88b 383e
000000c0: 7394 c43e b3a6 dd3d 560f 993e 647f d53e
000000d0: 0bdf 5cbd b8e6 b43d fd15 99be 8f2a e6bd
000000e0: d0fe a83e a629 8e3e 5cdc 60be e317 bcbe
000000f0: 6da6 94be a679 cabe 98b5 b2be 7914 d8bd
-0.058579016 0.011612762 -0.098477125 -0.382903 0.21335366 -0.5056037 0.2634452 0.32117683
0.42302662 -0.11048619 -0.3741724 0.09355521 0.26584786 -0.44120803 -0.10592925 -0.26861742
-0.056147713 -0.21882056 -0.172636 -0.13631035 -0.43365762 0.3525932 0.38544586 -0.052066132
-0.046411622 -0.13594295 -0.41357508 -0.4227647 0.20020358 -0.22615275 -0.28284943 -0.022416577
-0.09803511 -0.14224418 0.012245943 -0.07776831 -0.15634859 -0.19931497 -0.33387238 0.34112155
-0.18000184 0.08163818 -0.15911818 0.042953696 0.4108042 0.19716671 -0.36256775 0.18022096
0.38394508 0.10822811 0.29894513 0.41698754 -0.053923648 0.088330686 -0.29899588 -0.11238586
0.33006907 0.2776615 -0.2195906 -0.36736974 -0.29033223 -0.39545935 -0.3490417 -0.1055078

module.0.module.mlp_module.2.weight f4 [64, 64]
00000000: 22f1 b23d 1799 8e3c 313d 8abd 050a 93bd
00000010: 51d0 c03d 4ae5 e3bd 0c23 afbc fcaa 403d
00000020: e892 28bd 734b 683c 834d 36bd 0471 bcbc
00000030: edee 76bd dac5 e2bd d61e dbbd 8441 f1bc
00000040: d884 c53d a297 babc 4887 b0bd 7215 41bc
00000050: 2f79 ee3c 7f58 8e3d f868 a53d 0440 b23d
00000060: 72cf fabd c0bf 0d3d d645 b63d 7062 1ebc
00000070: a4a7 6ebd 61b6 003e 8830 85bd 791e 50bd
00000080: 60c3 b8bd 45c8 0cbd ffe3 e53d 740e 1f3d
00000090: 82d9 73bb 3e70 d3bd 7d67 00be 67e3 de3c
000000a0: 11ec 223e 4b16 503d 0006 e7bd 20a6 80bd
000000b0: c916 f5bd a69a c2bd 8528 0b3d 23a0 773d
000000c0: 7658 cd3d 843d 09be 4600 9e3d 90a6 94bd
000000d0: 0c16 5dbc 248c 493d 34bd c63c dfba c73d
000000e0: cc5d dabd 56d9 eabc 9109 a43d ace6 c2bc
000000f0: 8ed3 d9bc 44eb 34bd eb5b e93d cd08 953c
00000100: fc2e 213d cca1 b4bd 5c42 9fbd 4ab6 4b3d
00000110: e62a 203d 24fd 90bd 3c58 16bd 3966 893d
00000120: 9715 663d d539 023d f587 3cbd dcb6 7ebd
00000130: 0523 08be 4abe 8cbd 465c 62bd f840 5c3d
00000140: c167 91bd e555 0c3d 675f d63d cb96 6ebc
00000150: d3d9 963d f251 bdbd 16b9 afbd 85be d73c
00000160: 400a 74bd fe33 38bd 0984 25bc 5f91 90bd
00000170: 5edd cabd 33c7 153d d98c f23d 2594 783d
00000180: d2f8 fdbb df44 22be b00b 19bc c1d1 f03c
00000190: 94c1 cb3c b0d0 48bd 690c 9cbd d120 e53d
000001a0: 8be6 dcbd 152e 5c3d e71e cebd d17d 63bd
000001b0: 30cb 00bd f310 e2bc b9be 5fbd e460 013e
000001c0: 150c c23c 436d 2c3d b5f9 203e a908 b9bc
000001d0: 3c3b 16be 7e95 b63d 8947 153e 25c8 dcbd
000001e0: cb45 523c 3f11 20be 73be ddbd eddc 123d
000001f0: bb7a 233c 4ff0 6b3c 1b47 d0bb e0d6 8e3d
00000200: 3519 a43c 25be 62bd b7de f1bc 12e0 36bc
00000210: 6f5a 9d3d 9901 c4bd c922 4a3d b776 f0bc
00000220: 13ae f1bd ec9b 8bbd a6ec ce3d 2373 a23d
00000230: a7da 143e 0771 873d 274f ae3d f20f d1bb
00000240: 9c0e 78bd 9882 2bbc f4af 55bd ecb8 98bd
00000250: 77ac 5fbd 0a2e ad3d b2d6 b93d 0bbe 8dbc
00000260: 56c9 b6bd bca4 c23b 4a23 84bd 7286 8abd
00000270: cdd1 a63d f4f9 5d3c f97c 643d d518 d53d
00000280: d2c3 303d 4264 393d a1b5 303d 20db 333c
00000290: 56cf a0ba 2687 ab3c 4737 703d 3200 ea3d
000002a0: f8e1 72bc a9b4 3fbd 581d aebc 33af d5bc
000002b0: ee6f 173d d25b 073e 32ae be3d f08c 143d
000002c0: fc13 bcbd 1983 e1bc 414a 23bd 35fb 0ebd
000002d0: 69f1 21bc 0dbe 11be 1106 2ebc 024f dbbd
000002e0: d699 8fbd ed82 56bd 8639 fb3d 8380 18be
000002f0: c2db e83d 3162 0a3c 161b d6bc f8da a13d
00000300: 5c68 11bd c4e5 9a3d dae6 a53d db6d 06be
00000310: 5475 513d 4a51 b43b 82a8 513d 34e3 003d
00000320: b970 143d b670 cdbd a1be a1bc e405 d33d
00000330: bc00 b93d 2e98 b8bc 1778 14be 869a 11bd
00000340: 6a0f 78bd 28b1 753d 26d1 c0bd bc9b 1d3b
00000350: 4659 1abd a70e 193d 62ff 283e 7b24 1d3c
00000360: f891 7f3d 9c33 3d3d 768f 9b3d 65c0 70bd
00000370: e81a 78bb 160c 633d 4f3f 1fbd 2a12 233d
00000380: 5336 6dbd a372 a7bd 5e90 a93c 7f69 2c3b
00000390: 6fbb 493d 9a37 ef3d ee34 9b3d c74d e13d
000003a0: 2a40 403b 7af1 8dbd dd35 9cbd 2842 72bd
000003b0: 1aa9 c4bd 750d f1bc a847 fdbd 0585 f1bd
000003c0: 5205 9fbd c530 a3bd 620d c0bd 644e 543d
000003d0: b58e 043e adab 2cbc 30b0 99bd 3bff a13d
000003e0: 24cd 90bd e860 02bd 4817 513d 1d4d f6bd
000003f0: 6d79 49bb 9318 bc3d 06a8 b8bc 63f9 263d
0.08737399 0.017406983 -0.067499526 -0.071796454 0.09414733 -0.11127718 -0.021379016 0.047038063
-0.041155726 0.014178145 -0.044507515 -0.023003109 -0.06028645 -0.110728934 -0.10699241 -0.029450186
0.096444786 -0.022777382 -0.08619553 -0.011784898 0.02911052 0.06950473 0.08076662 0.08703616
-0.12246598 0.034606695 0.08900039 -0.009667024 -0.058265343 0.12569572 -0.06503397 -0.05081031
-0.0902164 -0.03437068 0.112251274 0.038832143 -0.0037208502 -0.10324143 -0.12539478 0.027208043
0.15910365 0.05080251 -0.11280441 -0.06281686 -0.119672365 -0.09502153 0.03397419 0.060455453
0.10026638 -0.13402373 0.07714896 -0.07258332 -0.013494026 0.049205914 0.024260141 0.0975244
-0.106624216 -0.028668087 0.08009637 -0.023791634 -0.026590135 -0.04416968 0.11394485 0.018192673
0.03935145 -0.08819923 -0.07776329 0.04973439 0.03910341 -0.07079533 -0.03670524 0.067089505
0.056172933 0.031793434 -0.046028096 -0.062186107 -0.13294609 -0.06872232 -0.05526378 0.053772897
-0.070998676 0.034261603 0.10467415 -0.014562319 0.073657654 -0.092441455 -0.08580224 0.026335964
-0.059580088 -0.04497146 -0.01010228 -0.07058977 -0.09905504 0.036566924 0.11843271 0.060688157
-0.007750609 -0.15846585 -0.009341165 0.029396893 0.024872579 -0.049027145 -0.076195545 0.111879
-0.1078616 0.053754885 -0.10064488 -0.05553991 -0.031443775 -0.027595973 -0.054625247 0.12634617
0.023687402 0.042096388 0.15720256 -0.022587137 -0.14671034 0.08915232 0.1457807 -0.10780362
0.012834023 -0.15631579 -0.10827341 0.035855222 0.009977992 0.014400556 -0.0063561327 0.06974578
0.02003155 -0.055357117 -0.029525144 -0.011161821 0.076832645 -0.09570617 0.04934958 -0.029353483
-0.1180078 -0.06816849 0.10103731 0.07932117 0.14536534 0.06613355 0.08511191 -0.0063800747
-0.060560808 -0.010468148 -0.052169755 -0.07457146 -0.054607835 0.08456047 0.09074153 -0.017302534
-0.089251205 0.005940048 -0.06452043 -0.06763925 0.08145485 0.013548363 0.055783246 0.10405127
0.0431555 0.04526163 0.043141965 0.010977536 -0.0012268822 0.020938467 0.058646467 0.114258185
-0.014824383 -0.04680315 -0.021254227 -0.026084518 0.03697198 0.1321862 0.09310569 0.03626722
-0.09183499 -0.027528333 -0.039865736 -0.03490754 -0.009884217 -0.14232655 -0.0106215635 -0.10708429
-0.07011764 -0.052370954 0.12266831 -0.14892773 0.113700405 0.008446262 -0.026135962 0.07903093
-0.035499915 0.075633556 0.08100672 -0.13127844 0.051137283 0.0055028545 0.051186092 0.031466678
0.036240313 -0.100312635 -0.01974422 0.10303858 0.09033343 -0.022533502 -0.14498936 -0.035547756
-0.060561575 0.059983402 -0.09414892 0.0024049124 -0.037682794 0.03736749 0.16503671 0.009591217
0.062395066 0.046191797 0.075957224 -0.05877723 -0.0037857834 0.055431448 -0.038878735 0.039812244
-0.057913136 -0.08176162 0.020698722 0.0026307998 0.049251016 0.11680527 0.07578455 0.11001163
0.002933512 -0.069308236 -0.07627461 -0.059145123 -0.09602566 -0.029425362 -0.12367183 -0.117929496
-0.07764687 -0.079682864 -0.093775526 0.05183257 0.12945063 -0.010538978 -0.07504308 0.079100095
-0.070703775 -0.0318307 0.051047593 -0.12026427 -0.0030742541 0.09184375 -0.022541057 0.040765177

module.0.module.mlp_module.2.bias f4 [64]
00000000: fa6b b3bc cd32 dcbd fced d1bd ff82 96bd
00000010: 976e dbbd 4904 b33d 3cca 5abd 2b0c 30bd
00000020: 4a44 bbbd d38c a43c 4eec 00bd c59c cbbd
00000030: c3c0 b03d cd4f dc3d 5bd7 cdbd 3414 923d
00000040: 64de afbc 5db5 26bb 24db 663d a7c5 7bbc
00000050: d842 a63d 6dfa ad3d dd5a 93bd 634e 95bd
00000060: 7f6f ebbd 577e 163d 15cd b2bd 26bd c1bd
00000070: eeab a7bd 5b54 f1bd 137f e3bd c8fe cb3d
00000080: f232 8f3d 5b6e c53d f03d 83bd fe88 4cbd
00000090: b939 6dbd d151 973c a3ae 91bd c9f2 c53c
000000a0: c58f 85bd ff65 db3c f89a d33d 329c 793c
000000b0: e1f7 b23d c13f a0bd 4c2b 1bbc b603 9abd
000000c0: e4eb eabb d893 3cbd d53d 6fbd 74e1 e7bd
000000d0: aec0 25bd 5d0b 123d 2217 cdbc 5ca3 a8bd
000000e0: 65d9 bd3d 7b12 cb3d d5f4 80bd 7a6b 5e3c
000000f0: f8cf a03d 6982 ebbd 61a5 d1bd 785e 8a3d
-0.021902073 -0.10751877 -0.1025047 -0.07349204 -0.10714453 0.08741052 -0.053415522 -0.042980354
-0.091438845 0.020086681 -0.031475358 -0.09942011 0.086305164 0.10757408 -0.100508414 0.0713276
-0.021468349 -0.002543769 0.056361333 -0.015366948 0.08118218 0.084950306 -0.07195065 -0.07290342
-0.114958756 0.03674158 -0.087305225 -0.09459905 -0.0818709 -0.11783668 -0.11108222 0.09960705
0.06992139 0.09640189 -0.06408298 -0.049935333 -0.057916377 0.01847163 -0.071133874 0.02416362
-0.065215625 0.026782034 0.10332292 0.015234994 0.087386854 -0.0782466 -0.009470772 -0.07520239
-0.0071692336 -0.046039432 -0.058408577 -0.11322299 -0.040466957 0.035655368 -0.025035445 -0.08234283
0.0926998 0.09915634 -0.06296698 0.013575429 0.07852167 -0.11499483 -0.10236622 0.067563

module.0.module.mlp_module.4.weight f4 [4, 64]
00000000: cc52 babc 58ab 4d3d 0917 edbc ad31 e5bc
00000010: c366 2c3d aedb 47bc 4b6f 96bd 98b2 66bd
00000020: 0080 81bc 8f64 763d f31a bbbd 1a31 79bb
00000030: 4754 c83d 4439 033c 631a 1bbd 0975 c5bc
00000040: ea63 5bbd f4a3 e1bb 8ada f5bd cb29 723c
00000050: f4f6 dfbb 5dcb 02bc 5825 a0bb 70d2 293d
00000060: 8664 9abd 5538 cebd 7089 3ebd 6a32 bcbd
00000070: aa52 65bd adb0 be3d 7010 acbd 60fe 3ebd
00000080: 28b9 f3bd af3f 8ebd ad93 753c 8d1c aebd
00000090: a52a a43b afc4 2f3d cf17 a5bd 96a2 243d
000000a0: 3c43 753c 386d 423d 0c06 cbbc c064 093e
000000b0: 2045 8c3d 16ac 303c 6f84 ad3d d735 57bd
000000c0: db21 6fbd e892 5a3d ea44 a63d 3833 ba3d
000000d0: a3ba e0bb cc38 21bb f899 bc3d e111 993a
000000e0: d919 ec3d 01b6 16bd 19b9 5abd 7a34 4f3b
000000f0: ff95 8c3d 0e57 82bd e166 7cbc 295b a43d
00000100: 13ba c23c 291c d63d 12a7 c5bc 5b60 91bc
00000110: 5005 f5bd a6f2 91bd 79cb e7bd 460d b03c
00000120: f89f 513d eaf3 0cbd 2f75 2d3e 4970 54bc
00000130: 0ba4 803d 65c4 51bc e4a4 c63d d1b1 05be
00000140: 3768 bf3d 2042 02bd 7d19 df3c ad84 87bd
00000150: 8a1e ac3c b171 d2bd c441 6fbd d3ee c2bd
00000160: 4ec7 7ebd 2a6d 32bd c5fd 68bc a2de 233d
00000170: 878f 7b3d 1c44 bebc d093 963d 47b0 95bd
00000180: 01d5 f6bc 0d19 7b3c 3815 32bd abba 3e3c
00000190: 694c 2a3e dac6 1c3c ba20 cfbd 2d45 c6bd
000001a0: 5b16 843c b26e cbbd 7732 2a3c 86d0 ed3d
000001b0: 68c4 283d 3fcc f4bb 6109 64bc 808c 08bd
000001c0: 044c c23b 6222 ad3d 965a debd 25b2 60bc
000001d0: b281 9dbd 378f d9bc 6ba1 58bd 4c3a babd
000001e0: 4a43 a2bc ed38 27be a619 8dbd 8a2d 153e
000001f0: 4921 af3d c037 80bd 4c59 a7bd a141 ebbd
00000200: 236b 7ebb 9c6a 46bd 4c1d 583d d50a 07bd
00000210: 4387 553d e265 a9bc 930e b8bc d1a0 a33d
00000220: 4593 c33d b576 a1bc 831c 84bd 916e 81bd
00000230: b850 1e3d 3a71 9e3d bfff 18bd deb9 0fbd
00000240: b702 fabd 040a 8b3d 89ff ae3d 5962 d83c
00000250: 76eb 77bd 6efc b13d c617 36bd d53c d63c
00000260: cd2c 203d e505 0fbe c878 0cbd 0526 233d
00000270: 0f9b 67bd e9e3 103e ab00 b23d 7a28 f73c
00000280: 7d73 a5bc ec8b 28bd fecf 75bd 08a7 313d
00000290: 3fa5 223c d4f1 273d d6d6 db3d 7496 25bd
000002a0: a5db 2ebd 49a6 393d 874b 053e 96fc 5e3c
000002b0: 67bd a73b b1df 263c 442f 3e3d 2d2b bfbd
000002c0: 9211 793d 03ff 9a3c 7307 cfbd 4c2b 38bd
000002d0: 69ea 91bd ed59 4d3d 5a21 cd3c 1486 fb3c
000002e0: a01b 10bd 6c11 863c 3be3 943d cb9e 703d
000002f0: 4fba fdbc 1b15 ff3c 350c b1bd f544 a13c
00000300: a826 14bd 9f25 9c3b 2670 283b de8b 8bbd
00000310: 0006 333d c0ca 4f3d 67c4 b7bd 07d2 f8b9
00000320: cd44 89bd 45b8 92bc f1cf fc3c ec90 d4bc
00000330: 4730 153d f544 9bbc 72d0 9d3d 6795 f9bc
00000340: dc85 053d 9cec c5bc 3341 a83d 6508 acbb
00000350: 2994 723d 6b12 c73a 53cb 473d 8a01 173c
00000360: 392e 013d fdb9 cc3d 42cd 9dbc 24a1 47bd
00000370: e5cb dfbb 5609 e73b 39d5 b4bd 5d8f 0a3d
00000380: fe32 d6bd acd5 21bd 0374 1f3d b468 693d
00000390: 3af0 14bd 4211 a43d 5aff 8e3d 5ac8 cb3d
000003a0: 92a6 babd 0c2d 62bd 995b 80bc 6c6a 913d
000003b0: 32ee b1bc a748 86bb 36f4 113d 54a8 65bd
000003c0: 99f2 66bd 878c bf3d 4ad9 673d 6344 603d
000003d0: 80c6 45bd 70a8 d3bc c155 b63d a5e8 86bc
000003e0: 4586 4b3d 84b2 a3bd be20 bc3d 56d5 44bd
000003f0: fcc0 84bc 8caa 3ebd 2579 18bc 5ffb bdbd
-0.022744559 0.050212234 -0.028941648 -0.027977789 0.04209019 -0.012198372 -0.07345446 -0.056322664
-0.015808105 0.060154494 -0.091359995 -0.0038023652 0.097817 0.008009259 -0.03786696 -0.024103658
-0.053562082 -0.006886 -0.12004574 0.014780472 -0.006834859 -0.007983056 -0.004887264 0.041460454
-0.075387046 -0.10069338 -0.04651779 -0.09189303 -0.055987038 0.09311042 -0.08401573 -0.04662931
-0.1190055 -0.069457404 0.014988822 -0.085015394 0.0050099664 0.04291218 -0.08061182 0.040194117
0.014969643 0.04746744 -0.024783157 0.1341734 0.06849122 0.010783216 0.08472525 -0.05254158
-0.058381896 0.053362757 0.08118613 0.090918005 -0.0068581863 -0.0024600504 0.09209055 0.0011678302
0.115283675 -0.036794666 -0.05339918 0.0031616972 0.06864547 -0.063642606 -0.015405388 0.080252
0.023770368 0.1045459 -0.024127517 -0.017746141 -0.11963904 -0.0712636 -0.11318106 0.021490704
0.05117795 -0.034412302 0.16939233 -0.012966224 0.06281289 -0.012803172 0.09699419 -0.13056113
0.09346049 -0.031801343 0.027233833 -0.06617103 0.021010656 -0.10275591 -0.05841233 -0.09518208
-0.06220179 -0.04356114 -0.01422066 0.04000724 0.061416175 -0.023225836 0.07352412 -0.07309013
-0.030130865 0.015325797 -0.043477267 0.011641185 0.1663071 0.009568894 -0.10113664 -0.09681163
0.016123941 -0.09933223 0.010388008 0.11612038 0.041202933 -0.007470637 -0.013918252 -0.033337116
0.005929472 0.084538236 -0.10857122 -0.013714348 -0.07690753 -0.026557548 -0.052888315 -0.090931505
-0.019807477 -0.16330309 -0.06889658 0.14568153 0.085512705 -0.062606335 -0.08171329 -0.11487127
-0.0038821183 -0.048441514 0.052762315 -0.032969315 0.05213095 -0.020678464 -0.022467887 0.07989658
0.09549574 -0.019709924 -0.06450751 -0.06319917 0.0386512 0.0773644 -0.037353273 -0.035089366
-0.12207549 0.0678902 0.08544833 0.026414083 -0.060527287 0.08690725 -0.044456266 0.026152054
0.039105225 -0.13967092 -0.034294873 0.03983118 -0.05654436 0.14149441 0.08691534 0.030170668
-0.02019667 -0.041149065 -0.06001281 0.043372184 0.009927093 0.04100211 0.10734336 -0.040426686
-0.042689938 0.045324598 0.13017093 0.013610026 0.005119014 0.010185168 0.046431795 -0.09334407
0.060807772 0.018920427 -0.10108843 -0.044963166 -0.07124788 0.050134588 0.025040317 0.030703582
-0.035182595 0.01636573 0.07269903 0.058745187 -0.030972628 0.031137994 -0.086449064 0.019686202
-0.036169678 0.004765227 0.0025701611 -0.06813787 0.043706894 0.050730467 -0.08973008 -0.0004745873
-0.06702576 -0.017910132 0.030860873 -0.02594801 0.036422994 -0.01895378 0.077057734 -0.030466748
0.03259836 -0.024160676 0.08215561 -0.005250024 0.059223328 0.0015187984 0.04877789 0.009216676
0.031538222 0.09996412 -0.019262914 -0.04873766 -0.006829726 0.0070506735 -0.088297315 0.033828128
-0.10458945 -0.039510414 0.038928997 0.05698462 -0.03636191 0.08011104 0.06982298 0.099503234
-0.09113802 -0.05521874 -0.015668677 0.071003765 -0.021720026 -0.0040980163 0.03563329 -0.056068733
-0.056383703 0.09352975 0.056603707 0.05475272 -0.048285007 -0.025837153 0.08903075 -0.016468355
0.049688596 -0.079930335 0.091859326 -0.048055016 -0.016205303 -0.046549365 -0.009306227 -0.09276461

module.0.module.mlp_module.4.bias f4 [4]
00000000: 1115 d2bd 6d4b 0fbd c5e6 61bd 6d65 da3d
-0.10257924 -0.03498404 -0.05515172 0.10663877
