torchRL/wandb/offline-run-20250601_183008-m4wkqhjd/files/models/value_network.pt (torch, 21341 bytes, 5 tensors)

module.0.weight f4 [64, 4]
0	0x3e5851e7	0.21124993
1	0x3efa4363	0.48879537
2	0xbc170bd6	-0.0092191305
3	0x3e27153b	0.16316693
4	0x3f2b1d3c	0.66841483
5	0xbf028ec4	-0.50999093
6	0xbe01de56	-0.1268247
7	0x3e60d1ee	0.21955082
8	0xbeb10710	-0.345757
9	0xbe015133	-0.12628631
10	0xbcba35e3	-0.022730773
11	0xbe3abfdf	-0.18237256
12	0xbe551424	-0.20808464
13	0xbe79ac64	-0.24382168
14	0x3d7a2233	0.06106777
15	0xbdc23d88	-0.094843924
16	0x3bbf864f	0.0058448683
17	0xbec18d8d	-0.37803307
18	0x3dfaa160	0.12237811
19	0xbd039c75	-0.03213163
20	0xbf13c15e	-0.5771693
21	0xbe95443c	-0.2915362
22	0xbeb17f5e	-0.34667486
23	0x3e8707fb	0.26373276
24	0x3ec354ea	0.38150722
25	0xbf14e2ef	-0.58158773
26	0x3c95fca2	0.018308941
27	0xbaefc2b0	-0.0018292274
28	0xbd273839	-0.040825102
29	0x3e6b41cf	0.22974323
30	0x3eb964ab	0.36209616
31	0x3f0019d6	0.5003942
32	0x3bba7430	0.00569012
33	0xbdf7c6a1	-0.12098432
34	0xbea7badc	-0.3275975
35	0xbe1d0acc	-0.1533615
36	0x3dcb57f7	0.09928887
37	0xbe40a190	-0.18811631
38	0x3e87efee	0.2655024
39	0xbf0e3854	-0.555547
40	0x3e9411f0	0.28919935
41	0xbe67f39d	-0.22651525
42	0x3de6a3e7	0.11261731
43	0x3eaa94f6	0.33316773
44	0xbe499f41	-0.19689657
45	0xbe104a3c	-0.14090818
46	0xbe4148df	-0.18875454
47	0xbeea5c0e	-0.45773357
48	0xbe8f0200	-0.27931213
49	0x3ebb143d	0.36538878
50	0xbe6960a3	-0.2279077
51	0x3ec7a865	0.38995662
52	0x3dbcb122	0.09213473
53	0x3dd21a1e	0.10258888
54	0x3ec4788d	0.38373223
55	0xbd73b6e2	-0.059500583
56	0x3ecb5e70	0.39720488
57	0x3f0d76e3	0.5525953
58	0xbd9f7895	-0.07786671
59	0x3ed59bd6	0.41720456
60	0xbe77d77b	-0.24203293
61	0x3f0dcedb	0.5539376
62	0xbdda0db8	-0.10647148
63	0x3d3310ed	0.043717314
64	0x3e4e34e3	0.20137362
65	0x3e4bd2a1	0.19904567
66	0x3ed9abb5	0.42513815
67	0xbc0339f5	-0.0080094235
68	0xbd6b7034	-0.057480052
69	0x3f262f6d	0.64916116
70	0xbe52dfc9	-0.2059318
71	0x3ef74893	0.48297557
72	0x3f2b7e84	0.6698992
73	0x3ea27f17	0.31737587
74	0xbde63c02	-0.11241914
75	0xbd298967	-0.041390803
76	0xbecbccf9	-0.3980482
77	0xbefba245	-0.4914724
78	0xbdf35da1	-0.11883093
79	0xbeffcb7f	-0.49959943
80	0x3f015682	0.50522625
81	0x3e6a6925	0.22891672
82	0xbd7b1fd2	-0.061309643
83	0xbe14bb54	-0.14524585
84	0x3f17f1a4	0.5935309
85	0xbde99951	-0.11406196
86	0x3e913988	0.28364205
87	0x3e8c64fc	0.27420795
88	0xbeb04098	-0.3442428
89	0xbf1b3f3c	-0.60643363
90	0x3ec7499e	0.38923353
91	0xbebee6c5	-0.37285438
92	0x3e8c285f	0.2737455
93	0xbf0b3c85	-0.5438922
94	0x3bdc97ee	0.0067319786
95	0xbbdff8b0	-0.006835066
96	0xbe81803c	-0.25293148
97	0x3efadda5	0.48997226
98	0xbeb22be3	-0.34799108
99	0xbbe6b543	-0.007040651
100	0x3dc6e8c5	0.09712366
101	0x3f04fdad	0.5194958
102	0x3e61b3db	0.22041266
103	0x3ecb956f	0.39762446
104	0x3ef12565	0.47098842
105	0x3eeb382f	0.45941302
106	0xbcc60ad6	-0.024175089
107	0xbe1b99ab	-0.15195338
108	0xbe2c52a6	-0.16828403
109	0x3eadf700	0.3397751
110	0xbdd1cb86	-0.10243897
111	0x3ea99537	0.33121654
112	0x3d8c9cfc	0.0686588
113	0x3ea6fd8e	0.32615322
114	0x3eb3c710	0.3511281
115	0x3ea6abfb	0.32553086
116	0x3f0dbf12	0.55369675
117	0xbe64ba55	-0.22336705
118	0xbe92d36e	-0.28676933
119	0x3e134d77	0.14385019
120	0x3df5952f	0.11991345
121	0x3f1ebeb6	0.6200975
122	0x3e39b467	0.18135224
123	0x3e8b4061	0.27197555
124	0xbe930c85	-0.2872049
125	0xbf2ec33b	-0.6826665
126	0x3d75ac23	0.059978615
127	0x3db8aa9f	0.090169184
128	0xbe94be78	-0.29051566
129	0xbe669207	-0.22516643
130	0x3de3ee02	0.11129381
131	0xbe6cd00d	-0.2312624
132	0x3af8ba67	0.0018976451
133	0xbf01e181	-0.50734717
134	0xbec5bef6	-0.38622254
135	0xbeb0ed2f	-0.34555957
136	0xbe90d354	-0.2828623
137	0x3ea513c7	0.3224165
138	0x3e4da450	0.20082211
139	0xbdd89b38	-0.105764806
140	0x3de6609a	0.11248894
141	0x3d9ed3ba	0.077552274
142	0xbd10cfb4	-0.03535433
143	0xbe007a8a	-0.12546745
144	0x3ea59222	0.32338053
145	0x3d7c07a3	0.06153072
146	0x3e8215a4	0.25407135
147	0x3f11ee6a	0.57004416
148	0x3e7f915a	0.24957791
149	0xbea3bdc2	-0.3198071
150	0xbe8d2d95	-0.2757384
151	0xbf002cae	-0.50068176
152	0x3e126600	0.14296722
153	0x3d808813	0.06275954
154	0x3e977e85	0.29588714
155	0xbe16d743	-0.14730553
156	0x3efaba28	0.4897015
157	0xbead1882	-0.3380776
158	0x3d6a5a23	0.057214867
159	0xbebf686d	-0.37384358
160	0x3ea1ca29	0.31599548
161	0x3ef203ab	0.47268423
162	0x3e40490d	0.18777867
163	0x3d861fc6	0.06549029
164	0xbdf89ec3	-0.121396564
165	0xbf0c0d7e	-0.5470809
166	0xbe8d172c	-0.2755674
167	0xbef6938e	-0.4815945
168	0x3edb7359	0.4286144
169	0xbea9b1a2	-0.33143336
170	0xbdf71b77	-0.120657854
171	0xbefb9d5e	-0.491435
172	0xbe2f48d8	-0.17117631
173	0x3f201f98	0.6254821
174	0x3e0e0693	0.13869695
175	0x3dd63155	0.10458628
176	0x3e4683e7	0.19386254
177	0x3f230dad	0.6369274
178	0x3ec14683	0.3774911
179	0xbdb71342	-0.0893922
180	0x3e2f621c	0.1712727
181	0xbf183c86	-0.5946735
182	0xbea3486e	-0.31891197
183	0x3dd33750	0.103132844
184	0xbe5ebadb	-0.21750967
185	0xbec1b17a	-0.37830716
186	0x3e530d6f	0.20610593
187	0x3e7e9716	0.24862322
188	0xbf25b121	-0.647234
189	0xbe5d6874	-0.21621877
190	0xbe0db95d	-0.13840242
191	0x3edcda84	0.43135464
192	0x3e74d428	0.23909056
193	0x3f0685a5	0.52547675
194	0x3e94c9b2	0.2906013
195	0x3e34459e	0.17604682
196	0x3e815f4a	0.25268012
197	0x3e0d2e23	0.13787131
198	0x3d8d4a81	0.06898976
199	0x3de04ce8	0.10952169
200	0x3e3e2fe9	0.18572964
201	0x3ebe8158	0.37208056
202	0x3c85939b	0.016305735
203	0x3f08228a	0.531777
204	0x3e0e6bcf	0.13908313
205	0x3dc2c911	0.095110066
206	0x3ee10be3	0.4395438
207	0x3e379159	0.1792654
208	0xbecfedcd	-0.40611115
209	0xbe574050	-0.21020627
210	0x3c94ee21	0.018179955
211	0x3d1aecd3	0.03782351
212	0xbda130b5	-0.07870618
213	0x3f0d3757	0.55162567
214	0x3e2e9c87	0.17051898
215	0xbb478311	-0.0030443112
216	0xbf00b63b	-0.5027806
217	0x3f0ae144	0.5424998
218	0x3aef4ddd	0.0018257458
219	0xbd4249c0	-0.047433615
220	0xbe253327	-0.16132794
221	0x3f03ec71	0.51532656
222	0x3e899c8d	0.2687725
223	0xbea00288	-0.3125193
224	0xbf06efc5	-0.5270961
225	0x3f0f17e9	0.5589586
226	0x3e39b89e	0.18136832
227	0x3ddd2757	0.10798519
228	0xbe5bffdb	-0.2148432
229	0x3ed11702	0.40837866
230	0xbe54ab38	-0.2076844
231	0x3eb461d5	0.3523089
232	0xbf17041d	-0.5899065
233	0xbeb14193	-0.34620342
234	0xbebca732	-0.3684631
235	0x3eebbc17	0.4604194
236	0x3ee8b993	0.45454082
237	0xbece8cab	-0.40341696
238	0x3e20d798	0.15707242
239	0xbe836786	-0.2566492
240	0xbe5ddd3f	-0.2166643
241	0x3ebed324	0.37270463
242	0x3e970789	0.29497936
243	0x3eb467a9	0.35235336
244	0x3e058c54	0.13041812
245	0x3f1acd33	0.6046936
246	0xbe7fa22f	-0.24964212
247	0x3e96c43b	0.29446587
248	0xbd35cd0d	-0.044385005
249	0xbe4968dc	-0.19668907
250	0x3e9111fe	0.2833404
251	0xbf0a654d	-0.5406082
252	0x3eb7e454	0.35916388
253	0xbe4dd09f	-0.20099114
254	0x3e86ce64	0.2632934
255	0xbdfb5311	-0.12271703

module.0.bias f4 [64]
0	0x3edb6419	0.42849806
1	0x3f2580ac	0.6464946
2	0xbebead93	-0.37241802
3	0xbf2be5a9	-0.6714731
4	0x3f269882	0.6507646
5	0xbef1db45	-0.47237602
6	0x3ebe01b8	0.37110686
7	0x3f029a2b	0.5101649
8	0xbe79ba08	-0.24387372
9	0x3f1bd481	0.6087113
10	0x3efdd9a0	0.49580097
11	0xbe94fbd4	-0.2909838
12	0x3e97d705	0.29656234
13	0x3e73e199	0.23816527
14	0x3f320832	0.69543755
15	0x3f0c5289	0.5481344
16	0xbf028b25	-0.5099357
17	0x3e6bc62d	0.23024817
18	0x3ee26640	0.44218636
19	0x3f1b4699	0.606546
20	0x3eaf2edd	0.3421544
21	0x3ee2391e	0.44184202
22	0xbe7ff982	-0.24997523
23	0xbd8cee76	-0.0688142
24	0xbf0cae47	-0.54953426
25	0x3f18ba0a	0.59658873
26	0x3f1487fa	0.58019984
27	0xbefc540b	-0.4928287
28	0xbf1e4c6e	-0.6183537
29	0x3f10d901	0.5658112
30	0xbf252ff0	-0.6452627
31	0x3f034722	0.51280415
32	0xbf2a5389	-0.66533715
33	0xbee2e7bf	-0.44317433
34	0xbec7d45c	-0.39029205
35	0x3f26cff7	0.6516108
36	0xbe6e6aaf	-0.23282884
37	0x3f1fbded	0.6239918
38	0x3eaaeee5	0.33385387
39	0x3f33d809	0.7025152
40	0x3f00c5a6	0.5030159
41	0x3f219290	0.6311426
42	0x3f2b2a51	0.66861445
43	0xbecc63cf	-0.39919898
44	0xbeb95287	-0.36195776
45	0x3ec3eca7	0.3826649
46	0x3f1cf42a	0.61310065
47	0xbebea525	-0.3723537
48	0xbf17019d	-0.58986837
49	0xbf138a26	-0.5763267
50	0xbef4fdcf	-0.4784989
51	0x3e8df351	0.27724698
52	0xbe638ce6	-0.22221717
53	0xbebb5f13	-0.36595973
54	0xbeed0c00	-0.46298218
55	0x3e9ebaa2	0.31001765
56	0xbf2449cb	-0.641751
57	0x3f260bd5	0.64861804
58	0xbe20e17f	-0.1571102
59	0x3ebc1ffd	0.36743155
60	0x3eb5f2c7	0.35536787
61	0xbef1a212	-0.47193962
62	0x3f168d21	0.58809096
63	0x3e7cad5e	0.2467551

module.2.weight f4 [64, 64]
0	0xbe2cee7f	-0.16887854
1	0xbe71fe4c	-0.23632163
2	0x3e5415dd	0.20711465
3	0x3e35dbd0	0.17759633
4	0xbda63f2e	-0.08117519
5	0x3e112fb1	0.14178349
6	0x3cf70d06	0.030157577
7	0xbd93ac9c	-0.07210657
8	0x3e8152ed	0.2525858
9	0xbde16504	-0.11005595
10	0xbdf0fa1f	-0.11766457
11	0x3e00d05c	0.12579483
12	0xbe66e75c	-0.22549194
13	0xbe2d4658	-0.16921365
14	0xbe2c4c85	-0.16826065
15	0xbe4e7d62	-0.20165017
16	0xbb6199ef	-0.0034424027
17	0xbdf3c41f	-0.119026415
18	0xbe089631	-0.13338543
19	0xbe29d1ef	-0.1658399
20	0xbdbce0e8	-0.09222585
21	0xbe8a06b2	-0.26958233
22	0x3e9296c8	0.28630662
23	0x3e003e3c	0.1252374
24	0x3d6bda3a	0.057581164
25	0xbd672e26	-0.056440495
26	0xbe6f81e2	-0.2338939
27	0x3ce6f3aa	0.02819236
28	0x3e47f767	0.1952797
29	0xbe1e7fcc	-0.15478438
30	0x3d1edac3	0.038782846
31	0xbd72c572	-0.05927033
32	0x3df8e84b	0.12153681
33	0x3e7ffe41	0.24999334
34	0x3e5c2004	0.21496588
35	0xbd73488f	-0.05939537
36	0x3d33acb1	0.043865863
37	0xbd737720	-0.05943978
38	0xbe1485f8	-0.1450423
39	0xbdb0c7ef	-0.08631884
40	0xbe2e1da0	-0.17003489
41	0x3a2618c1	0.0006336086
42	0xbcb75769	-0.022380548
43	0x3d352cd0	0.04423219
44	0x3dd36a9d	0.10323069
45	0xbd995189	-0.07486255
46	0xbd57ec5c	-0.052715644
47	0x3e8139a5	0.25239292
48	0x3bf4d3b3	0.0074715256
49	0x3df3916c	0.118929714
50	0x3d2845f3	0.041082334
51	0xbe99d173	-0.3004261
52	0x3d8461cc	0.06463966
53	0x3d697d0b	0.057004016
54	0x3e4337dd	0.19064279
55	0xbe471dec	-0.19445008
56	0x3e0e5144	0.13898188
57	0xbd6f082c	-0.058357403
58	0x3bf2e40e	0.00741244
59	0xbbfd57f2	-0.007731431
60	0xbe0f65ef	-0.14003728
61	0xbd9ab81a	-0.07554646
62	0xbdb46166	-0.0880764
63	0xbe7f77b0	-0.24948001
64	0x3e319679	0.17342557
65	0x3e8769f7	0.26448032
66	0xbd58e978	-0.05295703
67	0x3b20549c	0.0024464494
68	0x3e8516c2	0.25993925
69	0xbc678996	-0.014131924
70	0x3eb724c1	0.35770229
71	0xbc006cd1	-0.007838444
72	0x3d8ad04a	0.06778009
73	0x3e86e98a	0.2635005
74	0x3da8b4a4	0.082375795
75	0xbde31561	-0.11088062
76	0x3e2143e8	0.1574856
77	0x3e04d0f8	0.1297034
78	0x3e45d382	0.19318965
79	0x3dacfd84	0.08446792
80	0x3c01aee8	0.007915236
81	0xbdac046e	-0.083992824
82	0x3e0b59c5	0.13608463
83	0x3e94388e	0.28949398
84	0x3dee196c	0.116259426
85	0x3e921003	0.2852784
86	0x3a05611c	0.0005088018
87	0x3e04b8a9	0.12961067
88	0xbe2bc863	-0.1677566
89	0x3d9cba73	0.0765275
90	0x3db6379d	0.08897326
91	0xbeb828fd	-0.35968772
92	0xbe3f650f	-0.18690895
93	0x3db6433a	0.08899541
94	0xbe3e770b	-0.18600099
95	0x3eb0a35d	0.34499636
96	0xbe5739d3	-0.21018152
97	0xbe0383ba	-0.12843218
98	0xbd9d5636	-0.07682459
99	0x3d562ce8	0.05228892
100	0xbd92f990	-0.071765065
101	0x3eb67827	0.35638544
102	0x3e03f142	0.12885001
103	0x3e07bea8	0.13256323
104	0x3e102b15	0.14078934
105	0x3ea5d42a	0.3238843
106	0x3eb267b8	0.34844756
107	0xbe9ac434	-0.30227816
108	0xbe44b376	-0.19209084
109	0x3e48e8d4	0.19620067
110	0x3e0b1361	0.13581611
111	0xbe19b6e3	-0.15011172
112	0xbe038d95	-0.12846978
113	0xbe392a90	-0.18082643
114	0xbe905bae	-0.28194946
115	0x3c60fe1c	0.013732459
116	0xbe256445	-0.16151531
117	0xbe8e8dd3	-0.27842578
118	0xbe84e588	-0.25956368
119	0x3d92b9c6	0.0716434
120	0xbe805e47	-0.25071928
121	0x3db5d4ac	0.088784546
122	0xbdeb05d9	-0.11475725
123	0x3ea8f067	0.32995912
124	0xbd5320ae	-0.051544838
125	0xbe86d23f	-0.2633228
126	0x3e965a45	0.29365745
127	0x3ec8048f	0.39065978
128	0xbe61b28f	-0.22040771
129	0xbb90ae18	-0.004415285
130	0x3dbadad8	0.091237724
131	0x3e40768b	0.1879522
132	0x3c7477bf	0.014921128
133	0x3e11a355	0.14222462
134	0xbbe4df4b	-0.0069846264
135	0xbe8aceec	-0.27110994
136	0x3dc6b056	0.09701602
137	0xbe02bd21	-0.1276746
138	0xbe745bfa	-0.23863211
139	0x3e2388f1	0.15970208
140	0xbd0cf520	-0.034413457
141	0xbe0dcf3b	-0.13848583
142	0xbd22f543	-0.03978468
143	0xbe6d612f	-0.23181604
144	0x3e11fa01	0.14255525
145	0xbd29efb7	-0.041488376
146	0xbd270ff9	-0.040786717
147	0xbdfc5dce	-0.12322579
148	0xbe8c0edc	-0.27355087
149	0xbe4e3d3d	-0.20140548
150	0x3e84cef3	0.2593914
151	0x3d984f9b	0.074370585
152	0x3e50c649	0.2038814
153	0xbe7daaaa	-0.24772134
154	0xbe67c1d9	-0.22632541
155	0x3e0d77a7	0.13815175
156	0x3e050825	0.12991388
157	0xbe427efc	-0.18993753
158	0x3e47aea5	0.19500215
159	0xbdeaeab3	-0.114705466
160	0x3cce5bbb	0.025190225
161	0x3e3d8939	0.18509378
162	0x3cfae0f6	0.030624848
163	0xbe288fdc	-0.16461128
164	0xbd1ca97b	-0.038247567
165	0xbd419b5c	-0.047267303
166	0xbd9eb875	-0.07750026
167	0xbb7cb7f3	-0.003856179
168	0xbe662d21	-0.22478153
169	0xbdd5dd43	-0.10442593
170	0x3d12a158	0.0357984
171	0xbcb19c5a	-0.021681
172	0xb9aa5e55	-0.0003249521
173	0xbdba435d	-0.0909488
174	0xbe486faf	-0.19573854
175	0x3d30de2f	0.04318064
176	0x3e46cdf9	0.1941451
177	0x3ded5bc2	0.11589767
178	0x3daa5575	0.08317081
179	0xbdd309b6	-0.103045866
180	0x3e7992d0	0.24372411
181	0x3e1267d1	0.14297415
182	0x3e314787	0.17312442
183	0xbd55314c	-0.052048966
184	0x3e375258	0.17902505
185	0xbd1cbb98	-0.03826484
186	0x3d86e6b2	0.065869704
187	0xbd06a34e	-0.032870583
188	0xbe55d383	-0.20881467
189	0xbd890704	-0.06690791
190	0x3d2ac64a	0.04169301
191	0xbe51ce23	-0.20488791
192	0xbe326680	-0.17421913
193	0xbe9d89f4	-0.30769312
194	0x3d09d633	0.033651542
195	0x3e0e55fd	0.1389999
196	0xbdb3e1b9	-0.087832876
197	0x3d1e6402	0.038669594
198	0xbe716e53	-0.23577242
199	0xbe4a9d32	-0.19786528
200	0x3dc6f215	0.09714142
201	0xbde15874	-0.11003199
202	0xbe3f0e6d	-0.18657847
203	0x3d33d9dc	0.04390894
204	0x3be44372	0.006966048
205	0xbe412ff1	-0.18865944
206	0xbe198119	-0.14990653
207	0xbe4c9bf9	-0.19981374
208	0x3e540be6	0.20707664
209	0xbc8ad649	-0.016947882
210	0xbe3b082c	-0.18264836
211	0xbde2d8dc	-0.11076519
212	0xbcd82880	-0.0263865
213	0xbdf27119	-0.11837978
214	0xbc6618f9	-0.01404404
215	0xbdcd8756	-0.10035579
216	0x3e9bf87c	0.30463016
217	0xbc9ce8f4	-0.01915405
218	0xbe24577f	-0.16049002
219	0x3e93ddd3	0.28880176
220	0x3da69c2b	0.081352554
221	0xbdf2d1e5	-0.118564405
222	0x3e9f3dd4	0.3110186
223	0xbe2378dd	-0.15964074
224	0x3c524dd5	0.012835939
225	0x3df8e1ff	0.1215248
226	0x3e845347	0.25844786
227	0xbcee68c2	-0.029102687
228	0x3d8ab06c	0.06771931
229	0xbe5bcdcb	-0.21465223
230	0xbe27ecf7	-0.16398989
231	0xbe5ef40c	-0.21772784
232	0xbe06d3c3	-0.13166718
233	0xbe823996	-0.2543456
234	0xbe1f0ed9	-0.15533008
235	0x3e9f9946	0.31171626
236	0x3e39c628	0.18141997
237	0xbe145bb9	-0.14488114
238	0xbdefe7cf	-0.11714136
239	0x3e54c82f	0.20779489
240	0x3e510c54	0.20414859
241	0x3d9967be	0.074904904
242	0x3e4daf8c	0.20086497
243	0xbdf2f06a	-0.118622616
244	0x3e2b342c	0.1671912
245	0x3e41fd40	0.18944263
246	0x3e31ea45	0.17374523
247	0xbe2a3cfd	-0.16624828
248	0x3e1c147e	0.15242192
249	0xbd8ed22f	-0.06973683
250	0x3e508e58	0.203668
251	0xbea9b527	-0.3314602
252	0xbde2b0fe	-0.11068915
253	0x3e9768ea	0.2957223
254	0xbe7d061b	-0.2470936
255	0xbe35e9b7	-0.17764936

module.2.bias f4 [64]
0	0xbe59ab6a	-0.21256796
1	0x3e23ff17	0.16015278
2	0xbe4c43e8	-0.19947779
3	0xbbedb467	-0.0072541717
4	0xbe28db01	-0.16489793
5	0xbb9319a1	-0.004489139
6	0x3e285eda	0.16442433
7	0x3bd3047f	0.006439745
8	0x3dcd0686	0.1001101
9	0xbd523783	-0.05132247
10	0x3b2903c6	0.0025789603
11	0x3ca0b197	0.019615931
12	0x3e12add3	0.14324121
13	0xbdb343b3	-0.08753147
14	0x3d1b1ba1	0.037868146
15	0xbd4ce5cd	-0.050023843
16	0x3e5c4e47	0.21514235
17	0x3e4c1c45	0.19932659
18	0x3c931b5f	0.017957387
19	0x3c736037	0.014854482
20	0x3e5857c1	0.21127225
21	0xbd8684e9	-0.06568319
22	0x3dc152fb	0.094396554
23	0x3e48e12b	0.19617145
24	0xbe3c3626	-0.18380031
25	0xbe2e8e9e	-0.17046592
26	0xbd22a87d	-0.039711464
27	0xbcd37e63	-0.025817102
28	0x3dcc69e6	0.09981136
29	0x3b073184	0.002062888
30	0x3e415eaa	0.18883768
31	0xbda2721c	-0.07931921
32	0x3e4bb699	0.19893874
33	0x3922c0b4	0.00015521311
34	0xbd015acf	-0.031580742
35	0xbcb7784a	-0.022396225
36	0xbde5c08a	-0.112183645
37	0xbd0278fe	-0.03185367
38	0xbd1f969e	-0.038962
39	0xbe2037e1	-0.15646316
40	0x3e32b57a	0.1745204
41	0x3dd5be0c	0.10436639
42	0xbe0aa9cd	-0.13541336
43	0x3e3e8755	0.18606313
44	0x3e0d35cb	0.13790052
45	0xbc3298a4	-0.01090065
46	0xbdb2578b	-0.08708104
47	0xbca72f1a	-0.020408202
48	0x3e1e4072	0.15454271
49	0xbe11e13b	-0.14246075
50	0xbcd067a2	-0.025440041
51	0xbe2252bd	-0.15851875
52	0xbdf33015	-0.11874405
53	0xbde5fb63	-0.11229589
54	0x3e4aa437	0.19789205
55	0x3e2da4a8	0.16957343
56	0x3e4beb30	0.19913936
57	0xbe3ed083	-0.18634228
58	0xbe040f97	-0.12896572
59	0xbde31025	-0.11087064
60	0x3e5b534c	0.21418494
61	0x3e6238f8	0.22092044
62	0xbdbb599f	-0.09147953
63	0x3a62e9b4	0.00086560403

module.4.weight f4 [1, 64]
0	0xbeb52596	-0.35380238
1	0x3e8b673f	0.27227208
2	0xbeb07669	-0.3446534
3	0xbe9ec247	-0.31007597
4	0xbead87fc	-0.3389281
5	0x3e9ed726	0.3102352
6	0x3e814ff7	0.2525632
7	0xbeb2f1d4	-0.34950125
8	0x3ea943a0	0.33059406
9	0xbebd118d	-0.36927453
10	0xbe89254d	-0.2678627
11	0x3eb56187	0.3542597
12	0x3e9fb291	0.31190923
13	0xbeb9c72b	-0.36284766
14	0x3e892690	0.26787233
15	0xbe8d0263	-0.27540883
16	0x3e9dbbb7	0.30807278
17	0x3ebae7a0	0.3650484
18	0x3eb7c425	0.35891834
19	0xbe840261	-0.25783065
20	0x3ea011a6	0.31263465
21	0xbebaa02d	-0.3645033
22	0x3eb38f0c	0.35070074
23	0x3e9f352d	0.31095257
24	0xbeb1aaca	-0.34700614
25	0xbe914f0c	-0.2838062
26	0xbe973e14	-0.2953955
27	0xbeacbc35	-0.3373734
28	0x3e97d943	0.29657945
29	0xbe90953c	-0.28238857
30	0x3e9a1e44	0.30101216
31	0xbe91d262	-0.28480822
32	0x3eb1615e	0.34644598
33	0xbe9a4a15	-0.30134645
34	0xbe9242cd	-0.2856659
35	0xbe960fc0	-0.2930889
36	0xbe85e56f	-0.26151606
37	0xbe8f889b	-0.2803391
38	0xbeb06a00	-0.34455872
39	0xbec09469	-0.37613228
40	0x3eac3fbc	0.33642375
41	0x3e8a94c8	0.27066636
42	0xbea8a005	-0.32934585
43	0x3e9dad7c	0.3079642
44	0x3e8c03e6	0.27346724
45	0xbe98f0a0	-0.29871082
46	0xbe887eee	-0.2665934
47	0x3ea49ccb	0.32150874
48	0x3ea6b50b	0.3256
49	0xbeb75c22	-0.3581248
50	0xbeb8986b	-0.36053786
51	0xbeb80c0f	-0.359467
52	0xbeb80140	-0.35938454
53	0xbe884c0a	-0.26620513
54	0x3ea47ad0	0.32124949
55	0x3e8d06e8	0.27544332
56	0x3e8fc457	0.28079483
57	0xbe8a04c9	-0.26956776
58	0xbe8930ee	-0.26795143
59	0xbebee084	-0.37280667
60	0x3eba8bc8	0.3643477
61	0x3ebd1b90	0.3693509
62	0xbe8809d3	-0.26569995
63	0x3e8df412	0.27725273
