Voronoi Formation/model/model.pth (torch, 17216 bytes, 4 tensors)

linear1.weight f4 [256, 11]
00000000: 4800 9bbe b5ee 0ebd aef2 1fbe cf9d 753e
00000010: 24f3 0abf ef28 133e 11fc 0bbf 7c6b ad3e
00000020: e42b fabe 7062 a63c 4dcf b8be 69a8 3d3d
00000030: 4423 8cbd 1f9e 013f f7f9 163a 1548 5ebe
00000040: 0cc4 c5be 7cf2 d5bd cc43 a43d 2173 8d3e
00000050: 3894 c03e 5d3c d5bb 262d 9d3c 45da 1e3f
00000060: e7b8 ecbd b2cf 973e 9d9c 93bd b803 f2bd
00000070: cb81 623e b822 89bb 61dd 143e b26a 7abe
00000080: 5564 653e 42ee d7bd a423 b53e fc1e abbe
00000090: 3e94 ec3d a6f3 a4be c935 6b3e 51f9 86bd
000000a0: 739b 573e 0a2b 10be c882 1d3d 217d 09be
000000b0: 3fe5 d13e d3d4 44be 1289 553d eb14 373e
000000c0: 5528 943d d0ac 853e 1f92 a0be aa23 73be
000000d0: 979e 56be 7372 c8be 4cca 163e c6e5 e43c
000000e0: 6c9d f33e ff7a 9c3c 4f62 7bbe 45e3 82be
000000f0: 64e1 08bc 5903 b4be c0fb 943e 93d8 123d
00000100: 6c24 b1bd ce86 ad3e e775 363e 7765 43be
00000110: a2c4 b43e 0816 d6bd 4cd9 23be 0c01 b3be
00000120: 998f ee3e 99a2 383e 0497 bfbe bbe9 d13e
00000130: bb4b d5be 86d3 85be f049 43bd da4e dfbd
00000140: db83 84be 8958 02be 52a6 86bd 60d7 3cbc
00000150: 2eee 803e 1038 f4bc b434 0dbe fe2a 47be
00000160: fcdc 87bd c725 463d 30bd ff3e 9383 f23c
00000170: c320 af3d 02c1 713d 4b8b d6bd 1d41 5c3e
00000180: 95a7 2e3e 679a 073e 24d5 323d 76fc 1fbd
00000190: d976 2ebe 6a20 793e 408c 60be 8ccb f23c
000001a0: 3e76 ab3e 56d0 6bbe 3bfd a23e 8b97 6dbe
000001b0: 4381 6ebe edb6 75be 3a8f 2ebe 6af1 b03d
000001c0: 23bc 093f 2ba1 753e f6b7 52bd dd73 ae3e
000001d0: 2c51 ae3c 40ec abbe 2f3f db3d 8c45 aabe
000001e0: 083d 0cbe 0817 04be 2215 10bd d3e2 dabd
000001f0: 9988 3ebe 2222 fe3e 4e23 3cbe 4ec0 3cbc
00000200: 5116 95be 0c32 c4be fcc4 bc3e a121 343e
00000210: bf5d 953e 9580 a33e 51f1 58be f72b 9abd
00000220: fd7b 843d 9795 b4bd 95bd 8f3c 309b 8c3e
00000230: 5012 973e 2f00 a23e b138 5a3e 2947 493d
00000240: e962 4dbe 6432 cd3d 7aee 343c f643 a4bd
00000250: a957 a3bc 9c79 a5bd 2b91 033e e331 16bc
00000260: 43e2 d8bc 98de 8f3d e140 a2bd 624f 13be
00000270: dcf1 533e 8eec 6dbe 62e0 8d3e 6cc1 1ebe
00000280: ca6e 97be 0b81 76be 7325 aebd 0a47 9c3e
00000290: 80d3 df3e d73a 5f3e d08a 353e bc3f 9f3e
000002a0: daff 7ebd f434 f1bc 17a7 8e3d c228 9c3d
000002b0: 79b0 8a3e 4ee2 ef3d 3dff 96bd 611d 7e3e
000002c0: f057 2f3e dc2a 30be e09a 653d e7d5 1d3e
000002d0: 2148 f93d 401f 6abc b2be 893e d937 10be
000002e0: 99ea 3abe 506a 3d3e b3cf 04be 2ffe 0ebe
000002f0: 47c7 83be c81b d03e e7b6 063e bb32 0d3e
00000300: feae ef3d 6b9f d4be 7c49 be3d a41b 663e
00000310: 9f4e 43bd 1e0c c2be 563a a4bd 9cb2 8c3e
00000320: 6d4b 00bf 4cb6 1ebd 6b43 5bbe 1696 803d
00000330: b05b 483e 6235 813d ae99 49be 05a5 ab3d
00000340: 2021 b2bd 1e66 7bbd 41d9 693d fc4b a73e
00000350: 9b33 103e 83a1 97be 23ae f0bd f869 77be
00000360: e09f 313e 5e3d 843d 7442 683e 5bce a33e
00000370: 9930 14be b347 6d3d 0c5b eabd 3dde d53e
00000380: 5a50 81bb c57a af3d f4c2 bcbe b7d0 0abf
00000390: 4b5c c8bd 7a5c 1bbe 92e7 953e 9969 eebc
000003a0: 6590 3f3e acea 05be fcab 2a3e 0f20 9c3e
000003b0: f89d 50be 42a3 54bd f8f8 d0be ba38 79be
000003c0: ab42 973e 6da2 533e 662a 9d3e 3d8b fa3e
000003d0: e926 36be 425f a93d 244b 9dbc ffb7 513e
000003e0: 1e45 273d 75c5 8e3d 6d4d ffbc cbfe 003c
000003f0: c3b9 813e a05c 96be de8a c83e 5123 9d3d
-0.30273652 -0.034895618 -0.15619919 0.2398598 -0.54277253 0.14371084 -0.546815 0.33871067
-0.4886161 0.02031061 -0.36095658 0.046303187 -0.06842664 0.506319 0.00057592936 -0.21707185
-0.38626134 -0.10446641 0.08020744 0.276269 0.37613082 -0.00650744 0.019186568 0.620518
-0.11558705 0.29650646 -0.07207606 -0.118171155 0.22119825 -0.004185047 0.14537574 -0.24454764
0.22401555 -0.10543491 0.35378754 -0.33422077 0.115517125 -0.3221714 0.22969736 -0.06590522
0.21055393 -0.14078918 0.0384548 -0.13426639 0.40995213 -0.19221811 0.052132674 0.17879073
0.07234255 0.26108408 -0.31361482 -0.23744074 -0.20958935 -0.39149818 0.14725608 0.027941596
0.4758104 0.019101618 -0.2454922 -0.25564018 -0.008354519 -0.35158804 0.2909832 0.035851073
-0.08649525 0.3389191 0.17818414 -0.19081675 0.3530627 -0.10453421 -0.16000861 -0.34961736
0.4659393 0.18030776 -0.37419903 0.40998635 -0.4165934 -0.26137942 -0.047677934 -0.109037116
-0.25881848 -0.12729086 -0.06574692 -0.011525959 0.25181717 -0.029811889 -0.13789636 -0.19449994
-0.06633946 0.04837587 0.49949026 0.029603755 0.08551171 0.059021957 -0.10475787 0.21509214
0.17056115 0.13242494 0.043660298 -0.039059125 -0.17037524 0.24328771 -0.21928501 0.029638074
0.3348865 -0.23028693 0.31833825 -0.2320234 -0.23291497 -0.23995562 -0.17046824 0.08639796
0.538027 0.23987262 -0.05144497 0.34072772 0.02127894 -0.33578682 0.10705411 -0.33256185
-0.13695157 -0.1289941 -0.035176404 -0.106877945 -0.18606795 0.49635416 -0.18372843 -0.011520458
-0.2911859 -0.38319433 0.36869037 0.17590953 0.29173085 0.31934038 -0.21185805 -0.07527917
0.064689614 -0.088175945 0.017546454 0.2746215 0.2950616 0.31640765 0.21310689 0.04914013
-0.20057262 0.10019377 0.011043185 -0.08020775 -0.01993926 -0.08079836 0.12848346 -0.009167167
-0.026475077 0.07024878 -0.07922531 -0.14385751 0.20697731 -0.2323477 0.27710253 -0.15503472
-0.29576713 -0.24072663 -0.085032366 0.30522949 0.4371605 0.2179979 0.17728734 0.31103313
-0.062255718 -0.029444195 0.069654636 0.076249614 0.27087763 0.11713086 -0.073729016 0.24815895
0.17123389 -0.1720385 0.056055903 0.15413629 0.121719606 -0.014289677 0.269033 -0.14083804
-0.18253554 0.18497586 -0.12969856 -0.13964151 -0.25737974 0.40646195 0.13155709 0.13788883
0.11703299 -0.41527876 0.0929136 0.22471482 -0.0476824 -0.3789987 -0.08018939 0.27480018
-0.5011509 -0.03874807 -0.21412437 0.062786266 0.19566226 0.0630901 -0.1968753 0.08381084
-0.08697724 -0.061376683 0.057091955 0.3267516 0.14082186 -0.2961541 -0.11751964 -0.24161518
0.17346144 0.06457017 0.226816 0.31993374 -0.14471664 0.057929706 -0.11443147 0.41771117
-0.003946346 0.08568338 -0.36867487 -0.54224724 -0.097832285 -0.15171996 0.29278237 -0.029103087
0.18707426 -0.13077801 0.1666717 0.3049321 -0.2037276 -0.051913507 -0.40814948 -0.24338046
0.2954305 0.2066743 0.3069641 0.48934355 -0.1778828 0.08270122 -0.019200869 0.20480345
0.0408374 0.06971256 -0.03116485 0.007873247 0.25337037 -0.29367542 0.39168447 0.07672752

linear1.bias f4 [256]
00000000: 80ac 743e 40a5 3cbd dc32 f7bd cd71 64be
00000010: 9597 e93d 5427 11bd c959 0fbe 2ed2 84be
00000020: 35cf babd b8b2 17be 14d9 15be a1b3 8ebd
00000030: 7260 91be 7c91 6fbe a675 42be f6c2 a1be
00000040: 63f2 46be 2d3c 183e 6d33 853e 0f06 0e3e
00000050: 185c 7b3d d43e 5dbd cc41 52be cce1 dd3c
00000060: f960 c43e ad73 4f3d 0af9 033d e162 e63d
00000070: b0b4 af3e 37f1 a63d d71e 4abe 55e5 35be
00000080: 57cd c43e 0377 1cbc 89a6 d43d 330b 23be
00000090: 86a3 7b3e 7830 133c 8b0e 8fbd c79b 5dbe
000000a0: 0cd6 abbd 8810 40bc 4fc6 f0bc befd 303e
000000b0: 1d7d bb3e 7564 32be a2f2 39be a10f fabd
000000c0: 4fd3 033f ae4d b43d c82d e63e 9d77 febd
000000d0: ec99 d6bd 6b0d c43e 24f2 ea3d 27e9 e8bd
000000e0: 2ace 1bbe bf68 073d 0075 b2be 8b91 d63e
000000f0: 5ab1 53be 0deb fdbc c0ad 4dbe cbb8 34bd
00000100: dced 273e ef43 9ebd b3a5 99be 4c05 4abd
00000110: fc87 c3bd db50 833d ad4f 393d 4d75 53bd
00000120: 809e 59bd 875e 89be f389 a33d 1cbd 633d
00000130: 5c68 06bd a082 34bd 9051 e2bd 1a39 a53c
00000140: 618b de3d ea2a 413e 8056 34be 541e 343d
00000150: b29e bdbd 20cc bfbd e3b2 cdbe 8260 38bc
00000160: ca61 c7bb d943 073e b44f 043e b472 bcbe
00000170: 1ad2 bb3d ad7f e3bd d6fc d03d 9e62 093e
00000180: e0f2 17be ec53 18be 0515 34be e3e0 15be
00000190: 68b7 24bd e1fa 82be facf 62be a44d a5bc
000001a0: 1b40 5b3e 1156 f4bd ee9e 90bd f76f 9e3d
000001b0: 0b27 97be 04dc 3fbe b005 de3d 27cc d6be
000001c0: 0280 e4be d3ca 023e fc78 f3bd 7632 32be
000001d0: 2801 ee3e 7936 3c3e 04f7 a23e 8c7d 45be
000001e0: e6c4 aabc 2981 5c3e 1d5f a7bd b975 2abe
000001f0: 1e43 483c 7dbc 8d3d 1187 843e f87d a9bd
00000200: eb7e 053d bee1 53bc 155d 773e 6d52 93be
00000210: d618 d73d 739a d5bd 00cb c6be 4682 cf3e
00000220: 23f5 afbe 8f0e 94be 1748 c03e 0dc5 acbd
00000230: 0265 7abe afa5 65bd b23b 9d3d b7d4 3fbd
00000240: e3c7 113f ecc6 4dbe 121f 1dbd bf9b 4d3e
00000250: 0b5b 69be 0983 33be 7fc2 1a3e bb07 313d
00000260: 57af a5bd 33cc 973d 20e7 5ebd 33b0 0bbe
00000270: 2578 b0bd 33b6 8cbe ce33 90bd 5d77 9dbe
00000280: e108 b0bd 8489 85be 4fce 17bf c697 2b3d
00000290: 34bf 0a3e 9f5f e4bd 1868 47be 0645 cd3d
000002a0: 6d53 08bd 0bbc 843e 7ad0 383d 7618 e2bc
000002b0: 1505 e9bd c3e8 68bd 4a12 6f3e d173 473e
000002c0: b140 723e 6672 8ebd 1486 cebd e291 643e
000002d0: f412 99be bcaf 373d 54ff 893e 2dca f73c
000002e0: 7793 5ebd a998 5dbe 2175 383e 14f2 a03d
000002f0: 2c54 063d 77f5 b2bd f45e 2f3e c215 05be
00000300: d2de 3c3d 7903 27be 3fba c9bd 8dbe 773d
00000310: 1bb7 033e 36ab 6e3d dead cbbd fe12 703e
00000320: 3f98 15be 705b 19bd 0c1e f3bd ae55 64be
00000330: 0abd 30be 46d3 103f 70d7 2fbe 529e 90be
00000340: 7a2d 223e 212d 013e c478 193e bc74 bbbd
00000350: 6d4c cbbd c77f c6bd d944 103d ac25 c83d
00000360: 7b09 33be c8c2 b0bd 4ffe f03d fe35 d7bc
00000370: 5513 f0bd d94d 1cbe 33cd 79be 1234 c7bd
00000380: c171 f43d 46e5 5b3e d44d 4dbd 6f05 20be
00000390: 9dc2 d8bd 57f8 bbbc 8749 efbd 2fb0 143c
000003a0: 933b a63b 7dcb 9c3d fa69 9c3e 662d 2c3e
000003b0: 865c a63c 681d bf3d e53b 8cbe a86f e43c
000003c0: f498 6f3e 742b 6a3d 976d adbe 71a4 bb3d
000003d0: 51d2 a73e 2453 3fbe 12f3 6abc 1f06 a1be
000003e0: 5269 73be debe 72be d24c 743d da6c e93c
000003f0: bf6e 88be 0109 cebd f05a 80bd 4ae6 f4bd
0.23893929 -0.046056032 -0.120702475 -0.22309037 0.11405865 -0.035437897 -0.13999094 -0.25941604
-0.09121553 -0.1481427 -0.1463359 -0.06967855 -0.28393894 -0.23395342 -0.18990192 -0.31594056
-0.194284 0.14866705 0.26015797 0.13869499 0.061367124 -0.054014996 -0.20532912 0.027085207
0.38355234 0.050647426 0.032219924 0.112493284 0.3431754 0.08151477 -0.19738327 -0.17763264
0.38437912 -0.009549859 0.103833266 -0.15922241 0.24574098 0.008983724 -0.06985196 -0.21641456
-0.083904356 -0.011722691 -0.029391436 0.17284295 0.3661889 -0.17421134 -0.18158963 -0.12210012
0.51494306 0.08803879 0.44956803 -0.12425158 -0.10478577 0.38291487 0.11471966 -0.11372595
-0.15215364 0.033058878 -0.3485489 0.41907915 -0.20673123 -0.03099587 -0.20085812 -0.044121545
0.1639933 -0.07727801 -0.3000923 -0.049321458 -0.09547421 0.06411906 0.045242 -0.05162554
-0.053129673 -0.2682993 0.07985296 0.05560027 -0.03281437 -0.044069886 -0.11050713 0.02016883
0.10866428 0.18864027 -0.17611122 0.043974236 -0.09258784 -0.09365106 -0.40175542 -0.011253478
-0.0060846554 0.13209476 0.1292103 -0.36806262 0.09170933 -0.111083366 0.10204475 0.13416526
-0.14838743 -0.14875764 -0.17586143 -0.14636569 -0.040213972 -0.2558203 -0.2214965 -0.020178623
0.21411173 -0.11930478 -0.070615634 0.07736199 -0.29521975 -0.18736273 0.108409286 -0.4195263
-0.44628912 0.12772684 -0.1188831 -0.17402062 0.46485257 0.18380155 0.31829083 -0.19286174
-0.020845842 0.21533646 -0.08172438 -0.1664647 0.012223033 0.06920717 0.25884297 -0.0827598
0.03259174 -0.012932239 0.24156602 -0.28773823 0.10502784 -0.104298495 -0.38826752 0.40529078
-0.34366712 -0.28917357 0.37555 -0.08436022 -0.24452594 -0.05606621 0.076774016 -0.04683372
0.5694563 -0.20095414 -0.03835971 0.20078944 -0.22788636 -0.17530455 0.15113257 0.043220263
-0.08090084 0.07411995 -0.054419637 -0.13641433 -0.08616666 -0.27482757 -0.07041131 -0.3075513
-0.085954435 -0.2608148 -0.59299177 0.04189279 0.135495 -0.11151051 -0.19473302 0.10022931
-0.033282686 0.25924715 0.045120694 -0.027599555 -0.113779224 -0.056862604 0.2334682 0.19477774
0.2365749 -0.069554135 -0.10084167 0.22321275 -0.29897273 0.044845328 0.26952612 0.030247772
-0.054339852 -0.21640266 0.18013431 0.07858673 0.032795116 -0.08738225 0.17126065 -0.12996581
0.046110936 -0.16309918 -0.09849977 0.060484458 0.12862818 0.05826875 -0.09945272 0.23444745
-0.14608859 -0.037440717 -0.11870965 -0.22298309 -0.17259613 0.5657238 -0.17172027 -0.2824579
0.1583766 0.12614872 0.14987475 -0.09153125 -0.099266864 -0.0969234 0.03522191 0.0977281
-0.17484085 -0.086309016 0.117672555 -0.026270863 -0.11722437 -0.15264072 -0.24394684 -0.097267285
0.11935759 0.2147418 -0.05012305 -0.15627073 -0.105839945 -0.022945566 -0.11683946 0.009075209
0.00507302 0.07656 0.30549604 0.16814193 0.02030779 0.09331781 -0.27389446 0.027885273
0.2339819 0.057170346 -0.33872673 0.09162224 0.32777646 -0.1868406 -0.014340179 -0.31449983
-0.23770645 -0.23705623 0.059643574 0.028494287 -0.26646993 -0.10060311 -0.06267345 -0.11957987

linear2.weight f4 [3, 256]
00000000: bc64 a63e a585 fcbd bcfe eb3d befb b53d
00000010: f944 c2be f966 35be 77c4 b5be f0b6 c4bc
00000020: 88c4 163c c8ae 84be 4a3c bbbd 7bca 13bf
00000030: 92e5 3cbe 9ab4 0cbd 548c b9be 48a5 fcbc
00000040: 2dda 27be 6d54 283e 6058 cd3d 6f4c 7f3c
00000050: 81d3 15bf e252 b0bd 30a6 1f3b c61e 5b3e
00000060: 60c3 b23e 783f 9c3e cb64 ebbc c6b5 1cbe
00000070: 9b35 ea3e 8194 983e 883e 29be 4d5a a4be
00000080: 754a 253e d21a 9fbc d5c3 853c a597 23be
00000090: aa75 d23d 0c7b 92be d92e 0ebe ed65 a03e
000000a0: 7a39 b8bd e2e1 64bd 90d6 433d 3b0f 1a3e
000000b0: aca2 e53d 002e 9c3e b92b d23d 7577 77be
000000c0: 35d7 653e cc26 9c3d a518 9e3e 9b0d 1dbe
000000d0: b1cd 94be a5d4 013f c6a8 0abe 4653 20bc
000000e0: 229e fa3c 7a42 5d3d 1b51 7bbe 364a 9c3e
000000f0: 5ecf b4be a43b cebe 8a4f 70be 950d e3bb
00000100: 0b16 e33e b940 3ebe ae96 793d 7531 07bd
00000110: 3af7 a4bd cdee f4be 1523 44bd 85e4 babe
00000120: 7d9b 04bc 7091 5fbc 8e39 a4be 57a3 433d
00000130: b36a 883d 4141 93bd 981b 9dbe fa0e 36bd
00000140: 5975 08bf c0a2 ae3e c940 16bf 200f 203e
00000150: 21f4 b63e d15d 91be ab1d e6bd 7807 673e
00000160: 14a5 18be 4d94 8a3d a293 983e 07ef 88be
00000170: fa53 f7be 090d 0bbe ae0e 283e 2500 fa3c
00000180: cc76 9abe 4778 a6bb 2e9c dbbd bbb9 74be
00000190: 00b9 33bc ecc5 d9be 2b43 bfbd bcae a6bd
000001a0: 293b 1c3e b790 61be dadb f5bd ae2c 483e
000001b0: 77dd 8ebe 4b7e f9bb 3eb9 b93e d92c 1ebe
000001c0: 3af0 8abe 5ac5 c73e c6b3 cebe f4f4 6abe
000001d0: f153 0c3f 89a6 833e c068 8c3e 9f9e aabb
000001e0: 409e 6abe a3c6 3e3e 15dd a4be 787f 1fbe
000001f0: e323 a7be cb84 d13d f0bd 623e 36a0 c2be
00000200: 0d22 03bf acf6 653d e2c9 c83d 8b76 b8bd
00000210: 0e5e cc3e 6307 eebe 7449 0ebe 8986 3c3e
00000220: b614 0e3b f954 cabe 38b0 cd3e a2a4 51bd
00000230: c4f5 bdbe 00cf 4ab7 4dff 043d 97e8 8ebe
00000240: 4949 e83e 0747 87bc db87 f3be 1ea3 2f3e
00000250: 2a5f aebe 9f84 c0bd d6d7 0ebf 5cd6 d93c
00000260: d835 0dbe c8d8 aabe d636 153d 3523 0fbf
00000270: 99ba a13e dc6d 35be c1bf 5ebe e091 67be
00000280: 8387 4bbe e8e1 43be a177 0cbe 0352 26be
00000290: d0c6 433e e5e9 82be 38e6 ecbe f337 8c3d
000002a0: 3997 1cbe 28f6 493e f624 223d c9f0 563d
000002b0: 90dd 12be f14f 9cbd f437 853e 1b5f b33d
000002c0: ed0e b03e 9370 e4be b274 8ebd 74a2 813e
000002d0: dbf0 6fbb b88b aebd f1b2 043f 97ca d4bd
000002e0: 529b ddbe 0baf 20be 4518 843d 0f05 a8be
000002f0: 9724 80be 815b d4bd 83b9 803e bbb1 be3e
00000300: a2e9 363e c3f7 b73e 29cb 97bd b82f 693e
00000310: 56e8 43be b63a 83bc 08a8 1dbe 922b a13e
00000320: a57e 883e 8af4 e43c cabf e6bc 08a2 24bd
00000330: 3a9e ebbd 21b8 c93e f88a 433d 7ed2 dabe
00000340: 34f2 eebd 4876 a53d 6e2a 2e3d f235 2abe
00000350: 895b 7fbe e356 673d 371f 4f3e 902d 1c3e
00000360: c766 adbe e0c7 1ebe 9927 853e 3576 09bd
00000370: 81ea cc3e 899b 68bd e8b0 00bd 037e b9bc
00000380: 2470 24be 0b35 d73d 8e09 e43d d75f b5be
00000390: 288a de3e f9e5 acbe 4c09 8c3e e97a 6abe
000003a0: 1b7d 0dbf 50d2 eb3d bf7e 0b3e ddaf 823e
000003b0: 3b2c cebb 7089 b83d 653f 40be 0ccf 01bc
000003c0: 25cb 21be 3b4e b6bc f8a3 283c 020f e83e
000003d0: 335b f83e 1044 f5bd 75aa 483d f6ff aabc
000003e0: 4e28 5bbe 519c 00be 5a31 023f 2a6e b23e
000003f0: d8c6 fbbd 9f0a 3ebe bd9a e03c b284 133e
0.3249873 -0.12330178 0.11523196 0.08885907 -0.37943247 -0.17715062 -0.35501453 -0.024013013
0.00920213 -0.25914598 -0.091423586 -0.57730836 -0.18446949 -0.034351923 -0.36239874 -0.030840531
-0.16391821 0.16438456 0.10026622 0.015582188 -0.58525854 -0.08609559 0.002436053 0.21398458
0.34914684 0.30517173 -0.028734585 -0.15303716 0.45744023 0.298008 -0.1652776 -0.32100144
0.16141684 -0.019421969 0.016328732 -0.15975817 0.10276349 -0.28609502 -0.13885058 0.31327763
-0.08995338 -0.05587948 0.047812045 0.15044872 0.11212668 0.30503845 0.10262246 -0.24166663
0.22445376 0.076245874 0.30878177 -0.15337221 -0.2906318 0.50715095 -0.13540944 -0.009785479
0.030592982 0.054018475 -0.24542658 0.30525368 -0.3531446 -0.40279877 -0.23467842 -0.0069291093
0.44352755 -0.18579377 0.060934715 -0.03300615 -0.08054967 -0.4783844 -0.04788502 -0.36502472
-0.008093712 -0.013645515 -0.3207516 0.047763195 0.06660976 -0.071901806 -0.30685115 -0.044447877
-0.5330406 0.34108543 -0.58692604 0.1563077 0.3573313 -0.2839189 -0.112361275 0.22561443
-0.14906722 0.067665674 0.29800135 -0.26744863 -0.48306257 -0.13579191 0.1641185 0.030517647
-0.3016876 -0.005080256 -0.10723148 -0.23898976 -0.0109694 -0.42533815 -0.09338983 -0.08138797
0.15256943 -0.2202786 -0.12004824 0.19548294 -0.2790334 -0.0076139322 0.3627414 -0.15446796
-0.27136403 0.39017755 -0.4037153 -0.22945005 0.54815584 0.25712994 0.27423668 -0.0052068974
-0.2291193 0.18630461 -0.32199922 -0.15575969 -0.32644567 0.102304064 0.22142768 -0.38012856
-0.5122383 0.056143448 0.09804131 -0.09006985 0.39915508 -0.4649001 -0.13895208 0.18410696
0.0021679825 -0.39517954 0.40173507 -0.051182397 -0.37101567 -1.2088334e-05 0.032470036 -0.27911827
0.45368412 -0.01651336 -0.47564587 0.17152068 -0.3405698 -0.094002955 -0.5579809 0.026591472
-0.13790071 -0.33368516 0.03642925 -0.55913097 0.31587675 -0.1771769 -0.21752836 -0.2261424
-0.19875912 -0.19129145 -0.1371751 -0.16242222 0.1911881 -0.25569072 -0.46269393 0.06846609
-0.15292062 0.19722807 0.03958603 0.052475724 -0.14342332 -0.07632435 0.2601925 0.08758374
0.34386387 -0.44617137 -0.069558516 0.25319254 -0.0036612067 -0.08522743 0.5183554 -0.103902034
-0.43282562 -0.15691774 0.064499415 -0.3281636 -0.25027916 -0.103690155 0.25141534 0.37244973
0.17862561 0.35931215 -0.074117966 0.2277211 -0.19131598 -0.016019206 -0.1539613 0.31478554
0.26659122 0.027948637 -0.028167624 -0.040193588 -0.11504789 0.39398292 0.047739953 -0.42738718
-0.1166729 0.08079201 0.042520933 -0.16622141 -0.24937262 0.056479346 0.20226751 0.15251756
-0.33867475 -0.15505934 0.26006773 -0.033559997 0.40022662 -0.056788955 -0.03141871 -0.022643095
-0.16058403 0.10508164 0.11134635 -0.35424682 0.4346478 -0.33769205 0.27350843 -0.22898449
-0.5526902 0.11514723 0.13622569 0.25524798 -0.006291894 0.09010589 -0.18774183 -0.007922899
-0.1580015 -0.0222541 0.010292999 0.4532395 0.4850708 -0.119758725 0.048990685 -0.020874005
-0.21402094 -0.1255963 0.50856555 0.34849674 -0.12293786 -0.18558739 0.027417535 0.14406088

linear2.bias f4 [3]
00000000: b9de 503e 008a 6c3d 2416 203c
0.20397462 0.057748795 0.009770904
