torchRL/wandb/offline-run-20250601_202222-auijaicr/files/models/actor_network.pt (torch, 22429 bytes, 6 tensors)

module.0.module.mlp_module.0.weight f4 [64, 4]
0	0x3eda9f15	0.42699495
1	0x3dd4bfd4	0.10388151
2	0x3eaf199c	0.34199226
3	0x3db4e6e1	0.08833099
4	0x3e86a730	0.2629943
5	0xbdfab407	-0.12241369
6	0x3ec9d5ef	0.3942103
7	0x3da2612b	0.079286896
8	0xbe8f39a3	-0.2797366
9	0x3de744ad	0.11292396
10	0xbe7373ae	-0.23774597
11	0xbda0d566	-0.078532025
12	0xbe914d41	-0.28379253
13	0x3ebd9d53	0.3703409
14	0xbede3cf9	-0.43405893
15	0xbe7225d0	-0.23647237
16	0xbdf8f8f9	-0.12156863
17	0xbe84d1a5	-0.25941196
18	0x3dc99841	0.09843493
19	0xbedf4a4b	-0.4361137
20	0x3ed5f8a6	0.41791266
21	0xbed92502	-0.42411047
22	0x3eb4ee7f	0.35338208
23	0x3dbcf535	0.09226457
24	0xbe059f18	-0.1304897
25	0x3ebd2336	0.36940926
26	0x3cd06336	0.025437932
27	0x3ebf5f2d	0.373773
28	0x3df05e77	0.11736768
29	0xbe1e9610	-0.15486932
30	0x3dedc4fa	0.11609836
31	0xbdfa10a6	-0.12210207
32	0x3e91e0f4	0.28491938
33	0x3f05abe8	0.52215433
34	0x3e86baae	0.263143
35	0xbe4d7655	-0.20064671
36	0x3e875d1d	0.26438227
37	0x3dfdfc6e	0.12401663
38	0x3e537d5f	0.20653294
39	0xbe958a9d	-0.29207316
40	0xbf0db92b	-0.5536067
41	0xbe448a34	-0.19193345
42	0xbed0cb70	-0.4078021
43	0x3ec9c541	0.39408305
44	0x3e3aef82	0.18255427
45	0x3e723726	0.2365385
46	0x3dfb838a	0.122809485
47	0xbb1b4e88	-0.0023697931
48	0x3ee196f2	0.44060475
49	0xbec62442	-0.38699538
50	0x3d4d7e1c	0.050169095
51	0xbea947db	-0.33062634
52	0x3dc648b7	0.09681838
53	0xbe6a02d8	-0.22852647
54	0x3e53f9ad	0.20700713
55	0xbdeb4814	-0.11488357
56	0x3ec203a2	0.37893397
57	0xbea6c5b3	-0.32572708
58	0xbe8db56f	-0.27677485
59	0xbe8adbb5	-0.27120748
60	0x3ecd9c12	0.40158135
61	0x3e5619aa	0.20908228
62	0x3ecf0e0a	0.40440398
63	0xbecc31c0	-0.39881706
64	0xbf01c05a	-0.5068413
65	0xbeb931ad	-0.36170712
66	0xbe99d1cc	-0.30042875
67	0x3e4f643a	0.20253077
68	0x3da09ac1	0.07842017
69	0x3ef2dcb8	0.4743402
70	0xbea3412b	-0.31885657
71	0xbeaf1869	-0.3419831
72	0x3e595077	0.21222101
73	0xbe385573	-0.18001346
74	0x3e9e0529	0.30863312
75	0xbe0b7219	-0.13617744
76	0x3e975653	0.29558048
77	0xbed283be	-0.41116136
78	0xbe78f37b	-0.2431163
79	0x3e390ad6	0.1807054
80	0x3d1b6f72	0.03794808
81	0xbd892b16	-0.06697671
82	0x3e9152f0	0.2838359
83	0x3eb5c151	0.3549905
84	0xbea09f98	-0.3137176
85	0xbea22529	-0.31668976
86	0x3ee63bbf	0.44967458
87	0xbe37aa1a	-0.17935982
88	0xbdde998f	-0.10869133
89	0xbf0a82df	-0.54105943
90	0xbe5b83c2	-0.2143698
91	0x3e051597	0.12996517
92	0xbd054702	-0.03253842
93	0xbeb47377	-0.35244343
94	0x3dc40932	0.09572066
95	0xbe88766b	-0.26652846
96	0xbedb14a0	-0.42789173
97	0xbe950212	-0.29103142
98	0xbed9cfdd	-0.425414
99	0xbea47d55	-0.3212687
100	0x3ef07af7	0.46968815
101	0x3d8fa7b9	0.070144124
102	0x3e39ec89	0.18156637
103	0xbedbf53a	-0.4296053
104	0xbecbe71f	-0.3982477
105	0xbe1af14f	-0.15131114
106	0x3dbad27a	0.091221765
107	0xbee1291f	-0.43976685
108	0xbe84cbfd	-0.2593688
109	0xbec10825	-0.37701526
110	0x3d70152b	0.058613937
111	0xbe4a9dca	-0.19786754
112	0xbc50c795	-0.012742897
113	0xbebc0b52	-0.36727387
114	0xbe951d54	-0.29123938
115	0xbe816d73	-0.25278816
116	0xbe3f3230	-0.18671489
117	0xbee21aa6	-0.44160956
118	0x3f007ba6	0.5018867
119	0xbd677380	-0.056506634
120	0x3ea2543e	0.31704897
121	0x3e43b730	0.19112849
122	0xbf050ccc	-0.5197265
123	0x3e97770e	0.2958302
124	0xbe2feeb4	-0.17180902
125	0xbe523315	-0.20527299
126	0xbed839ff	-0.42231748
127	0xbefdeef6	-0.49596375
128	0x3df430a7	0.11923342
129	0xbe26ab31	-0.16276242
130	0x3e6b7c5f	0.22996663
131	0xbec46b5e	-0.38363165
132	0x3ebec49c	0.37259376
133	0xbebe98ae	-0.3722586
134	0xbd8187d4	-0.06324735
135	0x3dff0738	0.12452549
136	0x3e645255	0.22297032
137	0x3ed5e9c0	0.417799
138	0x3ed55000	0.41662598
139	0xbed0d94e	-0.4079079
140	0x3e08308a	0.13299766
141	0xbe75ee8d	-0.24016781
142	0xbcf18519	-0.029482411
143	0xbea65be5	-0.32491985
144	0x3ee029fe	0.43782037
145	0xbebf7c7f	-0.3739967
146	0x3e8e4b0f	0.2779164
147	0x3e4c9783	0.19979672
148	0x3dda8b15	0.10671059
149	0xbe9c2afc	-0.30501544
150	0x3f031b7b	0.51213807
151	0x3e13b803	0.14425664
152	0xbcbb94aa	-0.022898037
153	0xbeea4037	-0.45752117
154	0x3e98b61f	0.29826447
155	0xbd8e9462	-0.069618955
156	0xbde112ae	-0.10989891
157	0x3ef2fc7e	0.4745826
158	0x3de2ddbe	0.1107745
159	0xbe92caac	-0.2867025
160	0xbe99ac45	-0.30014244
161	0x3b85918e	0.0040761894
162	0x3ea14ad5	0.31502405
163	0xbdeba647	-0.11506324
164	0xbe8d542a	-0.27603275
165	0xbe1cb315	-0.1530269
166	0xbea4f4b7	-0.32217953
167	0x3e1e4aba	0.15458193
168	0x3eaab1d4	0.33338797
169	0xbef1afeb	-0.47204527
170	0x3e1e7f80	0.15478325
171	0x3e68a1d2	0.2271798
172	0x3e0a4976	0.13504586
173	0xbe5f1d94	-0.21788627
174	0x3e8a14fa	0.2696913
175	0x3e8ce255	0.27516428
176	0x3e89b7ef	0.26898143
177	0xbdeb9646	-0.11503272
178	0xbdf7c691	-0.120984204
179	0x3d5dac21	0.054119233
180	0x3b9da03e	0.004810362
181	0xbe51188a	-0.20419517
182	0x3eb324c3	0.34988984
183	0x3edc59f7	0.43037388
184	0xbdb3eb2a	-0.08785088
185	0xbe290059	-0.16504039
186	0x3daa61d4	0.083194405
187	0xbd5f2e62	-0.054487593
188	0x3e35db1d	0.17759366
189	0x3dd7984d	0.10527096
190	0xbf01b876	-0.5067209
191	0xbe598965	-0.21243818
192	0x3efa7a3f	0.4892139
193	0x3e6ae485	0.22938736
194	0xbd11a8d3	-0.035561394
195	0xbe9069d7	-0.2820575
196	0xbe9fbac2	-0.31197172
197	0xbec2a457	-0.38016006
198	0xbe2ac834	-0.16677934
199	0x3e3e16ef	0.18563436
200	0x3ec2375c	0.3793286
201	0x3e605858	0.219087
202	0xbef25312	-0.47329003
203	0xbe9d6fed	-0.30749455
204	0x3b0d438b	0.0021555151
205	0x3ef3ab60	0.47591686
206	0x3d807363	0.06272008
207	0xbdfa6314	-0.12225929
208	0x3e5f8abb	0.21830265
209	0xbe730e0f	-0.23735832
210	0xbeb19ff6	-0.34692353
211	0x3ebb2dd1	0.36558393
212	0xbe588ae4	-0.21146733
213	0xbdc9190c	-0.098192304
214	0xbf01893c	-0.5060003
215	0x3ea1da3f	0.3161182
216	0x3e7b148a	0.24519554
217	0x3e46366f	0.19356702
218	0xbed294ea	-0.41129237
219	0xbf082f02	-0.5319673
220	0xbeda81e6	-0.4267723
221	0x3ed026ef	0.40654704
222	0x3e5f6863	0.21817164
223	0x3ec6bfbe	0.38818163
224	0x3ea9bd97	0.33152458
225	0x3e0bb55e	0.13643405
226	0xbcd7d3de	-0.026346143
227	0xbebcd3a6	-0.36880225
228	0xbeb266e2	-0.34844118
229	0xbef2cd86	-0.47422427
230	0x3e8beb85	0.27328125
231	0xbe3f5185	-0.18683441
232	0xbe38217a	-0.1798152
233	0xbea798e6	-0.3273384
234	0xbd91bd5e	-0.07116197
235	0xbeb61556	-0.35563153
236	0xbec5f3f6	-0.3866269
237	0x3e539d22	0.2066541
238	0xbe20fec6	-0.15722188
239	0x3ea1ddab	0.31614432
240	0xbe65573c	-0.22396559
241	0xbec3fd2d	-0.38279095
242	0xbd5cd926	-0.053918026
243	0xbe753695	-0.23946603
244	0xbe52e048	-0.20593369
245	0xbf0c0f89	-0.54711205
246	0x3eaa967a	0.3331793
247	0xbea7d728	-0.3278134
248	0x3e35da75	0.17759116
249	0x3e83195b	0.25605282
250	0x3ea5d797	0.32391044
251	0xbed50f50	-0.41613245
252	0x3eba8a6e	0.36433738
253	0xbe8048cc	-0.2505554
254	0x3e45f18c	0.19330424
255	0x3ef55053	0.47912845

module.0.module.mlp_module.0.bias f4 [64]
0	0xbc9c4e8f	-0.019080428
1	0x3d101a24	0.03518118
2	0xbe07157e	-0.13191792
3	0xbed39589	-0.41325024
4	0x3e2ae4f5	0.16688903
5	0xbeda2601	-0.4260712
6	0x3e802c18	0.2503364
7	0x3ebb12fd	0.36537924
8	0x3ef24862	0.4732085
9	0xbdaed18d	-0.085360624
10	0xbedb92a5	-0.42885318
11	0x3e0a0911	0.13480021
12	0x3e9f8bfe	0.31161493
13	0xbee20d92	-0.44150978
14	0xbd3e6a95	-0.046488363
15	0xbe61df6e	-0.22057888
16	0xbdd17f05	-0.10229305
17	0xbe41d77b	-0.18929856
18	0xbe518721	-0.20461704
19	0xbddc9f1e	-0.10772537
20	0xbeee925e	-0.46596044
21	0x3ed30022	0.4121104
22	0x3eb9308a	0.36169845
23	0xbd84c39e	-0.064826235
24	0xbdde975e	-0.10868715
25	0xbe0a5b59	-0.13511409
26	0xbeebf045	-0.4608175
27	0xbeedf42a	-0.46475345
28	0x3e1a7d86	0.15086946
29	0xbe808ea2	-0.2510882
30	0xbe869450	-0.26285028
31	0xbd89365b	-0.066998206
32	0xbdfccd7a	-0.12343879
33	0xbddc1cef	-0.10747706
34	0x3cfc0e95	0.030768672
35	0xbd8fcc47	-0.07021385
36	0xbdd24dd7	-0.10268753
37	0xbe55ad3b	-0.20866863
38	0xbebebd7e	-0.37253946
39	0x3eb6eb0e	0.35726207
40	0xbe68a919	-0.22720756
41	0x3d93e1a8	0.07220775
42	0xbe04191d	-0.12900205
43	0x3d82d0db	0.06387492
44	0x3ee35631	0.44401696
45	0x3e2f9657	0.17147194
46	0xbebbe30f	-0.3669667
47	0x3e4dcc5c	0.20097488
48	0x3eef925a	0.46791345
49	0x3da9410b	0.08264359
50	0x3eb01160	0.34388256
51	0x3ef51c1b	0.47873005
52	0xbd02a6bb	-0.031897288
53	0x3d7e3527	0.06206241
54	0xbe8699f5	-0.26289335
55	0xbe1cc89e	-0.15310904
56	0x3ebf0580	0.37308884
57	0x3e5459c2	0.20737365
58	0xbea1dcf3	-0.31613883
59	0xbed1e5f6	-0.4099576
60	0xbeb4594e	-0.35224384
61	0xbeea34f2	-0.4574352
62	0xbea9dedd	-0.33177844
63	0xbd8b2d36	-0.06795733

module.0.module.mlp_module.2.weight f4 [64, 64]
0	0x3dab9b03	0.083791755
1	0x3aa508da	0.0012591139
2	0xbd5258f9	-0.051354382
3	0xbd4b602c	-0.049652264
4	0x3d2d2e16	0.04228028
5	0xbdbc4c7c	-0.09194276
6	0xbc53bbbe	-0.012923179
7	0x3d053a15	0.032526094
8	0xbd61f292	-0.055162974
9	0xbc2d9eb8	-0.0105969235
10	0x3c8ee83e	0.017444726
11	0xbca861f1	-0.020554515
12	0xbde05358	-0.109533966
13	0xbddfcf1f	-0.10928177
14	0xbdd5dddf	-0.10442709
15	0xbd74863f	-0.05969834
16	0x3dec9a4b	0.115528665
17	0xbcf5a741	-0.02998698
18	0xbdbe64c6	-0.09296565
19	0x3cb7768e	0.022395398
20	0x3d2cd046	0.042190813
21	0x3d5002b5	0.05078383
22	0x3da3aa1a	0.07991429
23	0x3d4451a5	0.047929425
24	0xbdf4d263	-0.119541906
25	0x3c7d68bc	0.015466865
26	0x3d98702e	0.074432716
27	0xbc872aff	-0.016499994
28	0xbdad853b	-0.08472677
29	0x3d9b3e96	0.07580297
30	0xbcfefdb7	-0.03112684
31	0xbd7cd504	-0.061726585
32	0xbdf596b3	-0.11991634
33	0xbb5faf65	-0.0034131643
34	0x3d833e99	0.06408424
35	0x3cbe56d1	0.023234757
36	0x3c6610fb	0.014042134
37	0xbde31aec	-0.11089119
38	0xbe02b16a	-0.1276299
39	0x3c0db785	0.0086497115
40	0x3dba5525	0.09098271
41	0x3d89ea9e	0.06734203
42	0xbdad9466	-0.084755704
43	0xbda0c904	-0.07850841
44	0xbde4f4ee	-0.11179529
45	0xbdb643cc	-0.0889965
46	0x3d088b5e	0.033336036
47	0x3ddb06a2	0.106946245
48	0x3dc5f7eb	0.09666427
49	0xbe05772d	-0.13033743
50	0x3e025e08	0.12731183
51	0xbda47151	-0.08029426
52	0x3d39e668	0.04538575
53	0x3ddbb507	0.107278876
54	0x3c8695f7	0.01642893
55	0x3e039dc3	0.1285315
56	0xbdf3ac06	-0.11898045
57	0xbd8422b2	-0.0645193
58	0x3d8d5ca0	0.069024324
59	0x3c7ec957	0.015550933
60	0xbd0968fd	-0.03354739
61	0xbd86c0b7	-0.06579726
62	0x3dc702ee	0.09717356
63	0x3d5c2c9f	0.05375349
64	0x3d0f0489	0.034916434
65	0xbdbf1b58	-0.09331387
66	0xbd8b3339	-0.06796879
67	0x3d05d982	0.032678135
68	0x3d09823c	0.033571467
69	0xbda5fb00	-0.08104515
70	0xbbc5e7ff	-0.006039619
71	0x3da97a19	0.082752414
72	0x3d79f690	0.061026156
73	0x3aa63506	0.0012680597
74	0xbd7214c0	-0.05910182
75	0xbdc61de9	-0.09673674
76	0xbe037f34	-0.12841493
77	0xbda4965b	-0.080364905
78	0xbda9627b	-0.08270737
79	0x3cf87a9e	0.030331906
80	0xbd412c75	-0.04716154
81	0xbcfd1167	-0.030892087
82	0x3dc73279	0.09726424
83	0x3c72bb9f	0.01481524
84	0x3d97a1c3	0.074039005
85	0xbd708dc3	-0.058728945
86	0xbd4ad49b	-0.049519163
87	0x3bf75616	0.007548104
88	0xbdad0cea	-0.08449729
89	0xbdb4015e	-0.08789323
90	0xbd709a01	-0.05874062
91	0xbdc4437f	-0.09583186
92	0xbdb9a1ed	-0.09064088
93	0xbbe492c6	-0.0069755046
94	0x3dcc7fdd	0.099853255
95	0x3d0a64e7	0.033787634
96	0xbd2c80c2	-0.04211498
97	0xbe1169ea	-0.1420056
98	0xbd073bae	-0.0330159
99	0x3c00bfc7	0.007858223
100	0x3d106259	0.03525004
101	0xbd4804bb	-0.048832636
102	0xbdb71a6c	-0.089405864
103	0x3dcf9fdb	0.10137912
104	0xbe395ffb	-0.1810302
105	0x3da63e3f	0.08117341
106	0xbd9fde0e	-0.078060254
107	0xbd9bbdb4	-0.076045424
108	0xbc5caf97	-0.013469598
109	0x3b976bca	0.0046210038
110	0xbd6dd473	-0.058063935
111	0x3e33a892	0.17544773
112	0x3d72b6c1	0.05925632
113	0x3db3280a	0.08747871
114	0x3e7681b3	0.24072914
115	0xbcb20a31	-0.021733375
116	0xbde0ad19	-0.10970516
117	0x3ddff1a6	0.10934763
118	0x3dc2e3e0	0.0951612
119	0xbdb0ce62	-0.086331144
120	0x3cf10e9a	0.029425908
121	0xbe00b957	-0.12570702
122	0xbe114b16	-0.141888
123	0x3cc06a3e	0.02348816
124	0xbc7005c3	-0.014649811
125	0xbce00933	-0.027348137
126	0xbd22fb3c	-0.039790377
127	0x3dc23e6e	0.09484564
128	0xbb06fd20	-0.0020597652
129	0xbda22387	-0.079169326
130	0xbb29687f	-0.0025849638
131	0x3c9e0d02	0.019293312
132	0x3d86e9ab	0.065875374
133	0xbdb21e1f	-0.086971514
134	0x3d23be90	0.039976656
135	0xbd728797	-0.05921134
136	0xbe0ab042	-0.135438
137	0xbdac8358	-0.08423489
138	0x3e1be3c4	0.15223604
139	0x3d8f314e	0.06991826
140	0x3dbbb1f4	0.09164801
141	0x3d9f490b	0.07777604
142	0x3da5cb6f	0.080954425
143	0xbcd93f16	-0.02651934
144	0xbd14e840	-0.036354303
145	0x3d0ed371	0.034869615
146	0xbd8d8b66	-0.06911354
147	0xbdbbe99c	-0.09175417
148	0xbd2e9e29	-0.042631302
149	0x3d2cddaf	0.0422036
150	0x3d9dd962	0.07707478
151	0x3bace7ae	0.005276642
152	0xbd312282	-0.0432458
153	0x3ad15cfc	0.0015973146
154	0xbc8e4b58	-0.017369911
155	0xbd343cc5	-0.044003267
156	0x3da72d22	0.08162905
157	0x3d722b11	0.059123103
158	0x3dbe29c7	0.09285312
159	0x3e11f999	0.1425537
160	0x3d237470	0.039905965
161	0x3d0a0823	0.033699166
162	0x3b3a5881	0.00284341
163	0x3b90a749	0.004414473
164	0xbc7e65a2	-0.015527161
165	0x3c257a15	0.010099907
166	0x3d88e18a	0.06683643
167	0x3de0c421	0.109749086
168	0x3dca231c	0.09869978
169	0xbd13943a	-0.03603003
170	0xbd091180	-0.033463955
171	0xbccb7194	-0.024834432
172	0x3bb67357	0.005567949
173	0x3de85e2b	0.11346086
174	0x3ddf4b21	0.109030016
175	0xbc8030af	-0.015648214
176	0xbe1cc485	-0.15309341
177	0xbd1c2780	-0.038123608
178	0xbe19cfb0	-0.15020633
179	0xbd1d7fe7	-0.038452055
180	0xbc80aaab	-0.01570638
181	0xbddefbc1	-0.10887862
182	0x3cc98c51	0.02460304
183	0xbd8e85bb	-0.06959101
184	0xbde3fd4e	-0.111322984
185	0xbda431f6	-0.08017342
186	0x3e114abe	0.14188668
187	0xbde0d298	-0.109776676
188	0x3e0a983b	0.13534634
189	0x3d22ab11	0.039713923
190	0xbcab04a4	-0.020876236
191	0x3d815baa	0.06316312
192	0xbcccb0d5	-0.024986664
193	0x3da183b2	0.07886447
194	0x3d847cd3	0.06469121
195	0xbe15aa11	-0.14615656
196	0x3d65fadd	0.056147445
197	0x3c5328b1	0.01288812
198	0x3cf21d6c	0.029555045
199	0x3d2434e8	0.040089518
200	0x3cd0b0d9	0.025474953
201	0xbda1fa40	-0.079090595
202	0xbc5e2825	-0.013559376
203	0x3de1dec5	0.11028818
204	0x3dbef5f0	0.093242526
205	0xbccd1ba8	-0.025037602
206	0xbdea5d3f	-0.114435665
207	0xbc9c4966	-0.019077968
208	0xbd7c0a1e	-0.061533086
209	0x3d987fce	0.07446252
210	0xbda50dc3	-0.080592655
211	0x3b94c668	0.0045402534
212	0xbd3523d2	-0.044223614
213	0x3d23cfbd	0.039993037
214	0x3e0eb8e6	0.1393772
215	0x3b8f94b8	0.0043817423
216	0x3da051f6	0.07828133
217	0x3da74ab2	0.08168544
218	0x3d8eeffb	0.069793664
219	0xbd5b3fd1	-0.053527657
220	0xbca79710	-0.020457774
221	0x3d740039	0.059570525
222	0xbd44dbdf	-0.048061248
223	0x3d3040b8	0.04303047
224	0xbd258b67	-0.040416148
225	0xbd9dfb0d	-0.077139
226	0x3c68d7e0	0.014211625
227	0x3c72c894	0.014818329
228	0x3d67fc91	0.05663735
229	0x3df48174	0.11938754
230	0x3dae7a7d	0.085194565
231	0x3df1e30f	0.11810886
232	0xbd266b1a	-0.040629484
233	0xbd9e917e	-0.07742594
234	0xbda31a6c	-0.07964024
235	0xbcffbcc1	-0.031217935
236	0xbda79f21	-0.08184648
237	0xbd22b32b	-0.03972165
238	0xbe07672f	-0.13222955
239	0xbdefdd59	-0.117121406
240	0xbd8707c5	-0.06593279
241	0xbdc80b7e	-0.09767817
242	0xbdaadfc3	-0.083434604
243	0x3d3fa772	0.046790548
244	0x3dfd59d5	0.1237065
245	0xbc48ca59	-0.012255275
246	0xbd5977a5	-0.053092618
247	0x3d89c47f	0.06726932
248	0xbd67de5f	-0.056608554
249	0xbd3cef7d	-0.04612683
250	0x3d8996b3	0.06718197
251	0xbe0198c0	-0.12655926
252	0x3c412a86	0.0117899235
253	0x3dd61374	0.10452929
254	0xbb92e079	-0.0044823256
255	0x3d22ff0d	0.039794017

module.0.module.mlp_module.2.bias f4 [64]
0	0xbca17a00	-0.019711494
1	0xbdc8192b	-0.097704254
2	0xbdfa16ed	-0.12211404
3	0xbd861a8f	-0.065480344
4	0xbddc0bf5	-0.10744468
5	0x3da0201d	0.07818625
6	0xbd2e3d85	-0.04253914
7	0xbd65a549	-0.05606583
8	0xbdc9ab71	-0.09847153
9	0x3cec9521	0.028879704
10	0xbd2d35e4	-0.042287722
11	0xbdd0edb3	-0.102015875
12	0x3dce0dc3	0.100612186
13	0x3ddda669	0.10822756
14	0xbdf1c8ba	-0.11805864
15	0x3d9ffb38	0.07811588
16	0xbd085189	-0.033280883
17	0xbb41d405	-0.0029575836
18	0x3d0fb870	0.035088003
19	0xbccc1620	-0.024912894
20	0x3da163a5	0.07880334
21	0x3db78df5	0.08962623
22	0xbd96877f	-0.073500626
23	0xbd80c9f7	-0.06288522
24	0xbe029cb2	-0.12755087
25	0x3cc46298	0.023972794
26	0xbddf5a96	-0.1090595
27	0xbdecc31e	-0.11560653
28	0xbdce2af5	-0.10066787
29	0xbdd6c056	-0.10485904
30	0xbdf67978	-0.12034887
31	0x3da1e0b5	0.079041876
32	0x3d5d2e6c	0.05399935
33	0x3dbcc6b7	0.09217589
34	0xbd63d2a6	-0.055620812
35	0xbd8fcbfe	-0.0702133
36	0xbd5523c6	-0.05203607
37	0xba62da7a	-0.00086537714
38	0xbd959ea3	-0.07305648
39	0x3cd34143	0.025787955
40	0xbd41e82e	-0.047340564
41	0x3d03ce7d	0.032179344
42	0x3dda0cf1	0.106469996
43	0x3d073ff0	0.03301996
44	0x3ddf66e8	0.109083
45	0xbd828276	-0.0637254
46	0x3c7ac98d	0.0153068425
47	0xbd956b17	-0.072958164
48	0xbcaf81e9	-0.02142425
49	0xbd6bf787	-0.057609107
50	0xbd37b8e9	-0.04485408
51	0xbdd501b2	-0.10400714
52	0xbcdcf70c	-0.02697327
53	0x3cd0cf8b	0.02548959
54	0xbcde1b10	-0.027112514
55	0xbd9b7ac5	-0.07591776
56	0x3dd556f6	0.10416977
57	0x3dd06795	0.10176007
58	0xbdba9053	-0.09109559
59	0x3c764468	0.015030958
60	0x3da0ead6	0.078572914
61	0xbe00da3b	-0.12583248
62	0xbde04f4a	-0.10952623
63	0x3db5958f	0.08866417

module.0.module.mlp_module.4.weight f4 [4, 64]
0	0xbc129a99	-0.008947992
1	0x3ceb7497	0.028742118
2	0xbd1ab52d	-0.03777044
3	0xbc372f07	-0.011180646
4	0x3d9d5179	0.07681555
5	0xbbba164b	-0.005678927
6	0xbd23050a	-0.039799727
7	0xbd1b2329	-0.03787533
8	0xbbd7ea21	-0.0065891896
9	0x3d59b1a6	0.053147934
10	0xbda72300	-0.081609726
11	0x3b12bd28	0.0022390578
12	0x3d760113	0.06005962
13	0x3c639efe	0.013892887
14	0xbd1821a5	-0.03714146
15	0xbc8115be	-0.015757438
16	0xbdb036e8	-0.086042225
17	0x3cbf3136	0.023338895
18	0xbdfe7430	-0.12424505
19	0x3c93d335	0.018045047
20	0xbbdfeb07	-0.0068334374
21	0x3c3bc108	0.011459596
22	0xbc1d6668	-0.009606935
23	0x3dd5fd50	0.10448706
24	0xbda99600	-0.08280563
25	0xbdc82a08	-0.09773642
26	0xbdc0d2bd	-0.09415195
27	0xbdd5e36d	-0.10443769
28	0xbcea8805	-0.028629312
29	0x3df64721	0.120252855
30	0xbd5e2d91	-0.054242674
31	0xbd643d8c	-0.05572276
32	0xbdbbe8ef	-0.09175288
33	0xbd6a56e3	-0.057211768
34	0x3bd68295	0.0065463283
35	0xbda6c0c0	-0.08142233
36	0xbaf5b128	-0.0018744813
37	0x3cde2042	0.027114991
38	0xbc947be3	-0.01812548
39	0x3c9694e0	0.018381536
40	0x3ba44c6e	0.005013994
41	0x3dbb33ac	0.09140715
42	0x3d07beb7	0.033140864
43	0x3e2cc025	0.16870172
44	0x3dd85424	0.105629236
45	0x3d220397	0.039554205
46	0x3d8e0c24	0.069359094
47	0xbd932276	-0.07184307
48	0xbd4ac567	-0.049504664
49	0x3cb738e4	0.022365995
50	0x3cdb779d	0.026790434
51	0x3d9f8138	0.077883184
52	0xbd0d4916	-0.03449353
53	0xbc48f430	-0.01226525
54	0x3da8b9b5	0.08238546
55	0x39e37773	0.0004338581
56	0x3dd13f65	0.1021717
57	0xbd0d3651	-0.03447563
58	0xbd8317e6	-0.06401043
59	0xbc2dab91	-0.010599987
60	0x3db59536	0.0886635
61	0xbd9b6af4	-0.07588759
62	0xbd839727	-0.064253144
63	0x3de9faaa	0.114247635
64	0x3c743925	0.014906202
65	0x3d778283	0.0604272
66	0xbcac2daf	-0.021017877
67	0xbd0d6b09	-0.034525905
68	0xbd9ce592	-0.076609746
69	0xbcb99628	-0.022654608
70	0xbda9f1e1	-0.08298088
71	0x3d41c778	0.04730937
72	0x3c81f557	0.015864057
73	0xbd633d71	-0.055478517
74	0x3de2ea76	0.11079876
75	0xbc8ae10d	-0.016953016
76	0x3c8ebd12	0.01742414
77	0x3bea66e3	0.0071533783
78	0x3d991e91	0.07476533
79	0xbd87c829	-0.066299744
80	0x3dd2cc9d	0.10292933
81	0xbd1d23c3	-0.038364183
82	0x3d3bfa14	0.04589279
83	0xbd48ec61	-0.049053553
84	0xbc3822bc	-0.01123875
85	0xbdb4be08	-0.08825308
86	0xbc457a22	-0.0120530445
87	0xbda504eb	-0.08057579
88	0xbd04a184	-0.032380596
89	0xbb1203c2	-0.0022280072
90	0x3d09a26a	0.033602156
91	0x3d78c165	0.06073131
92	0x3db41fec	0.08795151
93	0xbd39376d	-0.045218874
94	0x3d948acb	0.07253035
95	0xbd0b038f	-0.03393894
96	0xbcf6fd9a	-0.030150224
97	0x3c96ef16	0.018424552
98	0xbc3089ae	-0.010775013
99	0x3cf2d044	0.029640324
100	0x3dbfcad8	0.09364861
101	0x3cbdecfd	0.023184294
102	0xbdb09197	-0.08621519
103	0xbd6c4ecc	-0.057692334
104	0xbbb22f50	-0.005437769
105	0xbdd5c535	-0.10438005
106	0xbbf8b99e	-0.0075904867
107	0x3db96299	0.09052009
108	0xbc1c2f13	-0.009532708
109	0xbd0b4ff9	-0.034011815
110	0xbd13d60a	-0.036092795
111	0xbd30baf4	-0.043147042
112	0x3d07524f	0.03303748
113	0x3d9df36f	0.07712447
114	0xbd00062f	-0.031255897
115	0xbcb5adf4	-0.022177674
116	0xbd48d770	-0.049033582
117	0xbaec59cf	-0.0018032136
118	0xbd37768d	-0.044790793
119	0xbd92d15c	-0.071688384
120	0xbca74b6c	-0.020421706
121	0xbdbf042e	-0.09326969
122	0xbccc75fd	-0.024958605
123	0x3d96328b	0.07333859
124	0x3d18dd69	0.03732053
125	0xbc73d461	-0.014882178
126	0xbd7a5e2c	-0.061124966
127	0xbe022597	-0.12709652
128	0xbd015cf3	-0.031582784
129	0xbdae0f4e	-0.08499013
130	0x3d9b0635	0.07569543
131	0x3bf9747b	0.0076127625
132	0x3db77f24	0.08959797
133	0x3d17db25	0.037074227
134	0x3ce216aa	0.027598698
135	0x3d28c245	0.041200895
136	0x3d07641a	0.03305445
137	0xbc05456a	-0.008134225
138	0xbdc1d871	-0.09465111
139	0xbc543179	-0.012951248
140	0x3c6704f2	0.0141003
141	0x3ab3a891	0.0013706853
142	0xbd8146fc	-0.06312367
143	0x3ce351d3	0.027748978
144	0xbdea7419	-0.11447925
145	0x3d681f5b	0.056670528
146	0x3dd36933	0.103227995
147	0x3da5ab97	0.08089369
148	0xbca88d21	-0.020575108
149	0x3ddd2f03	0.107999824
150	0x3bae811b	0.005325449
151	0x3d8faaa1	0.07014967
152	0x3d82d380	0.06387997
153	0xbdbf51a1	-0.09341741
154	0xbba84a27	-0.005135793
155	0x3cc41df2	0.02394006
156	0xbd8c5b7e	-0.06853388
157	0x3dd80f66	0.10549812
158	0x3d51ad8c	0.051190898
159	0x3d8bca80	0.06825733
160	0xbc070418	-0.008240722
161	0xbd4d6f81	-0.050155167
162	0xbbbd7153	-0.0057813316
163	0x3d3671f5	0.04454227
164	0xbd5b8398	-0.053592294
165	0x3d301174	0.042985395
166	0x3de94f99	0.11392135
167	0x3cfcb1b6	0.030846458
168	0xbd4faf2e	-0.050704174
169	0x3d6ba522	0.05753053
170	0x3d998b21	0.0749724
171	0xbd18b1cf	-0.037278946
172	0xbcdfa9ad	-0.027302587
173	0x3c16633c	0.009178933
174	0x3cb765b8	0.02238737
175	0xbd5b6140	-0.05355954
176	0x3d070cec	0.032971308
177	0x3be28cae	0.006913743
178	0xbca2ccc8	-0.019873038
179	0xbcfa97cf	-0.030589966
180	0xbc146941	-0.009058298
181	0x3d8d1edc	0.068906516
182	0x3d8558ff	0.06511115
183	0x3d4e278e	0.05033069
184	0xbbcff8c5	-0.0063467943
185	0x3d82e375	0.0639104
186	0x3ddb1c89	0.10698802
187	0xbb3c081d	-0.002869136
188	0xbd0a5e98	-0.033781618
189	0x3d69129c	0.056902513
190	0xbd4caf13	-0.04997165
191	0x3cc16803	0.023609167
192	0xbd3695c6	-0.04457643
193	0xbc584c69	-0.013201811
194	0x3cae821d	0.021302277
195	0xbd45c7fc	-0.048286423
196	0x3d5b7c4a	0.05358533
197	0x3d697bf6	0.057002984
198	0xbda26df5	-0.07931129
199	0x3d99b5d0	0.07505381
200	0xbc11f6c7	-0.008908934
201	0xbcec0f24	-0.028815813
202	0x3d465623	0.04842199
203	0x3d15534e	0.0364564
204	0x3d192191	0.037385527
205	0xbbfef3af	-0.007780514
206	0x3dadff89	0.08496005
207	0xbd57868a	-0.05261854
208	0x3c9506dc	0.018191747
209	0x3ce1d3c4	0.027566798
210	0x3dc5d428	0.09659606
211	0x3d0d9012	0.034561224
212	0x3c5a88a2	0.01333824
213	0x3ce37c48	0.027769223
214	0x3ce9abdb	0.02852433
215	0xbbf39ef1	-0.007434719
216	0x3d26ff41	0.040770773
217	0x3d91e3f9	0.071235605
218	0xbc8f3fc1	-0.017486455
219	0xbcb5eb51	-0.022206934
220	0x3d9b7631	0.075909026
221	0x3d4cb84d	0.04998045
222	0xbc3c0435	-0.011475612
223	0x3d47885c	0.048714027
224	0xbdd2f61c	-0.10300848
225	0xbd90223d	-0.070377804
226	0xbb07b2c1	-0.002070591
227	0x3d90d8b0	0.0707258
228	0x3ba72df2	0.0051019127
229	0x3da69140	0.08133173
230	0x3de36a68	0.1110428
231	0x3cb55c1d	0.02213865
232	0xbda5f5f6	-0.08103554
233	0xbd2ee8d9	-0.04270253
234	0x3d22fa66	0.03978958
235	0x3d861c10	0.06548321
236	0xbd1a4ee4	-0.037672892
237	0x3c6ebe19	0.01457169
238	0x3d38d9ec	0.0451297
239	0xbd94ccaf	-0.07265603
240	0xbc387b69	-0.011259892
241	0x3def5a31	0.116871245
242	0xbd502fbf	-0.050826784
243	0x3cc4732c	0.0239807
244	0xbdbd53cf	-0.09244501
245	0x3c0ce06a	0.008598426
246	0x3d867218	0.065647304
247	0xbc3b4f6d	-0.011432511
248	0x3b220474	0.0024721893
249	0xbdc6d1d6	-0.09707992
250	0x3de47143	0.111544155
251	0xbcb3862f	-0.02191457
252	0xbb8aa1ed	-0.004230729
253	0xbd576d92	-0.05259473
254	0xbd8a7960	-0.06761432
255	0xbdca478c	-0.09876928

module.0.module.mlp_module.4.bias f4 [4]
0	0xbdc6481e	-0.09681724
1	0xbd2aba2b	-0.04168145
2	0xbd72a978	-0.05924365
3	0x3da9989f	0.08281063
