torchRL/wandb/offline-run-20250601_202222-auijaicr/files/models/value_network.pt (torch, 21341 bytes, 5 tensors)

module.0.weight f4 [64, 4]
0	0xbe2ce398	-0.16883695
1	0x3eaa0d81	0.33213428
2	0xbcdb0373	-0.026735043
3	0xbcc766bf	-0.024340985
4	0x3e79266b	0.24331062
5	0xbeb8b4dc	-0.36075485
6	0xbe415591	-0.18880297
7	0x3e8518b0	0.25995398
8	0x3d9b7370	0.07590377
9	0xbdb2f83b	-0.087387525
10	0x3ceac3bd	0.028657788
11	0xbdcc41ce	-0.09973489
12	0x3e3cfaaf	0.18455003
13	0xbe29f8af	-0.16598772
14	0x3d90a4f1	0.0706271
15	0x3c96ec78	0.018423304
16	0xbe961c5e	-0.29318517
17	0xbe30569c	-0.17220539
18	0x3e32a391	0.17445208
19	0x3dd01b4c	0.101614565
20	0xbe67f6a9	-0.22652687
21	0xbe9da912	-0.30793053
22	0xbe75be4f	-0.23998378
23	0x3e89184f	0.26776358
24	0x3f147190	0.5798578
25	0xbed19d4f	-0.4094033
26	0x3d12b8d6	0.035820805
27	0x3e82200e	0.2541508
28	0xbed4be01	-0.4155121
29	0x3d840578	0.064463556
30	0x3ea83fc4	0.3286115
31	0x3e9975d8	0.2997272
32	0x3ebf5ff4	0.37377894
33	0xbdab6fb0	-0.08370912
34	0xbe9cbae6	-0.30611342
35	0xbd9e3273	-0.07724466
36	0xbe2a9140	-0.16656971
37	0xbccaea4e	-0.024769928
38	0x3e804d19	0.2505882
39	0xbe98b18d	-0.2982296
40	0xbe03951a	-0.12849846
41	0xbe1f2d00	-0.1554451
42	0x3d88208f	0.06646835
43	0x3e9281b0	0.2861457
44	0x3e5022e8	0.20325816
45	0xbd803462	-0.06259991
46	0xbe1f098c	-0.15530986
47	0xbea895b1	-0.32926705
48	0xbf184be2	-0.5949079
49	0x3e31ad99	0.17351379
50	0xbe476d56	-0.19475302
51	0x3e26ea54	0.16300327
52	0xbea4ecf2	-0.32212025
53	0x3e09bc92	0.1345084
54	0x3eb37042	0.35046583
55	0xbd8bec54	-0.068321854
56	0xbc928a94	-0.017888345
57	0x3ebf9674	0.37419474
58	0xbe1187bc	-0.14211935
59	0x3e3a57cd	0.18197556
60	0xbf0bf577	-0.54671425
61	0x3ebe71b0	0.37196112
62	0xbd3985b7	-0.045293536
63	0xbe353a35	-0.17697985
64	0x3ed11903	0.40839395
65	0x3ca38529	0.019960957
66	0x3e9e2b95	0.30892625
67	0xbdc3460a	-0.09534843
68	0xbedec40a	-0.4350894
69	0x3eb9fc4b	0.36325297
70	0xbe1e604a	-0.15466419
71	0x3e4223d1	0.18958975
72	0x3e8a2ece	0.26988834
73	0x3ea908fd	0.3301467
74	0xbe4bb6e5	-0.19893987
75	0xbd75fcc6	-0.060055517
76	0xbf0a0ceb	-0.5392596
77	0xbe2b65ab	-0.16738002
78	0x3c8d4399	0.017244147
79	0xbe8514a4	-0.2599231
80	0x3d8a8378	0.06763357
81	0x3e80d31d	0.25161067
82	0xbe02b59c	-0.12764591
83	0xbe10a1ca	-0.14124218
84	0x3e2f3fb9	0.17114152
85	0xbdaacb66	-0.083395764
86	0x3df19bef	0.1179732
87	0x3e5a6505	0.21327598
88	0xbce10b3e	-0.027471181
89	0xbeef8699	-0.46782377
90	0x3ebbc5a7	0.36674234
91	0xbe258033	-0.16162185
92	0x3f23d5ad	0.6399792
93	0xbe909311	-0.28237203
94	0x3cde506a	0.027137954
95	0x3e8ed57b	0.27897248
96	0x3d879698	0.0662052
97	0x3eb62585	0.355755
98	0xbe94ecc5	-0.2908689
99	0xbda483b5	-0.080329336
100	0xbe6b47cf	-0.22976612
101	0x3eaab3dd	0.3334035
102	0x3e330251	0.17481352
103	0x3e20db45	0.15708645
104	0x3bd0cacf	0.006371833
105	0x3ec81e75	0.39085737
106	0xbdc45166	-0.09585838
107	0xbe61ccaf	-0.22050737
108	0x3dceba6e	0.100941524
109	0x3e21deee	0.15807697
110	0xbe142dc2	-0.1447058
111	0x3e0a5b6f	0.13511442
112	0x3e8b534b	0.27211985
113	0x3d9b1530	0.075724006
114	0x3e8c4bd3	0.274016
115	0x3db192ba	0.08670564
116	0x3e0d7dba	0.13817492
117	0xbe03ae33	-0.1285942
118	0xbea28a06	-0.3174593
119	0x3e3b2e24	0.1827932
120	0x3ea810ad	0.32825223
121	0x3e9843a0	0.29739094
122	0x3d4564c7	0.048191812
123	0xbcab33ea	-0.020898778
124	0xbef3b6a6	-0.47600287
125	0xbec1e5a6	-0.3787052
126	0x3e3862ff	0.18006514
127	0x3ea3ffdd	0.32031146
128	0x3de39c0e	0.111137494
129	0xbdf1ddb3	-0.11809864
130	0x3e053368	0.13007891
131	0xbda9e960	-0.08296466
132	0x3ea931ae	0.33045715
133	0xbeb404dd	-0.3515996
134	0xbeb476f5	-0.35247007
135	0xbe08d8f4	-0.13364011
136	0x3dd85d5f	0.10564684
137	0x3e20d8ef	0.15707754
138	0x3e28acd0	0.16472173
139	0xbe31a01f	-0.17346238
140	0xbe74cca2	-0.23906186
141	0x3e0063a5	0.12538011
142	0xbc8c78d1	-0.017147454
143	0xbdc22da9	-0.09481365
144	0x3f00c3a5	0.5029853
145	0xbe26c775	-0.16287024
146	0x3e4c96b0	0.19979358
147	0x3eeb27f4	0.4592892
148	0xbcf31807	-0.029674543
149	0xbd50e190	-0.050996363
150	0xbe56424d	-0.20923729
151	0xbe56e67d	-0.20986362
152	0xbe8c0f39	-0.27355364
153	0x3e01913a	0.12653056
154	0x3e7b4221	0.24536945
155	0xbe04e12e	-0.12976524
156	0x3e32d4e4	0.17464024
157	0xbe2990f1	-0.16559197
158	0x3cb44473	0.022005295
159	0xbe0a6d43	-0.13518243
160	0xbd1237fe	-0.03569793
161	0x3ec63135	0.38709417
162	0x3dd64edc	0.1046426
163	0xbd92a041	-0.07159472
164	0xbea68b83	-0.32528314
165	0xbe83eb73	-0.2576557
166	0xbe668a32	-0.22513655
167	0xbe812454	-0.2522303
168	0x3e0add22	0.13560918
169	0xbe2a6721	-0.16640903
170	0xbd2e0b5f	-0.042491313
171	0xbe8187e7	-0.25298998
172	0x3dc4b841	0.09605456
173	0x3ebf1144	0.3731786
174	0x3d57374b	0.052542966
175	0xbda5866f	-0.08082282
176	0x3ede0e85	0.43370453
177	0x3ea4a69a	0.32158357
178	0x3e94e18f	0.29078338
179	0xbe9f14bb	-0.31070504
180	0xbe2a1afa	-0.16611853
181	0xbeb9b79a	-0.3627289
182	0xbe60801a	-0.21923867
183	0x3e82e2e5	0.25563732
184	0xbefd5b89	-0.49483898
185	0xbe5fc6cc	-0.21853179
186	0x3e8b8ad4	0.27254355
187	0x3e9e017b	0.30860505
188	0xbf38a97d	-0.7213362
189	0xbe8d75b3	-0.2762886
190	0xbe803c6b	-0.25046095
191	0x3eb7d97e	0.3590812
192	0x3ecd6d3d	0.40122405
193	0x3e658df3	0.2241743
194	0x3e45efad	0.1932971
195	0xbd9c600a	-0.076355055
196	0x3ef13c72	0.4711643
197	0xbc42a51a	-0.011880184
198	0xbd88740a	-0.06662758
199	0x3c0aa760	0.008462757
200	0x3eb358e4	0.35028756
201	0x3e17f218	0.14838445
202	0xbe02c000	-0.12768555
203	0x3ea7ba05	0.3275911
204	0xbea5661a	-0.3230446
205	0x3dc8142e	0.09769474
206	0x3ed6d12d	0.41956463
207	0x3dfc8ecd	0.123319246
208	0x3d64dc26	0.055874012
209	0xbe7353e9	-0.23762478
210	0x3df5cd08	0.12001997
211	0x3d933483	0.0718775
212	0x3e6697ed	0.22518893
213	0x3e9365a1	0.28788474
214	0x3d800cca	0.06252439
215	0xbe37426b	-0.1789643
216	0xbe2d85a8	-0.16945517
217	0x3ee0ac67	0.43881533
218	0xbcafe926	-0.021473479
219	0xbdfc4d62	-0.12319447
220	0xbf04ddc3	-0.5190088
221	0x3ed54cf0	0.4166026
222	0x3e8dfede	0.2773351
223	0xbed71ef1	-0.42015794
224	0xbe697d85	-0.22801788
225	0x3eba3fa5	0.36376682
226	0x3e093fd7	0.13403259
227	0xbdb2aede	-0.087247595
228	0xbefc6390	-0.4929471
229	0x3e95b447	0.29239103
230	0xbe54ed97	-0.20793758
231	0x3dfd7c44	0.123772174
232	0xbf2faef6	-0.68626344
233	0xbecf9c28	-0.40548825
234	0xbef4b655	-0.47795358
235	0x3ed19dee	0.40940803
236	0x3f2bc94e	0.6710404
237	0xbe9d6736	-0.30742806
238	0x3e8a67a9	0.2703221
239	0xbde00151	-0.10937751
240	0xbf1da283	-0.615761
241	0x3e58dd3d	0.21178146
242	0x3ea3eea8	0.32018018
243	0x3e1dfbd7	0.154281
244	0x3e7b6e2c	0.24553746
245	0x3ed55f69	0.41674355
246	0xbee957b0	-0.45574713
247	0x3e2bbc01	0.16770937
248	0xbe9c7950	-0.30561304
249	0x3d113bca	0.03545741
250	0x3e90bf85	0.28271118
251	0xbe987f1b	-0.29784474
252	0x3ed7d8eb	0.42157683
253	0xbda893c3	-0.08231308
254	0x3e776860	0.2416091
255	0x3dd285a7	0.102793984

module.0.bias f4 [64]
0	0x3ef438cf	0.47699592
1	0x3f3e659c	0.74373794
2	0xbee0d3d2	-0.43911606
3	0xbf38a1d3	-0.72121924
4	0x3f3538a8	0.70789576
5	0xbf005fce	-0.50146186
6	0xbe285607	-0.16439067
7	0x3f0b9846	0.54529226
8	0xbe94af74	-0.2904011
9	0x3f20cd59	0.62813336
10	0x3f116f46	0.56810415
11	0xbeada2d5	-0.33913293
12	0x3ea8deda	0.32982522
13	0x3e9b2605	0.30302444
14	0x3f371b0e	0.7152566
15	0x3f147a27	0.5799889
16	0xbf0cf52b	-0.55061597
17	0x3e976cee	0.29575294
18	0x3ef653f2	0.4811092
19	0x3f1ab8ed	0.60438424
20	0x3ed79f0d	0.42113534
21	0x3f0dbca7	0.55365986
22	0xbe8fb8ea	-0.28070766
23	0xbe53cfdb	-0.2068476
24	0xbf17c6df	-0.5928783
25	0x3f1c9aaa	0.611735
26	0x3f22f8a3	0.6366064
27	0xbf03c339	-0.5146976
28	0xbf251087	-0.64478344
29	0x3f216483	0.63043994
30	0xbf2c256c	-0.672446
31	0x3f0af0a2	0.54273427
32	0xbf379c0e	-0.71722496
33	0xbeefdb9f	-0.46847245
34	0xbef03839	-0.46917894
35	0x3f31f730	0.69517803
36	0xbe99830b	-0.2998279
37	0x3f2a3c1d	0.66497976
38	0x3ec5f0c4	0.38660252
39	0x3f3b786e	0.73230636
40	0x3f066a27	0.52505726
41	0x3f1b1cf4	0.60591054
42	0x3f2f7cc2	0.6854974
43	0xbee968fb	-0.45587906
44	0xbeb9db3a	-0.3630007
45	0x3ee12d91	0.43980077
46	0x3f2cd2ff	0.67509454
47	0x3b6fe73b	0.003660633
48	0xbf1f7cb6	-0.6229967
49	0xbf2002bd	-0.6250418
50	0xbee63bf5	-0.4496762
51	0x3ea9166f	0.33024928
52	0xbea3624e	-0.31910938
53	0xbecf6bbd	-0.40511885
54	0xbf07c6cd	-0.5303772
55	0x3eb803b2	0.3594032
56	0xbf2c9fab	-0.67431134
57	0x3f31a0c1	0.69385916
58	0x3e0a34ea	0.13496748
59	0xbe39feee	-0.18163654
60	0x3ec45794	0.38348067
61	0xbee356f8	-0.4440229
62	0x3f1ed120	0.6203785
63	0xbe8085b0	-0.25101995

module.2.weight f4 [64, 64]
0	0xbe11c9cd	-0.14237137
1	0xbe77d607	-0.24202739
2	0x3e3d7bcf	0.1850426
3	0x3e38168a	0.17977348
4	0xbdd94b75	-0.106100954
5	0x3e07080f	0.13186668
6	0x3e5890ba	0.21148959
7	0xbd2d7b70	-0.042354047
8	0x3e794817	0.24343906
9	0xbe19cb8e	-0.15019056
10	0xbde84a3e	-0.113422856
11	0x3db7671d	0.08955214
12	0xbe7462d2	-0.23865822
13	0xbe43e4a8	-0.19130194
14	0xbe0426ec	-0.12905473
15	0xbe596178	-0.21228588
16	0x3cf1a68d	0.029498363
17	0xbdc0eeac	-0.09420523
18	0xbdc05ea8	-0.09393054
19	0xbe4f0fb8	-0.2022084
20	0xbdc0b83a	-0.094101384
21	0xbe782aa8	-0.24235022
22	0x3e502414	0.20326263
23	0x3e5398cc	0.20663756
24	0x3dafe058	0.08587712
25	0xbcaaaa99	-0.0208333
26	0xbe5d87fa	-0.21633902
27	0x3d97d57a	0.07413764
28	0x3e65bbf1	0.22434975
29	0xbe25260c	-0.16127795
30	0x3d8e5ab6	0.069508955
31	0xbdcb2d21	-0.09920717
32	0x3dedcd9f	0.11611485
33	0x3e6336d3	0.22188883
34	0x3e7f561a	0.24935189
35	0xbda491bf	-0.08035611
36	0x3e43804e	0.19091913
37	0xbdc4043b	-0.095711194
38	0xbe23ccde	-0.1599612
39	0xbde24ddb	-0.11050006
40	0xbe121e3c	-0.14269346
41	0xbd0fa24d	-0.03506689
42	0xbd6290bf	-0.055313822
43	0x3df718d9	0.12065286
44	0x3e3a0413	0.18165617
45	0xbe064bf7	-0.13114916
46	0xbd9ea4e5	-0.07746295
47	0x3d005c0d	0.031337786
48	0x3d1450de	0.036209933
49	0x3e16871c	0.14699978
50	0x3dca1dbe	0.09868954
51	0xbe967ef2	-0.29393727
52	0x3da54049	0.08068902
53	0x3e036c40	0.12834263
54	0x3e5dce89	0.21660818
55	0xbe673967	-0.22580491
56	0x3e2688c0	0.16263103
57	0xbd83bdb7	-0.064326696
58	0xbe5c582c	-0.2151801
59	0x3e3e35bb	0.18575184
60	0xbdf666e3	-0.12031343
61	0x3c4fa939	0.012674623
62	0xbe0691a2	-0.13141492
63	0x3dbeb9fe	0.09312819
64	0x3e8cead0	0.27522898
65	0x3e529498	0.20564497
66	0xbe0d90cd	-0.13824768
67	0xbd5f93e5	-0.054584403
68	0x3e6e3144	0.23260981
69	0xbd4716e1	-0.048605803
70	0xbdc480d8	-0.095948875
71	0x3d7f1c71	0.062282983
72	0xbd4c23b3	-0.049838733
73	0x3e35b6eb	0.17745559
74	0x3dd190f0	0.10232723
75	0xbe70a30c	-0.23499697
76	0x3e8a776c	0.27044237
77	0x3e543122	0.20721868
78	0x3e802fed	0.25036564
79	0x3e2313c5	0.1592551
80	0xbcf7905d	-0.030220205
81	0x3d960b8c	0.07326421
82	0x3e50303f	0.20330904
83	0x3e25bbd0	0.16184926
84	0x3e54d5d5	0.20784695
85	0x3e987c4a	0.29782325
86	0xbe07f57e	-0.13277242
87	0xbe12bac2	-0.14329055
88	0xbd73af93	-0.059493612
89	0x3e12a770	0.14321685
90	0x3e1eafde	0.15496776
91	0xbe805ad6	-0.25069302
92	0xbe0e3f2b	-0.13891284
93	0x3dbbb12f	0.091646545
94	0xbd7d3c4f	-0.061825093
95	0x3e75ee0f	0.24016593
96	0xbe895db0	-0.2682929
97	0xbe691f60	-0.22765875
98	0xbd3be137	-0.04586908
99	0x3dc40134	0.09570542
100	0xbd73782e	-0.059440784
101	0x3e8989f3	0.2686306
102	0x3e11dd24	0.14244515
103	0x3d395cbf	0.045254465
104	0x3e64caed	0.22343035
105	0x3e4425eb	0.1915509
106	0x3e827e28	0.25486875
107	0xbe184120	-0.14868593
108	0xbda370ca	-0.07980497
109	0x3d4ee13e	0.050507776
110	0x3e1ad61b	0.15120737
111	0x3e12d321	0.14338352
112	0xbd64dcf7	-0.05587479
113	0xbe545b7f	-0.20738028
114	0xbe1c4f3f	-0.15264605
115	0x3ddc51e6	0.107578084
116	0xbeaac4c7	-0.33353254
117	0xbde326a0	-0.110913515
118	0xbe0cf748	-0.13766205
119	0x3e4f16ca	0.20223537
120	0xbe171a92	-0.1475623
121	0x3e1476c7	0.14498435
122	0x3e0776b9	0.13228883
123	0xbdc66d79	-0.09688849
124	0x3d88d582	0.066813484
125	0xbdf1a852	-0.11799683
126	0x3e57cb79	0.21073712
127	0xbe0f5318	-0.13996542
128	0xbe519bb8	-0.20469558
129	0xbc73e723	-0.01488665
130	0x3da269a6	0.07930307
131	0x3e485e09	0.19567122
132	0xbc6b7f45	-0.014373605
133	0x3e0ed279	0.13947476
134	0x3e0a53ad	0.13508482
135	0xbe81c488	-0.25345254
136	0x3dd532d5	0.10410086
137	0xbe2fb7bc	-0.17159933
138	0xbe78e50c	-0.24306124
139	0x3e12f73b	0.14352123
140	0xbd53d479	-0.0517163
141	0xbe360d04	-0.17778403
142	0xbc329193	-0.010898965
143	0xbe7c39e0	-0.24631453
144	0x3e3601c2	0.17774108
145	0xbce05ca4	-0.027387924
146	0xbc0501a3	-0.008118066
147	0xbe2679be	-0.16257378
148	0xbe8d5e21	-0.27610877
149	0xbe3972e8	-0.1811024
150	0x3e41cb49	0.18925203
151	0x3e13859f	0.14406441
152	0x3e74df87	0.23913394
153	0xbe653c22	-0.2238622
154	0xbe5dc70e	-0.21657965
155	0x3e408d44	0.18803889
156	0x3e25506f	0.16143964
157	0xbe4d7afd	-0.20066448
158	0x3e6ad0af	0.22931169
159	0xbe22a293	-0.1588233
160	0x3cd87e62	0.026427452
161	0x3e2e14f1	0.17000176
162	0x3d8cb9a4	0.06871346
163	0xbe41cecf	-0.18926547
164	0x3dc19b77	0.09453481
165	0xbdae3f39	-0.085081525
166	0xbdd0b85b	-0.10191413
167	0xbd00df36	-0.03146287
168	0xbe54ed34	-0.20793611
169	0xbe12d011	-0.14337184
170	0x3a10ffcd	0.00055312813
171	0x3d4fd77f	0.050742622
172	0x3da56960	0.08076739
173	0xbe1b3c28	-0.15159667
174	0xbe667788	-0.22506535
175	0xbdee77f2	-0.116439715
176	0x3e67791c	0.22604793
177	0x3e166f1a	0.1469082
178	0x3e12dfe3	0.14343219
179	0xbdf0da65	-0.117604055
180	0x3e8446cc	0.25835264
181	0x3e6144ae	0.21998855
182	0x3e4e3918	0.20138967
183	0xbdb42a73	-0.08797159
184	0x3e52597a	0.20541945
185	0xbd433efd	-0.047667492
186	0xbe01e375	-0.12684424
187	0x3decf500	0.115701675
188	0xbe4f6759	-0.20254268
189	0x3cbe0af2	0.023198579
190	0xbb9c7aa4	-0.004775362
191	0x3deeb845	0.116562404
192	0xbe781172	-0.24225405
193	0xbe8a2d5a	-0.26987725
194	0x3db740a8	0.08947879
195	0x3e399d75	0.18126471
196	0xbd9fee07	-0.07809072
197	0x3d8407bb	0.06446787
198	0x3e0e2c98	0.13884199
199	0xbe78fd40	-0.24315357
200	0x3e3b89e5	0.18314321
201	0xbd8dc003	-0.06921389
202	0xbe4c94be	-0.19978616
203	0x3e0090cb	0.12555234
204	0xbd8de474	-0.069283396
205	0xbe7fbe01	-0.24974824
206	0xbe3e0845	-0.18557842
207	0xbe81c82f	-0.2534804
208	0x3e7195b8	0.2359227
209	0xbde820d6	-0.11334388
210	0xbe64cdf7	-0.22344194
211	0xbd35aec5	-0.044356126
212	0xbdb113d8	-0.08646363
213	0xbe01d532	-0.12678984
214	0x3d7a504b	0.06111173
215	0x3dea120f	0.11429226
216	0x3e7a463b	0.24440853
217	0xbd7b1732	-0.061301418
218	0xbe52599c	-0.20541996
219	0x3e6c81f9	0.23096456
220	0x3d741387	0.059588935
221	0xbdf60ee6	-0.120145604
222	0x3e7bc85b	0.24588148
223	0xbddd19fd	-0.107959725
224	0x3d6098bb	0.054833155
225	0x3e402b5c	0.1876654
226	0x3e72b4fe	0.23701856
227	0xbd841cb9	-0.06450791
228	0x3db5d7fe	0.08879088
229	0xbe2f88b3	-0.1714199
230	0xbe35f9cc	-0.17771071
231	0xbe2df08d	-0.16986294
232	0xbe400df2	-0.1875532
233	0xbe3a1e5f	-0.18175648
234	0xbdd7967e	-0.10526751
235	0x3e5f6f75	0.21819861
236	0x3dfab793	0.12242045
237	0xbd6f1756	-0.058371864
238	0xbe09d02c	-0.13458318
239	0xbd51942d	-0.051166702
240	0x3e2b9ff9	0.16760243
241	0x3dcbbb85	0.09947876
242	0x3e07b3b6	0.13252148
243	0xbe3dc5d9	-0.18532504
244	0x3e8ddd00	0.27707672
245	0x3dbfc06b	0.09362873
246	0x3dc13186	0.09433274
247	0xbe892c53	-0.2679163
248	0x3dbd3bfe	0.09239958
249	0xbddffff5	-0.10937492
250	0xbcdaeede	-0.026725229
251	0x3cb1cc86	0.02170397
252	0xbe44fd72	-0.19237307
253	0x3e5fa124	0.21838814
254	0xbe57ce1e	-0.21074721
255	0x3e9461c6	0.28980845

module.2.bias f4 [64]
0	0xbe647c55	-0.22313054
1	0x3e42c507	0.19020472
2	0xbe5bd611	-0.21468379
3	0xbd0d2811	-0.03446204
4	0xbe3990d5	-0.18121655
5	0x3ca95c9a	0.020674039
6	0x3e44d319	0.19221152
7	0xbbd8db82	-0.0066179642
8	0x3dedaeb3	0.11605587
9	0xbd75105c	-0.059830055
10	0xbd4e70c3	-0.050400507
11	0x3ccb6b5e	0.02483147
12	0x3e23b004	0.15985113
13	0xbdaff688	-0.08591944
14	0x3dab189c	0.08354303
15	0xbd9cdde9	-0.076595135
16	0x3e75ac3f	0.23991488
17	0x3e5c6f3f	0.21526812
18	0x3cfcc8fb	0.030857554
19	0xbc99e604	-0.018786438
20	0x3e65d9e1	0.22446395
21	0xbd9e027f	-0.0771532
22	0x3ddb2a64	0.10701445
23	0x3e5ea562	0.21742776
24	0xbe4d7014	-0.20062286
25	0xbe4bd0a5	-0.1990381
26	0xbd91b8f2	-0.07115354
27	0xbd063654	-0.032766655
28	0x3df1062b	0.117687546
29	0xbcd85d95	-0.02641181
30	0x3e4af42a	0.19819704
31	0xbdb21a5b	-0.08696433
32	0x3e54a771	0.20766999
33	0xbbfa9e9a	-0.0076483013
34	0xbd420008	-0.04736331
35	0xbd206d9a	-0.039167024
36	0xbe04d3ff	-0.12971495
37	0xbd4069f4	-0.046976045
38	0xbd5e679f	-0.05429804
39	0xbe2dfd3c	-0.16991132
40	0x3e3ca49a	0.18422166
41	0x3e194044	0.14965922
42	0xbe182792	-0.14858845
43	0x3e5462e2	0.20740846
44	0x3e23bc71	0.15989853
45	0xbcb46f04	-0.022025593
46	0xbdd9d7b6	-0.10636847
47	0x3e21c206	0.1579667
48	0x3e323c9a	0.1740593
49	0xbe2054fc	-0.15657419
50	0xbd22bbf2	-0.03973002
51	0xbe306480	-0.17225838
52	0xbe073d00	-0.13206863
53	0x3e187b79	0.14890851
54	0x3e5b9917	0.21445118
55	0x3e36d615	0.17855103
56	0x3e6e15df	0.2325053
57	0xbe519c04	-0.20469671
58	0xbe144585	-0.14479645
59	0xbdf1eedb	-0.11813136
60	0x3e667373	0.22504978
61	0x3e6dc5c3	0.23219971
62	0x3e34708b	0.17621057
63	0x3d22544a	0.039631166

module.4.weight f4 [1, 64]
0	0xbfa807f7	-1.3127431
1	0x3f9d420e	1.2285783
2	0xbfa66edc	-1.3002582
3	0xbfa0d7b0	-1.2565823
4	0xbfa5f08a	-1.2964032
5	0x3fa17891	1.2614919
6	0x3f99aa4a	1.2005093
7	0xbfa75415	-1.3072535
8	0x3fa7a8b4	1.3098359
9	0xbfa9d864	-1.3269162
10	0xbf9ac5a8	-1.209157
11	0x3fa84f90	1.314928
12	0x3fa24149	1.2676173
13	0xbfa980ce	-1.3242433
14	0x3f9b3e1d	1.212833
15	0xbf9c11bd	-1.2192913
16	0x3fa273ac	1.269155
17	0x3faa4aaf	1.3304042
18	0x3fa95eab	1.3232015
19	0xbf99ffc8	-1.2031183
20	0x3fa33302	1.2749941
21	0xbfaa42a2	-1.3301585
22	0x3fa81b7c	1.3133388
23	0x3fa2d7eb	1.2722143
24	0xbfa848ae	-1.314718
25	0xbf9dee55	-1.2338358
26	0xbfa00923	-1.2502788
27	0xbfa3cc32	-1.279669
28	0x3fa0756e	1.2535837
29	0xbf9de24b	-1.2334684
30	0x3fa138af	1.2595423
31	0xbf9dbaa0	-1.2322578
32	0x3fa7b233	1.3101257
33	0xbfa11870	-1.2585583
34	0xbf9e5f7b	-1.2372888
35	0xbf9f3569	-1.2438174
36	0xbf9ab028	-1.2085009
37	0xbf9e1e2e	-1.235296
38	0xbfa73208	-1.3062143
39	0xbfaa809d	-1.33205
40	0x3fa5761f	1.2926673
41	0x3f9eb928	1.2400255
42	0xbfa448ae	-1.283468
43	0x3fa1d5eb	1.2643408
44	0x3f9ca8a1	1.2238961
45	0xbfa1024c	-1.2578826
46	0xbf9b4b3e	-1.2132337
47	0x3f9b87f5	1.2150866
48	0x3fa3a4fc	1.2784724
49	0xbfa906cb	-1.3205198
50	0xbfa7f5f6	-1.3121936
51	0xbfa9036b	-1.3204168
52	0xbfa93198	-1.321826
53	0x3f9b0ceb	1.2113317
54	0x3fa58752	1.2931921
55	0x3f9cce79	1.225051
56	0x3f9e5287	1.2368935
57	0xbf9b20f6	-1.2119434
58	0xbf9977be	-1.1989667
59	0xbfa9d868	-1.3269167
60	0x3fa95987	1.3230447
61	0x3faa2846	1.329354
62	0x3f9aeda2	1.210377
63	0x3f9d3d34	1.2284303
