Voronoi Formation/model1/model1.pth (torch, 18248 bytes, 4 tensors)

linear1.weight f4 [256, 11]
00000000: f8a0 a53d b0ad 5c3e 9062 f43d b0c6 873e
00000010: 964e 913e 74b4 6c3e 2054 8c3c 73be 563e
00000020: e7cf 4a3e baf4 85be e22e 1cbe 1685 51be
00000030: 10f7 a6bd 5031 53bd 9a9b b5bd 4031 21be
00000040: c08e 233e b08b 983e eaeb 01be 8a2f 15be
00000050: 9865 9bbd 20a8 2f3e 2ece 263e e6a4 c2bd
00000060: 354e 06be 6674 843e 2594 58be 60b4 533e
00000070: b06a 0c3d c230 b9bd 0abb 683e 1fc2 b33d
00000080: 9802 083e 47a9 55be 7c77 843e 3cc4 84be
00000090: b888 933e 7e63 603e 60db 23bd e837 43bd
000000a0: 1a87 e1bd afc4 343e de8d 5abd 2c1f 593e
000000b0: 004a 973d 1e45 8abe bede 133e 98f7 38bd
000000c0: 6d58 62be f2d1 a2bd 54a8 943d 08f2 8b3e
000000d0: fe1c f4bd 2fab b43d 3039 43bd 36e9 93bd
000000e0: ba05 17be 10a3 30bd fd72 0abe f6d3 473e
000000f0: a698 803e c6ca 423e 724b 48be 1c57 8fbe
00000100: 932f 13bd de59 12be 24c0 48be 9856 023d
00000110: 6012 e1bc 7840 6c3e c3e5 133e a08b 4bbc
00000120: 54e7 8dbe fb0f 8e3d bf0d df3d 2404 5bbe
00000130: a47e 053e bcd8 d33d 9ade 82bd 2a99 8bbe
00000140: fc69 293e 37f9 6e3e e5e2 77be 6a74 83bd
00000150: 4509 913d c4d7 ed3b f002 26be 06af 91be
00000160: e232 d3bd f5ce 94be 6ccf 493e 4070 5a3e
00000170: ada1 d93d 4a25 883e d8a9 e5bd 083e 1c3e
00000180: bc34 8b3e 59b0 193e 8019 9bbb a6e1 f9bd
00000190: 8871 7c3e d09b 4b3e ac93 cc3d 21ab 953e
000001a0: 21e2 62be 4909 41be 09bf 343d 7e14 8f3e
000001b0: 8c07 5bbc 007e d63a 8867 753d 3030 363d
000001c0: 40c5 e6bc e050 f33d 5c63 ce3d 20ba 6fbc
000001d0: 08e6 8c3d 257e 30be b8fe f6bd ce39 05be
000001e0: a81a 873e 54c2 313e 53ea 31be a25c 2b3e
000001f0: 8477 f83d cf39 89be a66f 8fbe 6636 20be
00000200: 3069 ec3c 30b7 613d fd4e 93be 835e 2ebe
00000210: 52ce 983e a84d 13bd 444d 7c3e f802 723d
00000220: a453 6c3e 8003 59be 5a91 93bd e870 833e
00000230: c20e 1dbe e834 893d d088 bc3c dc8b 293e
00000240: 90c8 39be a052 5c3c 289b 09bd a4b6 4ebe
00000250: 6591 19be 7043 ce3c 980a 57be 803f 143c
00000260: 4830 923d 7076 df3d c0e5 373e 30e6 de3d
00000270: 7ccf 1bbe 3f35 57be 10f3 1bbe d4a8 d13d
00000280: 3a38 213e ce09 393e eecf 48be b021 95be
00000290: d841 203d 1ec7 8c3e 9874 36bd a444 8bbe
000002a0: 171b 2bbe 8f9e a43d 402d 76bc f0aa e83d
000002b0: 1da9 053e 0659 22be 9ae5 cb3d d897 0f3d
000002c0: 560a c3bd 16ed c9bd ec40 abbd a6f0 82be
000002d0: fe61 87bd 3704 82be 9297 2f3e 80a4 ee3c
000002e0: 50da 213e 139c 2dbe 4154 52be 5068 923e
000002f0: 2209 bbbd 12f9 a2bd 4200 963e 24d4 74be
00000300: d038 843e a0c5 10bc aef2 833d 6063 7d3d
00000310: 9f50 33be 808f 4dbc 94ab 3fbe 386a 5fbd
00000320: 6888 30be 4e2e 8cbe 4c68 5f3e 0001 beba
00000330: e9c6 08be df13 853e dda5 5abe 86b4 013e
00000340: a648 41be 4849 3c3e 94c8 97be 0069 db3d
00000350: 80a9 3a3c 71b5 5ebd d884 80bd 7130 2dbe
00000360: 876c 86be f183 8f3e a2a9 343e ebfa 11be
00000370: c4d3 8cbd b0db 8a3c 20a2 283d 7a70 863e
00000380: 520e 693c 60ff 7c3c f2c7 453e 8836 213e
00000390: b118 663e ddc5 91bd 88b9 913d b6b7 83bd
000003a0: 4233 1f3e d8f1 5bbd c47a f83d fb4b 503d
000003b0: aca2 dc3d 8074 33bb 06af 07be c0cf 833e
000003c0: 5e80 8cbd e424 4b3e 16f8 65be 84fe 8a3e
000003d0: 1ef5 373e acfd 5b3e a840 1d3e 981e 83be
000003e0: 40da d23d caca 7cbd cbba ad3d c514 873e
000003f0: 82f1 2b3e 401f d13d 4c6e a4bd ec70 183e
0.08087343 0.21550632 0.11932862 0.26518774 0.2838027 0.23115712 0.017129958 0.20971088
0.19805871 -0.26163274 -0.1525226 -0.20460925 -0.08152592 -0.0515607 -0.08867569 -0.15741444
0.15972424 0.29794073 -0.1268765 -0.14568916 -0.07587737 0.17153978 0.16289589 -0.09504108
-0.13115771 0.25870055 -0.21150263 0.20674276 0.034281433 -0.09042503 0.227276 0.0877726
0.1328224 -0.20865355 0.2587241 -0.25930965 0.28815246 0.21912953 -0.040004134 -0.04766074
-0.11012097 0.17653154 -0.05335795 0.21203297 0.07387161 -0.27005857 0.14440438 -0.045158
-0.22104044 -0.079502 0.072586685 0.27333093 -0.11919592 0.08821713 -0.04766196 -0.07222216
-0.14748278 -0.04312426 -0.13520427 0.1951445 0.25116462 0.19022664 -0.1956003 -0.27996147
-0.035934042 -0.14292094 -0.19604546 0.031820863 -0.027474582 0.23071468 0.14443116 -0.012423426
-0.27715552 0.06936642 0.10891294 -0.21388298 0.13036591 0.10344073 -0.06390114 -0.27265292
0.16544336 0.23337255 -0.24207647 -0.064186886 0.07081846 0.0072583873 -0.16212058 -0.28453845
-0.103124395 -0.29064146 0.19708031 0.21331882 0.1062654 0.2659095 -0.11214036 0.15258038
0.2718867 0.15008678 -0.0047332644 -0.12201242 0.24652684 0.19883657 0.09989104 0.29232123
-0.22156574 -0.18851198 0.044127498 0.27945322 -0.0133684985 0.0016364455 0.05991319 0.04447955
-0.028170228 0.1188066 0.10077545 -0.014631778 0.068798125 -0.1723562 -0.120603025 -0.13010332
0.26387525 0.17359287 -0.17374544 0.16734555 0.12132171 -0.26801917 -0.28014868 -0.15645751
0.028858751 0.05510634 -0.287712 -0.17028241 0.2984491 -0.03596273 0.2463885 0.059084862
0.23078781 -0.21192741 -0.07205458 0.25672078 -0.15337661 0.06699544 0.023014456 0.16557258
-0.18142915 0.013447434 -0.033595234 -0.2018686 -0.1499687 0.025178641 -0.21000135 0.009048343
0.07138115 0.10911262 0.17958736 0.108837485 -0.15215868 -0.21016406 -0.1522944 0.102372795
0.15744105 0.18070146 -0.19610569 -0.29127264 0.039125293 0.27495664 -0.044544786 -0.27200806
-0.16709553 0.08038055 -0.015025437 0.11360729 0.13052793 -0.15854272 0.099559024 0.03505692
-0.09523456 -0.09859674 -0.08361992 -0.25574225 -0.066104874 -0.2539384 0.17147663 0.029131174
0.15805936 -0.16954069 -0.20539953 0.2859521 -0.09132601 -0.07957663 0.29297072 -0.2390905
0.25824594 -0.00883618 0.06442772 0.06186235 -0.17511223 -0.01254642 -0.18717796 -0.054544657
-0.17239535 -0.27379078 0.2181713 -0.0014496148 -0.13357128 0.25991723 -0.21352334 0.1266652
-0.1887537 0.1838733 -0.29645216 0.107133865 0.011392951 -0.054372255 -0.06275338 -0.1691301
-0.26254675 0.2803035 0.17642835 -0.14255874 -0.068763286 0.016950458 0.04117024 0.26257688
0.014224606 0.0154417455 0.19314554 0.15743458 0.22470357 -0.071178176 0.071154654 -0.064315245
0.15546897 -0.053697437 0.12132791 0.05085371 0.10773215 -0.0027382672 -0.1325036 0.25744438
-0.068604216 0.19838291 -0.22457919 0.27147305 0.17964599 0.21483487 0.15356696 -0.2560928
0.10295534 -0.061716832 0.084828936 0.26383033 0.16791347 0.102110386 -0.0802885 0.14886826

linear1.bias f4 [256]
00000000: 7833 11be d8b7 093e 9d32 2f3e 0ef7 063d
00000010: 6786 cb3c a4fd a43c 1722 b23d d280 b6bd
00000020: c822 ae3c f59e 853e 1c9f cbbd f06d 28bd
00000030: 402b d53d bdc5 29be a412 0d3e ecf1 013d
00000040: 40d4 803b 207d 5a3e 04dc ccbd 181a 543e
00000050: dbbd 1b3e 4d7d c83d 9318 143d d382 943e
00000060: b674 26be 9a8e 853b 27dd ddbd 0b8b 653e
00000070: 840b 153e 0b0f 82bd 3108 95be 5a47 8b3e
00000080: 90b1 183e b1fa 46be 26f8 75be a0be 44bd
00000090: 6dd5 9bbd c2a3 b13d e2f4 ed3d e929 cb3c
000000a0: 3ed3 a9bd 930c afbd aac4 e2bd 51a9 2c3c
000000b0: 7b3b 61bd c01d 773e 4a59 a03c e36d f4bd
000000c0: 6e7a 82be 08e7 b63b 8cbe 363e 500b 87bc
000000d0: c83f 133e 08f7 2e3e 22eb 873d 6c87 b13d
000000e0: 4fbe 9d3e 0519 2e3e ef15 76be c904 a7bc
000000f0: 0b4d 033e 0087 04bc 93d4 95be ddc6 8ebe
00000100: 700d 863d 0322 1ebd 517b 793e bcee a73d
00000110: e56a 403e c6f1 093d e304 823d 9bd7 57be
00000120: 0ac1 8d3e 50c9 c03c ba54 483e dfb6 d83d
00000130: a039 99bd d6c6 3cbd 74b6 35be 188f 60be
00000140: 1bac 8d3e 19ce 1e3e d6c1 85bd fee4 84bd
00000150: 740e 3bbe c801 57be cb36 e53d 9433 4a3e
00000160: 728d ad3d 047d bfbd a0d6 94be 708e 58be
00000170: 8563 543e 8e2b 213e 5f61 d03c 5b5c 44be
00000180: ed6a 23be 2a37 57bd 5258 223e 12fe afbd
00000190: 14a9 033e 3023 15bd 464c cbbd 3fff bd3d
000001a0: e491 4a3e 3598 23be b07f 2d3c 9ecf f0bd
000001b0: 12b7 92be 92e5 743e eccb c1bd bcff 98be
000001c0: 2c8a 213e 8839 abbd e6e0 b93d e831 973e
000001d0: 09cf 8fbe 2d1e 753e 432c 8a3e 25e0 96be
000001e0: e3bb 25be 4bb4 793e 05e2 1cbe 60f1 dc3d
000001f0: ce3b cebd 7245 e7bc 2e78 b1bd 8964 60bc
00000200: 252e 4abe 30b2 80be 983b 813e 958a 543e
00000210: 4274 c03d 7419 653e 176e b2bd 668d d5bd
00000220: 3bbd 1a3d 0e28 e8bd 407b 593e fb2e 853e
00000230: c719 01be e425 343d 2b4a 323e 7bf8 063e
00000240: c5f2 6d3d f54a d2bd 4f0c b63d 54ce 51be
00000250: 5c4a ce3d 38b1 a0bc 820d 5cbe 77cb 833d
00000260: 5f8d 0fbc a9ab 203e 0080 eabb aebb 51be
00000270: 0d90 983d aa6c fabd a88c 30bd 3e1b 473e
00000280: 24df 8bbe a2a8 833e fda1 88bc f077 86be
00000290: 85f5 32be 8161 c63d dc18 dabb 8902 0f3c
000002a0: 5cbe 3cbe b517 123e d0c9 6b3e 673d acbc
000002b0: b410 a33d a2c7 3cbe 9242 403e 68bf 38be
000002c0: 089f 29bd 6e1e 613e 2e5e 8cbe b62a 843e
000002d0: ea01 8cbe 0429 0ebd 4f28 62bd b718 93be
000002e0: ea96 92be c5ba 453d 7805 2fbd 00aa ffba
000002f0: 9f85 20be 61c7 1cbe e875 7f3e 74ae 2e3e
00000300: 1264 7cbe 297c 31be 517e 5abd 7865 673e
00000310: 3355 813e 6770 85bc c1fd 45bd ea3b f5bb
00000320: 1d9e ea3d b783 79be 68ca dcbd 30b3 2ebd
00000330: e424 93bd adc0 e03c 21c0 523e 6578 c2bd
00000340: dd60 68bd 60fb 52bd fa09 87bd 205a 593e
00000350: e6cc 973e 8085 7abe b182 0d3d 1b4d 543c
00000360: 9626 273e 2cec 9c3e e0c0 96be 2006 2fbe
00000370: f398 0abe cad2 96be 5393 0abe 67ba 8ebe
00000380: fbd2 f7bd a509 37be b436 593e 1177 c4bd
00000390: ff17 503e b012 4dbe dc25 59be 6891 f93d
000003a0: 81a9 12be 1576 0bbe 3955 5cbd 763e 2bbd
000003b0: 45be 92be c88a 84be 8a7b b53d e5fe 69be
000003c0: 8c72 583d 0084 73bd 5ec1 663e 86e4 cfbd
000003d0: 893d 69be ac35 99bd 561f 40be d657 51be
000003e0: f128 44be dbf1 90be 8a54 9b3e 2bb9 b4bd
000003f0: 0e4f 433e 764c 123d ef93 be3d 671c 95be
-0.1417979 0.13449037 0.17109151 0.032950453 0.024844361 0.020140477 0.08697908 -0.08911289
0.02125682 0.26097837 -0.09942457 -0.04112047 0.1040864 -0.16579337 0.13776642 0.031724855
0.003931552 0.21336794 -0.10002902 0.20713079 0.15209143 0.09789524 0.03615625 0.2900606
-0.16255459 0.0040758373 -0.10833197 0.22416322 0.14555174 -0.063505255 -0.29107812 0.27202874
0.14911485 -0.19431569 -0.24020442 -0.048033357 -0.07609067 0.086738124 0.11618973 0.024800258
-0.082922444 -0.0854732 -0.11072667 0.010538415 -0.054988366 0.24132442 0.019573826 -0.11935022
-0.2548403 0.0055817403 0.17846125 -0.016484886 0.143798 0.17086422 0.06636645 0.08668408
0.30809256 0.17001732 -0.24031805 -0.020388024 0.12822358 -0.008088827 -0.29263744 -0.27886096
0.06545532 -0.038606655 0.24363448 0.08199832 0.18790777 0.03367784 0.06348588 -0.2107834
0.2768634 0.023533493 0.1956357 0.10581755 -0.07481694 -0.046088062 -0.17745382 -0.21929586
0.2767037 0.15508308 -0.06531112 -0.06488989 -0.18267232 -0.20996773 0.111920916 0.19746238
0.08474244 -0.09350017 -0.29069996 -0.21148086 0.20741089 0.15739271 0.025437055 -0.19175856
-0.15958758 -0.052542843 0.15854004 -0.08593382 0.12857467 -0.03641051 -0.099266574 0.092772
0.19782215 -0.15976031 0.010589525 -0.1175835 -0.28655297 0.23915699 -0.09462723 -0.2988261
0.15775365 -0.083605826 0.09076099 0.29530263 -0.28087643 0.23937292 0.26986894 -0.29467884
-0.16184954 0.24385183 -0.15320595 0.10788226 -0.100700006 -0.028231356 -0.086655006 -0.013695844
-0.19744165 -0.25135946 0.2524078 0.2075599 0.093971744 0.22372991 -0.08712404 -0.1042736
0.03777812 -0.11335765 0.21238422 0.26012406 -0.1260749 0.043981448 0.17411105 0.13180725
0.05809285 -0.10268203 0.088890664 -0.20488864 0.10072777 -0.019615754 -0.21489528 0.06435292
-0.008761733 0.15690483 -0.007156372 -0.2048175 0.074493505 -0.12227757 -0.04310289 0.19443986
-0.2731868 0.25714594 -0.016678805 -0.2626338 -0.17476471 0.09686566 -0.0066557955 0.008728632
-0.18431991 0.14266856 0.23026204 -0.021025373 0.0796217 -0.18435529 0.18775395 -0.18041766
-0.04141143 0.21984264 -0.27415603 0.25813836 -0.2734521 -0.034707084 -0.055214223 -0.28729793
-0.28630763 0.04827382 -0.042729825 -0.001950562 -0.15675972 -0.15310432 0.24947321 0.17058736
-0.24647549 -0.1733252 -0.05334312 0.22597301 0.25260314 -0.01628895 -0.0483377 -0.007483949
0.11455939 -0.24366651 -0.107807934 -0.042651355 -0.07184771 0.027435625 0.20581104 -0.0949562
-0.056733 -0.05150926 -0.065937 0.21225786 0.29648513 -0.24464989 0.034548465 0.0129578365
0.16323313 0.30648935 -0.29444027 -0.1709218 -0.13534908 -0.29457694 -0.13532762 -0.2787659
-0.12100788 -0.17874773 0.21212274 -0.095930226 0.20321654 -0.2002666 -0.21205848 0.12185937
-0.14322473 -0.13619263 -0.053792212 -0.041807614 -0.2866079 -0.25887132 0.08861454 -0.22851141
0.052843615 -0.059452057 0.22534701 -0.10151009 -0.2277738 -0.0748094 -0.18761954 -0.20443663
-0.19156243 -0.2830952 0.30337936 -0.088243805 0.19073126 0.03571745 0.0930556 -0.29123232

linear2.weight f4 [4, 256]
00000000: 0991 9dbc 70c7 dd3b 6c44 43bc 9466 813c
00000010: 9c3d 933c 44b0 973c c424 04bd 874e 073d
00000020: 68e7 5abd 6cb3 ab3c 90c5 e33c 508e 3abd
00000030: 00b3 9dbd f686 51bd cacb 31bd 2844 edbc
00000040: cc7c 7a3d 149d 75bd 0d97 3a3d 3cb1 91bb
00000050: 8943 3c3d 7644 25bd b90d ec3c a9a1 ccbc
00000060: 4a8d 1e3d 4a8d 943c bf5e a3bc 3dff 7fbd
00000070: 1142 7a3c c645 82bd d0f1 e33b de66 3bbd
00000080: da1e 193d 8201 93bd 2cfa 89bc f5e0 f9bc
00000090: 6eb6 0ebd b495 88bd 2f95 2bbc 229b 2fbd
000000a0: 408f 95bb 3330 19bd 5a9c 41bc 2b8d ce3c
000000b0: d37f 4ebd eedb 103c f9d4 4a3b 6831 a33c
000000c0: dc12 bfbc 3595 44bd e2ee 743c a6cc 44bd
000000d0: e528 c9bc 1401 02bc a6df 87bd 1c89 1fbd
000000e0: 60bd d2bc fc59 2c3c 0365 13bd 35e3 e03c
000000f0: 713e 94bd f4f0 8ebc 3aeb 19bd c0df ffbb
00000100: 4e3d 74bd b689 673d 5117 90bc d6f7 6a3d
00000110: 0374 0c3d 988e 1dbd 5bbf 773c 078c 6fbc
00000120: 6339 96bd 0e51 6ebd 9001 9d3b c425 87bd
00000130: dc47 cdbc 08e9 43bd bcfa a4bc aa2f 3d3d
00000140: a221 0f3d ef97 483d 0061 21bd 50f9 513c
00000150: 3afe 3abb f090 e53c ac1f 343d 6500 cfbb
00000160: b85f 5139 0881 b7bc 2020 9abb cc1a 343d
00000170: ef1d 393c f2c3 85bd dfee 99ba a172 26bd
00000180: e00f 163c 200e d6bc 20d0 413c 1c45 27bd
00000190: dcf6 7cbd a8c3 44bc 96b6 d43c 176a a73c
000001a0: 1e58 67bd cc6c e2bc d055 85bd 5e0a 72bd
000001b0: 34e5 7fbd 301d 423d 00e6 1d39 8223 7c3d
000001c0: 7083 60bd 10e8 61bd e3ef 9ebd a76f 87bd
000001d0: b2e3 613d 9dbf f73c 0bbe 83ba b115 cebb
000001e0: 6645 6c3d 7ba9 2fbd c6c6 fabb 547a 55bd
000001f0: b8b0 353d 12a9 8fbd c87a edbc cad0 98bd
00000200: 5cde a13c deff 32bd 6399 063c fc87 1abd
00000210: 9451 84bc 1a49 60bd 3016 2bbd 5314 183d
00000220: 4e00 853c ff82 e6bc bd71 e53c 15ce 50bc
00000230: 1ad7 0cbd 2b76 0bbd 1223 93bd f61f 80bd
00000240: 2466 91bd 34d8 8bbd 887a cb3c 6a87 6dbd
00000250: f414 59bd e354 1bbd 3c40 163d 63f1 973c
00000260: 099a 20bd ba99 81bd 0040 ed3b 8caa 83bc
00000270: 9341 c43c c038 8ebc fa7f 3cbd e4f1 193d
00000280: fbeb 3e3b b02b 063c 3677 a03c ec1c 9fbc
00000290: 0ed5 15bd 60eb 3d3c ed00 27bd 3909 333c
000002a0: 54b6 d3bc 391b 6ebd 99b3 98bc 00e2 1e3d
000002b0: 656a 6ebd 0672 82bd edb5 9ebd dd6b 92bd
000002c0: fcfe 7dbd eaef 65bd 00aa e939 7826 30bd
000002d0: 5c19 953c dedc 8fbd 7ffe f73c 64e8 b4bc
000002e0: 5ca6 2dbd 867b 71bc c3bc 53bd 9cbf 1e3d
000002f0: b378 653c 1cae 4bbd cc1b f03c 6657 0f3d
00000300: 1c89 56bd 1044 7e3d da03 0b3d 1b49 c13c
00000310: b84a 453b 8ba6 393c b083 44bd f833 41bc
00000320: cd65 47bd b437 6fbd 30a1 3dbd 6616 49bd
00000330: 6893 4b3d 19bd 8fbd 19fc 163c cf14 33bd
00000340: 6b2e 243d a0ad d13c 446b a43c 8286 323c
00000350: 6fa7 6ebd 5ce3 70bd f1a9 08bd 9e58 21bd
00000360: b1bf 80bd 47f8 96bd ff3c 263d 6b97 233c
00000370: a031 2ebc 10ff 16bd b30a d7bc a47f 2cbd
00000380: aa61 8dbb 30ee 2f3c 926c 77bd a1c1 ba3b
00000390: 35b2 82bc c749 233d 84b1 e53c f058 18bc
000003a0: c858 5a3d b020 adbb a67d 11bb 26de 183d
000003b0: 2424 e5bc 6e16 9bbc cfd5 f1bc fb08 23bd
000003c0: 491c 6abd 6c20 083d e1e2 263d 769f 6fbd
000003d0: c0ba d5bc 64ec 453d 4b74 f5bc 7d4d 7cbd
000003e0: 60a4 b33c 5012 be3b 77d8 63bd 722f f1bc
000003f0: a926 d1b9 30fc f03a 824b 7dbd 4071 113b
-0.019234197 0.0067681596 -0.0119181685 0.015795983 0.017973714 0.018516667 -0.032261625 0.033033874
-0.053443342 0.020959578 0.027804166 -0.045545876 -0.07700157 -0.0511541 -0.04340724 -0.028963163
0.06115417 -0.059964254 0.04555421 -0.004446177 0.045962844 -0.040348493 0.028815137 -0.02497943
0.038708963 0.018133778 -0.01994264 -0.062499274 0.0152745405 -0.063609645 0.0069563165 -0.0457524
0.037382938 -0.07178022 -0.016842924 -0.030502776 -0.034841947 -0.066691786 -0.01047258 -0.042872556
-0.004564196 -0.037399482 -0.011817062 0.025213799 -0.05041487 0.008841498 0.0030949696 0.01992102
-0.023324423 -0.047993857 0.014949532 -0.04804673 -0.024555633 -0.007934827 -0.066344544 -0.038949117
-0.025725067 0.010519501 -0.035985004 0.02745209 -0.07238472 -0.01744888 -0.037577845 -0.0078086555
-0.059628777 0.056527816 -0.017589243 0.05736526 0.034290325 -0.038466066 0.015121306 -0.014620787
-0.073351644 -0.05818277 0.004791446 -0.06599 -0.02505868 -0.047829658 -0.02013909 0.046188034
0.034944184 0.04897302 -0.039399147 0.012815788 -0.0028532878 0.028023213 0.043975517 -0.0063171857
0.00019967451 -0.022400394 -0.0047035366 0.043970868 0.011298641 -0.06531514 -0.0011744163 -0.040636662
0.009159058 -0.026129782 0.011829406 -0.040837392 -0.06175886 -0.012009539 0.02596597 0.02043633
-0.05648052 -0.027639769 -0.06510508 -0.05909192 -0.062474445 0.047391117 0.00015058368 0.0615573
-0.05481285 -0.055152953 -0.077605985 -0.06613093 0.055148788 0.030242736 -0.0010051144 -0.006289207
0.05768337 -0.04288624 -0.00765309 -0.052118614 0.044357985 -0.070146695 -0.02898921 -0.07461698
0.01975935 -0.043701045 0.008215281 -0.03772734 -0.01615218 -0.054757215 -0.041769207 0.037128758
0.016235497 -0.028138636 0.028008336 -0.012744446 -0.034384824 -0.03404824 -0.071844235 -0.06256096
-0.0709956 -0.06828347 0.0248387 -0.05799047 -0.052998498 -0.03792275 0.036682352 0.01854772
-0.0392094 -0.06328149 0.0072402954 -0.016072534 0.02395705 -0.017361045 -0.046020485 0.0375842
0.0029132355 0.008189127 0.019588094 -0.01942297 -0.036580138 0.011591762 -0.040772367 0.010927492
-0.025843777 -0.05813143 -0.018640326 0.03878975 -0.058206934 -0.063694045 -0.07749543 -0.071494795
-0.06201075 -0.056137003 0.00044567883 -0.043005437 0.018200569 -0.07024549 0.03027272 -0.022083469
-0.04239498 -0.014738923 -0.05169369 0.03875695 0.014005828 -0.04972659 0.02931013 0.03499546
-0.05237685 0.06207663 0.03393922 0.02359443 0.003010435 0.011331211 -0.04797715 -0.0117921755
-0.04868107 -0.058402732 -0.0462963 -0.049093626 0.049701124 -0.070184894 0.009215378 -0.043721016
0.04008333 0.025595486 0.02007068 0.010896327 -0.058265146 -0.058810577 -0.033365194 -0.039391153
-0.06286562 -0.07371574 0.040585514 0.009984831 -0.010631949 -0.03686434 -0.026250219 -0.042113915
-0.004314621 0.010737941 -0.060406275 0.005699352 -0.015954116 0.03986528 0.028038748 -0.009298548
0.053307325 -0.0052834377 -0.0022200136 0.037321232 -0.027971335 -0.018931594 -0.029520897 -0.039803486
-0.05715588 0.033234045 0.040743712 -0.058501683 -0.026090026 0.048321143 -0.02996268 -0.061597336
0.021928966 0.005800523 -0.05562636 -0.029441569 -0.0003989239 0.0018385705 -0.061839588 0.0022192746

linear2.bias f4 [4]
00000000: 55e3 9bbd d7e8 dc3c b02f 013b d935 833c
-0.076117195 0.026966495 0.0019712262 0.016016888
