models/circle/policy.pth (torch, 41537 bytes, 11 tensors)

mlp_extractor.policy_net.0.weight f4 [64, 4]
00000000: 0375 ba3f 6323 173e 0e30 d13e 023f 76be
00000010: 4969 7dbe df57 babf c1a9 c0bc fa16 77bf
00000020: 9045 3a3f 3b45 3abf 9c73 ee3e c3e3 133f
00000030: c08a 36bf 4a06 5c3e 9188 ba3e f8ca 3dbe
00000040: 1171 9a3f 5ef8 f0bd b8d6 6e3e 73a5 513f
00000050: 0216 5abe 5d7c 993f 448d 0fbf f33f 043e
00000060: fa68 8bbc 60a7 b33e c5c8 d2bf a5e4 873f
00000070: a205 70be 1c5c 73bf 71f3 c63e 3587 4cbf
00000080: 2b4b 94be bd99 a23f 541f 193f 035e 16bd
00000090: e736 603e 3b9e 61bf 402b 903f b425 45bc
000000a0: d45e 453f eb75 84bf 904a 82be fa36 0abf
000000b0: c207 48bd e9da b43f 3ac1 743e b612 63bd
000000c0: 31de 843f 8456 27bf cfd4 2f3f ac26 b8be
000000d0: 24ae da3e b2cf 343f 41e1 4bbf 78fe a0bd
000000e0: f8a4 08bf e184 0dbf a812 05bf c0c3 05c0
000000f0: a45e 453f da1d 9b3f 7ca2 963f b79e 663e
00000100: a613 a8bf 7ab1 2b3e f8e6 cbbe 076c a73e
00000110: 4cee 60be 9d14 33bf c770 abbf d893 bbbf
00000120: a299 b7bf f25c bcbe bde9 9bbe 33e6 c6bc
00000130: 7257 363f 009f 993f b7e4 633f 466f a43e
00000140: e1ea 3cbd 6945 193f f9ef 1240 aab8 033e
00000150: 2cee 98bf 828e 03be 1c6d 4dbf e4ed 4cbf
00000160: bd5b 633f 420c d53e 834a eebe c64e 22bf
00000170: a81c 97bf 1b3c a5bf 7043 c2be 5a8b 3abf
00000180: 2cca 8abf a0d7 0a3f 87f0 a83e b687 163f
00000190: 2764 3e3f 0953 96bf f097 7f3d 2577 0bbf
000001a0: 85a2 2b3f 88b8 793f d661 153e 7d6d 4f3e
000001b0: 845b 30bf ff86 16be 2672 63bf b365 34bd
000001c0: d67a 083f 77fc ee3e 141e 48bf f4cb 88bf
000001d0: 7d9b 9abf 9ec1 583d 9ee9 cd3e 7137 eabb
000001e0: 4ab5 76bd a7d9 393f 6f29 6cbf 0088 dbbe
000001f0: 1c9b 503e 761d a83f 8335 b23e 8979 48be
00000200: b2d7 25bf c3f8 ec3e fbee 433f 185e babe
00000210: 2fa3 aabf f402 b8be c7b9 5fbf d87c a5be
00000220: 75e1 0dbf 6fa1 00bf faa4 1c3e b624 163f
00000230: 74d3 b9bf 06e7 b5be 1e2d 8f3e 4d4f ab3e
00000240: 75fd 843f 2fdb 743e 40e5 eebe 7364 7a3f
00000250: 4440 a5bf 166a 72bf fc36 c3be bbc7 c4be
00000260: b5d3 56bf 8eb3 9cbf 03be 8fbc 2e81 53bf
00000270: f406 a3bf 0c77 febe cdb5 99be 8315 933e
00000280: a8e6 533f 45df f2bd 5336 f03e cb26 3bbe
00000290: d03d 443f be5c 2fbf 54fc 133e b68b dabd
000002a0: 1fec 89bf fb49 5dbf c2f3 f3be 1703 7c3e
000002b0: 1f36 c23a 8aa2 953f 61ff 0fbf 585d 943e
000002c0: 9467 58bf 1f4a 5c3f 5f17 cfbe eaa7 9bbe
000002d0: 010c 163d b308 79bf 1a1c b33f e51e 16bf
000002e0: 758e 60bf 8710 e4be 4748 173f 9f52 af3e
000002f0: b255 b23e 54cd 8e3f 9ed3 66bf b43c 42be
00000300: 0f26 fb3d d0bf 033f 8c78 1740 99fe 5ebe
00000310: a08e ba3f c007 9cbe cfa6 a23c 052c 81be
00000320: 8e57 89bf 4c6e 873f 03d0 df3d e06e 23be
00000330: 7bfb 0f3d fbc4 aa3f 56fb 3e3f 795a 8abe
00000340: 13f4 5b3f 2df3 6abf f5f0 0abe 2bd8 223f
00000350: 7846 4c3d b899 78bf 8d7a e5be ebab 3b3f
00000360: 9ab4 e0be 1309 96bf aeaa 833f 291b 3dbe
00000370: 7023 bd3e aa82 943f ae76 0bbe 52f0 8d3c
00000380: 0a0d 953f 4932 0b3f 7065 ce3e a2b1 133f
00000390: deca 773f 04c2 dcbe c58a f93e 2da6 a83e
000003a0: 6942 9ebf 1667 743e 2a89 d1be b61b 673f
000003b0: 5dd0 893f cea4 d6be cddd 353f 8262 47bd
000003c0: dcef 9c3f d939 a5bc 259d d73e 0678 8fbe
000003d0: ed15 60bf a3ea 08bf e783 1bbf 50ad 5c3f
000003e0: 2cd9 8fbf a46f 213f 0aa3 3fbe cedf 9b3f
000003f0: 21fa b6be 98bc 833f ac5d aabd e7c1 58be
1.4566959 0.14759593 0.40856975 -0.24047473 -0.24747194 -1.4558066 -0.023518445 -0.96519434
0.72762394 -0.7276189 0.46572578 0.5776941 -0.71305466 0.21486774 0.36432317 -0.18534458
1.2065755 -0.11766122 0.23324096 0.8189308 -0.21297458 1.1991078 -0.5607493 0.1291502
-0.01701783 0.35088634 -1.646752 1.0616652 -0.23439649 -0.9506242 0.38857606 -0.7989381
-0.289636 1.2703167 0.5981343 -0.03671075 0.21895944 -0.88132066 1.1263199 -0.012032915
0.7709782 -1.0348486 -0.25447512 -0.5399014 -0.048835523 1.4129306 0.23901835 -0.055437766
1.0380307 -0.6536639 0.68684095 -0.35967004 0.42710984 0.7062942 -0.79640585 -0.07861036
-0.5337672 -0.5528088 -0.5198159 -2.0900726 0.77097535 1.2118485 1.1768336 0.22521482
-1.3130996 0.1676692 -0.39824653 0.32699606 -0.21965903 -0.6995333 -1.3393792 -1.4654493
-1.434376 -0.36789662 -0.30451766 -0.02427969 0.7122718 1.2001648 0.89020866 0.32116145
-0.046122435 0.59871536 2.2958968 0.12863412 -1.1947684 -0.12847331 -0.8024461 -0.8005049
0.88811857 0.41610914 -0.46541223 -0.6340145 -1.180562 -1.2908968 -0.37942076 -0.72868884
-1.0842948 0.5423527 0.32996008 0.5880083 0.7437157 -1.174409 0.06240076 -0.54478675
0.6704486 0.975472 0.14588103 0.2025661 -0.6888964 -0.14699934 -0.8884605 -0.0440423
0.5331243 0.4667699 -0.78170896 -1.0687242 -1.2078701 0.052919023 0.40217298 -0.0071477224
-0.060231484 0.72597736 -0.9225072 -0.42877197 0.2037167 1.3133991 0.3480645 -0.19577612
-0.6478225 0.4628354 0.7653653 -0.36399913 -1.333105 -0.35939753 -0.8739285 -0.3232181
-0.55422145 -0.5024633 0.15297309 0.58649766 -1.4517655 -0.3552782 0.2796411 0.3345894
1.0389849 0.23911737 -0.4665928 0.97809523 -1.2910237 -0.94693124 -0.38127887 -0.38433632
-0.8391679 -1.2242296 -0.01754666 -0.8261899 -1.2736497 -0.497002 -0.30021515 0.2872735
0.8277383 -0.118589915 0.46916446 -0.18276517 0.7665682 -0.6850089 0.14451724 -0.10671179
-1.0775183 -0.8644101 -0.4764691 0.24610554 0.0014817155 1.1690228 -0.5624905 0.28977466
-0.8453305 0.860506 -0.40447518 -0.30401546 0.03663254 -0.972789 1.3992951 -0.5864089
-0.8771737 -0.4454386 0.5909466 0.34242722 0.34831005 1.1156411 -0.9016665 -0.18968469
0.122631185 0.5146456 2.3667326 -0.21776809 1.4574776 -0.30474663 0.019854931 -0.25228897
-1.0729845 1.0580535 0.10928347 -0.15960264 0.03515194 1.3341364 0.7460226 -0.2702215
0.859193 -0.91777307 -0.1356848 0.63611096 0.04987189 -0.97109556 -0.4482006 0.733092
-0.43887788 -1.1721519 1.0286462 -0.18467392 0.369411 1.1602376 -0.13619491 0.017326508
1.1644604 0.54373604 0.40311766 0.5769292 0.96793926 -0.43116772 0.48738685 0.32939282
-1.2364017 0.23867449 -0.4092496 0.9027666 1.0766712 -0.4192261 0.71041566 -0.04867793
1.2260699 -0.020169185 0.4211208 -0.28021258 -0.87533456 -0.5348303 -0.6074814 0.86201954
-1.1238151 0.63060975 -0.18714538 1.2177675 -0.35737708 1.0291929 -0.08318648 -0.21167718

mlp_extractor.policy_net.0.bias f4 [64]
00000000: 9a64 4fbe af76 5fbe d5a2 223d eb22 6d3e
00000010: 2c53 7f3d 2ef3 4cbe ab6b 733d 9bec a63e
00000020: 7cf7 f93d b367 3abe 2a12 133e b24a 3bbe
00000030: 59eb 703e 8a71 893e 1827 b33d ad19 0cbe
00000040: 27fe 883e d686 b93e 137b 80be 55da 7ebe
00000050: b276 b2bc a3cd 783e e8bc 51be 5fc9 a2be
00000060: 5e79 6bbd 081b ee3c baf3 6bbe 5b23 edbe
00000070: fd18 97bd e6cd 0c3e 2e07 74be 5d55 883e
00000080: e4f7 c0bd 7332 a6bd 342d 7f3e 73ae 73bd
00000090: 551c 71be 1f10 82be 9c09 b93e af68 b23e
000000a0: 0668 9a3e c91f bc3e 427d 083e c6c3 af3e
000000b0: 34cd 2a3e a88f 8d3e 2c2d 8d3e fda8 66be
000000c0: 233b 88bd aad1 d9bd 081c b23d abc7 693b
000000d0: e4f5 36bd 3201 cbbd c70d c23d fc8d a9be
000000e0: 119e d63e fe99 9bbe 0fc8 3a3e c92f a73e
000000f0: 3032 613e 47c3 063e 7e70 9c3e 2521 6dbe
-0.2025322 -0.21822618 0.03970607 0.23157851 0.06233518 -0.2001464 0.059428852 0.3260239
0.12205407 -0.1820362 0.14362398 -0.18290213 0.23527278 0.26844436 0.08747691 -0.1368167
0.26756403 0.36235684 -0.25093898 -0.24887975 -0.021785114 0.24297194 -0.20482218 -0.3179426
-0.05748879 0.029065624 -0.23042193 -0.46316037 -0.07377813 0.13750419 -0.23830864 0.26627627
-0.094222814 -0.08115091 0.24919587 -0.05949254 -0.23545964 -0.25402924 0.36140144 0.34845492
0.3015749 0.36743 0.13329032 0.3432905 0.16679841 0.27648664 0.27573526 -0.22525401
-0.066519044 -0.10635693 0.08696753 0.003567199 -0.044668093 -0.09912337 0.09475284 -0.33116138
0.4191747 -0.30390924 0.18240379 0.32653645 0.21991801 0.1316043 0.30554575 -0.23157175

mlp_extractor.policy_net.2.weight f4 [64, 64]
00000000: 76ea 71be 54bb 393e 8b6b 70be 08e7 e2be
00000010: df30 59be 79c1 0ebc 237f 223f 5153 8cbc
00000020: 1dc4 10bf 9eed d7bd e618 ed3c b76d ecbe
00000030: 9c5e 09bf 2f1b 61bd f389 3e3f 8c05 80bf
00000040: 060c 983e c41a 843e 7b21 b33e f05f 25bf
00000050: 8d70 a3bf d3c5 9b3e 7f68 883e c69b 083f
00000060: d632 12bf 79fa b13d 85da bfbd 188f eb3e
00000070: 2567 673e 396f 073e 486e 603e 53d6 9fbe
00000080: 10c7 39bf 0c03 5c3f 9d53 8f3d 35f9 c1bd
00000090: 4226 073e 4260 223f 4713 c33d bf57 bc3e
000000a0: 8e56 ca3c b5e9 99bd 593b 083f 08c0 82be
000000b0: ab34 babd 29e4 993d ddfd 23be 79c8 a13e
000000c0: e11f cebf 8e65 8abe 088a 8cbe fa2c 4abf
000000d0: 3201 43be 53cf 7f3f 53d8 edbd e8c0 75be
000000e0: 2f5f d9be 56b3 3e3d ef8d 693d e823 ffbd
000000f0: e4b5 ccbd c073 2a3f 659f ffbd 8923 51be
00000100: 0a45 423f 18eb 65be 6a6c 3ebd e111 0fbf
00000110: a6c9 8e3e e8f1 033f 2f03 493e 0a89 76bf
00000120: 2e47 9a3e 1cd1 c9bd 1cc5 b9be fcf1 8e3f
00000130: 4037 b9bc 9b83 d0be c5aa 74bf 5403 fb3f
00000140: 0a8b 7abf c912 7dbf 078f aabe 8c02 f33f
00000150: b9f6 493f 5d0d 61bf 9cdc 853f 94c1 dcbe
00000160: 326f ba3d c9b1 8fbe 6403 f83f 38b5 7f3e
00000170: 9b05 483e f87c 0bbf 82ed ae3e e4ec 233f
00000180: fe8e 923e a16a 7dbe 7116 09bf aff0 03bf
00000190: e9c3 803f 9a7f 97be cda4 a0bf fe20 ddbf
000001a0: 2cb0 2fbd 4558 24bf bff0 bfbf d52a bbbd
000001b0: f5a7 51bd 147b 13bf 17a0 6cbf 4f6e 543f
000001c0: 50fb 3c3f ccd7 2a3f acf7 40bc 3114 543f
000001d0: 71e5 5b3e 9c80 c3be bff9 41bf 0f52 953f
000001e0: 5e3a 29be c2ca fc3e 8d4c e2be 76f4 3ebd
000001f0: cc0f b53e 5a64 85bf 87db d5be a04a 613f
00000200: f5e8 61bf abc0 47bf eb0a 5abf 1cd6 3c3f
00000210: afb5 59bf 892b 3b3e c75f 953e dec3 403e
00000220: f3c5 883f d74e 36bf c32d 52bf 8064 2f3f
00000230: 54b9 01bf 7a51 1f3f 186f 0dbe 8ed1 06bd
00000240: e40a 0340 eea5 d93e 161f a53e e934 0ebe
00000250: 4dbb b23e fdb3 7c3f 04c9 2cbf d564 10be
00000260: 76c6 8f3f eb7e 86bf d165 9bbe b79c 10bf
00000270: c7da 24be 68af a93f b919 45be f478 803f
00000280: df00 d93e 9c85 113f 0105 333f 7810 1c3f
00000290: 7dfc 2cbf 5cab 8dbe c5dc b53e e5b8 833f
000002a0: 913b ac3e 05b5 f5be b39a 993e 1db7 383f
000002b0: 47d3 aa3f 6f2b 52bd 4800 383f ec35 db3c
000002c0: 94b9 2b3e ec32 ccbf 17c0 cb3f e00a b63e
000002d0: f436 a2bf 0c1c 15bf 4a27 b73e e8f0 6cbe
000002e0: 38ae b63e 2ed7 91bf 71f4 c83f a872 dcbe
000002f0: 51f8 23be 5928 203f 9438 d93f f736 7f3e
00000300: 7c08 543f b30a 5c3e f751 a9be ea3f 243c
00000310: 845c 27bd 7d61 1a3b 2088 2dbf c99f 15bc
00000320: bc96 39bc 3c37 863e 4bea 253e 1724 9a3d
00000330: 94fc 973c cd66 89be 2499 08be 4bc6 493f
00000340: b3c8 75bf c9b5 00bf 6135 e13d a994 c93e
00000350: 22bb d73e aba0 01bf c2d9 393f 5880 6a3e
00000360: e308 20be f770 303e 5cf2 373e 3a01 b23e
00000370: 53f3 7c3d a6da dbbe fbe0 2e3e 59f8 33be
00000380: 91b1 073f fb95 cebd 1eda 72bf ac5b fabe
00000390: aab8 343e 75ff a2bc d86a ebbd 247b 65bf
000003a0: 9f28 a93d 6d1c 4fbd 03ef e2be 50d1 d6be
000003b0: bb49 dbbe a8b6 6e3d a602 21bf d8a9 773e
000003c0: 1b23 da3e 3aec c23e 1871 f0bc 255e b23d
000003d0: 3627 abbc 34c7 7cbd 9911 133f 22c8 163e
000003e0: a37c 9dbd 584c fa3e 05d2 4bbf 3ae8 b7be
000003f0: 59ba e73d ed0e 78bf ad02 3dbf 00aa c0bd
-0.23624596 0.18137866 -0.23478524 -0.44316888 -0.21210049 -0.00871312 0.63475245 -0.017129572
-0.56549245 -0.10543369 0.028942537 -0.46177456 -0.5365999 -0.054957565 0.74429244 -1.0001693
0.29696673 0.2580167 0.3498648 -0.64599514 -1.2768723 0.30424365 0.26642224 0.5336269
-0.5710882 0.08690352 -0.09367851 0.4600761 0.2259794 0.13226022 0.21917069 -0.31218204
-0.7256937 0.8594215 0.0699837 -0.094713606 0.13198188 0.6342813 0.09525161 0.36785695
0.024699476 -0.07515279 0.5321556 -0.25537133 -0.09092077 0.07514221 -0.1601481 0.3159826
-1.6103479 -0.27030605 -0.2744906 -0.7897488 -0.19043425 0.99925727 -0.11613526 -0.23999369
-0.42455432 0.046557747 0.057020124 -0.124580204 -0.099956304 0.6658287 -0.12481574 -0.20423712
0.75886595 -0.22452962 -0.04649011 -0.55886656 0.2788822 0.51540995 0.1963012 -0.96302855
0.3013243 -0.098543376 -0.36283195 1.1167598 -0.022609353 -0.40725407 -0.95573074 1.9610391
-0.97868407 -0.9885679 -0.33312246 1.8985152 0.78892094 -0.87911016 1.045795 -0.43116438
0.0910324 -0.28065327 1.9376035 0.24971473 0.19533388 -0.5448756 0.3416558 0.6403334
0.2862472 -0.24747707 -0.5354987 -0.5153913 1.0059787 -0.2958954 -1.2550293 -1.7275693
-0.04289262 -0.6419719 -1.4995345 -0.09139029 -0.051185567 -0.5760968 -0.9243178 0.8298082
0.7382097 0.6673553 -0.0117778 0.8284331 0.21474244 -0.3818406 -0.7577171 1.1665667
-0.16526172 0.49373442 -0.4419903 -0.046619855 0.35363615 -1.042125 -0.4176905 0.88004494
-0.8824609 -0.78028363 -0.8517291 0.73764205 -0.8504285 0.18278326 0.29174635 0.18824717
1.0685409 -0.7121405 -0.82101077 0.68512726 -0.50673413 0.622337 -0.1381191 -0.03291469
2.0475397 0.42509407 0.3225028 -0.13887371 0.34908524 0.9871214 -0.67494226 -0.14100964
1.123244 -1.0507482 -0.30351117 -0.5648913 -0.16099082 1.3256655 -0.19248094 1.0036912
0.42383477 0.56844497 0.6992951 0.6096263 -0.67572767 -0.276698 0.35519996 1.02908
0.33639196 -0.4798967 0.3000084 0.7215441 1.3345727 -0.051310953 0.7187543 0.02675911
0.16770011 -1.595304 1.5917996 0.35555172 -1.267302 -0.5824592 0.35772163 -0.23138773
0.35679793 -1.1393793 1.5699598 -0.43056226 -0.16012694 0.62561566 1.6970391 0.24923311
0.82825446 0.21488456 -0.33070347 0.010025004 -0.040859714 0.0023556643 -0.67785835 -0.009132334
-0.011327442 0.26214015 0.16202657 0.07526415 0.018553056 -0.26836243 -0.13339669 0.78818196
-0.9600937 -0.5027738 0.10996509 0.3937123 0.42134959 -0.50635785 0.725979 0.22900522
-0.1562839 0.17230593 0.17963547 0.3476656 0.06175549 -0.42940253 0.1707801 -0.17575206
0.5300532 -0.100872 -0.9486407 -0.48898065 0.17648569 -0.019897202 -0.11494988 -0.8964102
0.08259701 -0.05056422 -0.44322976 -0.41956568 -0.4282969 0.058279663 -0.62894666 0.24185884
0.42604908 0.38070852 -0.029350802 0.08709363 -0.02089272 -0.061713412 0.57448727 0.14724782
-0.07689788 0.4888637 -0.7961734 -0.35919362 0.1131484 -0.96897775 -0.7383221 -0.09407425

mlp_extractor.policy_net.2.bias f4 [64]
00000000: de40 13bc 76b8 cebe a49f d93e df60 a8be
00000010: be4a 23bc 9234 463d f032 253c 3ceb bebe
00000020: 218f 84bc 7a4d a2be ab56 bdbe c69f 7d3e
00000030: 0ea6 3a3d 58ba 98be 32b6 893d 3c04 89bd
00000040: 6224 173e 41c7 a9be 4b70 2c3e 44fd a9be
00000050: af01 883e 20aa 79be e78d dd3e a903 03bd
00000060: 05d8 00be 415a 833c 7df4 1ebe 6955 033e
00000070: f39b 0b3c a17f 4fbc 4855 86be 90b1 c0be
00000080: 5695 44be 75cb edbe 3458 143e 7aff 8d3e
00000090: c449 ba3e a117 a8bd c6b6 3c3e fde2 a4be
000000a0: 07c9 8bbe 1194 d83e d620 bdbd 6717 183e
000000b0: ce0b abbe 0db9 e33c c662 f7bd 6d67 dcbe
000000c0: 89c1 73be 4f85 573e c2cf d83e 8456 9b3d
000000d0: f9d3 a83c cc19 233e b7e9 f7bd 7318 b73d
000000e0: 48e9 de3e 8889 ecbe 1f47 bcbe 3af2 093e
000000f0: b0e5 8c3e c586 c93d d5f9 8abe 42e4 0c3e
-0.0089876335 -0.40375108 0.4250461 -0.32886407 -0.00996655 0.04838998 0.010082945 -0.37288845
-0.01618153 -0.31699735 -0.36980185 0.2476798 0.04556852 -0.2982967 0.06724204 -0.06690261
0.14759973 -0.3315983 0.16839711 -0.3320104 0.26563784 -0.24381304 0.43272325 -0.031985912
-0.12582405 0.016034247 -0.15522952 0.1282555 0.008521068 -0.012664706 -0.2623694 -0.3763547
-0.19197592 -0.46444288 0.14486772 0.27733976 0.36384404 -0.08207632 0.18429098 -0.32204428
-0.2730181 0.42300466 -0.092347786 0.14852677 -0.33407444 0.0277982 -0.120793864 -0.43047658
-0.23804297 0.21046947 0.42346007 0.07584861 0.020608889 0.1592781 -0.121051244 0.0894021
0.43537354 -0.46198678 -0.3677301 0.13471308 0.27518988 0.098401584 -0.27143732 0.13758948

mlp_extractor.value_net.0.weight f4 [64, 4]
00000000: 1f17 5dbf ff8b 353e 936c 1abe 7427 9a3e
00000010: f3e5 623f bbd4 b9be efef 233f d2a5 9cbe
00000020: 698f 8dbb c08a 27bd 8aef 113e e19d babd
00000030: 24d8 1e3f 8533 c13e 0143 183f 534f 273e
00000040: 82e7 98be 5e50 85be ee0f 29be f53b 483e
00000050: c2c6 1cbf 8653 913e fb9c 11be 5037 933d
00000060: 6511 713e a9ad 11bf d431 ba3c c3b3 d8bd
00000070: 8ad9 8940 3944 09be 61b6 2b3f ec07 cebf
00000080: 5c17 013e bda3 1e3e 1993 313d d5ac 3abe
00000090: 7c45 273f 7f28 dd3e 3415 3bbd bf05 1f3e
000000a0: 77f5 05c0 cc93 eabf 4731 65bf 65c9 3a3f
000000b0: 7363 993e b67f 0340 6956 06bf 814e 863e
000000c0: 2426 f33f 96cd 2140 bf85 b83b a7a7 653e
000000d0: 34af 54bf 8109 bdbf f73d 2640 d02f 25bd
000000e0: 8c22 4abf 2f11 fd3e aecb b23d 1cba 293e
000000f0: e5e5 56bf 7d1e b1be 3404 283f f49c 623e
00000100: 651c 2abf 4840 43bf 0c0b 86be c89d 143d
00000110: 9a1d 8cbf 5ebd a6be 4fd5 303e 1671 8bbf
00000120: 1ba2 5e3e 84e5 27c0 97db 1abe 334a 8e3d
00000130: 74e7 0840 d150 0a3f 8abb c4be c2b5 913f
00000140: 0b2c 943d 8760 d93d f27d 683d 5be4 8d3d
00000150: 84a5 a03e 5414 93bf 4d89 a03e 7221 e7bd
00000160: eb60 4040 75db 893e c100 103f 4222 023f
00000170: 16b5 91bf 6e40 c13d 92d1 9cbf 7934 95bf
00000180: ba82 a9be 5b63 aabd 058c 613f 8c0f b5be
00000190: 0bd0 e9bf f129 42be b025 03bf 1fc0 3f3d
000001a0: 7e1d 07bf 8433 b7be 6d8a 73be 5a45 e6be
000001b0: a7e5 333f 482b 3cbe a540 333d 4380 473e
000001c0: 133c 953e 87a0 803d 1754 013e cfb7 b83c
000001d0: 5d0e 603f c623 6f3e 1b97 8b3f 4d13 44c0
000001e0: 259b 1c40 f455 243f 1cb1 1fbe 3f1f e23f
000001f0: dcee b43f 48bf c53f 752d 1a40 cd0a 463f
00000200: 97ff aabe 0d18 283f 398a 7c3f fe9a 883e
00000210: c40e 58be c9b4 1fbe 8dcb 57bd 2ab7 ad3c
00000220: 544f 3d3f 1a0d 5bbf 03b4 82bc e1ea 71bd
00000230: 8db5 6cbf 7bf4 f63f 10fa aa3e 3ff1 0c40
00000240: 0dd2 8b3f a330 14bf 3e72 95be d1e8 ee3e
00000250: ef7c 33c0 656b d3bf 6419 913f d99c 22bd
00000260: e05a fdbf 0b32 a03d 3438 913e 390d 153f
00000270: 67a1 a13d 2c1a c43f c117 b33f b230 f73e
00000280: bd6d 79bf 6526 493f 95f2 5abd bf49 803e
00000290: 5253 1a3d 7c4e 14c0 3101 233d f84c 73be
000002a0: a565 01bf 6b8f 383f 4667 003f 53d0 bb3e
000002b0: 0cc4 bebe 09dd eebf 5e52 7e3c 7221 59be
000002c0: f0dc 1b3f cc36 843e 25cb 40be 1afc d83e
000002d0: 3216 83be 4c83 57be 4cae 263d cf09 03be
000002e0: 74b0 95bf ca26 6ebf 1e67 7e3f 8444 cb3d
000002f0: 8331 16bf 1ca4 bebe d109 0fbf c5cb 213e
00000300: ee63 38bf d060 85c0 5b4a ffbd 87c2 02bf
00000310: 6317 533f 657b dfbf 2ad9 1b40 b0a1 9ebf
00000320: 3759 78be dc71 0ebe d599 a3be b328 2ebd
00000330: 8d47 9c3f 1372 863d 0edd d33e 89fd a23f
00000340: 30fe 1cbf 9751 2cbf e693 80bf f385 593e
00000350: 768a 36bf 1903 993f 213d 6fbf 3e79 bebf
00000360: b6c6 9abe 3f82 0e40 0090 d4bf 24c1 52be
00000370: 7a86 de3f a2a4 bd3d ffb5 57bf 6664 a1bf
00000380: 1add 863f 1b95 273f d395 04bf d1c7 d0bc
00000390: a525 07be 9d5a 9b3f 6ad1 e43e c3cf bf3e
000003a0: 35af e63e 3940 033f cef7 9d3f bb8e 5d3f
000003b0: 3c38 963e 8edb 0d3e 8b5f 873e 632f 353e
000003c0: e224 d8bf 4b14 99be c0dd 133f d314 08bf
000003d0: 372d 643d cbb5 2240 ee4f a6bc 4dd2 903b
000003e0: 24c7 3ebe b6ab 6fbe 841b 1e3e 7159 a33d
000003f0: 76af debf f334 e53d bef2 8a3e dda9 503e
-0.86363405 0.17729186 -0.1508048 0.30108225 0.88632125 -0.36295113 0.64037985 -0.3059526
-0.0043200743 -0.040903807 0.14251533 -0.09112144 0.62048554 0.3773462 0.5947724 0.16338854
-0.29864126 -0.26037878 -0.16509983 0.19554122 -0.6124078 0.28384036 -0.1422004 0.071882844
0.23541792 -0.5690561 0.022728838 -0.10581162 4.307805 -0.13404931 0.67075163 -1.6096168
0.12606567 0.15492149 0.043353174 -0.18229993 0.653404 0.4319496 -0.045674518 0.15529536
-2.093107 -1.8326354 -0.89528316 0.72963554 0.29958686 2.0546699 -0.524756 0.2623177
1.8996015 2.528173 0.005631178 0.22427236 -0.8307984 -1.4768525 2.597532 -0.0403288
-0.78958964 0.49427173 0.08730255 0.16574901 -0.8394454 -0.34593573 0.65631413 0.22130185
-0.66449577 -0.7626996 -0.26180303 0.036283284 -1.0946534 -0.3256635 0.17268871 -1.0893886
0.21741526 -2.6233835 -0.1512283 0.06947746 2.1391268 0.54029566 -0.3842433 1.1383593
0.07234963 0.10614114 0.056760736 0.06928321 0.31376278 -1.1490579 0.31354752 -0.11285676
3.0059154 0.26925245 0.5625115 0.50833523 -1.1383388 0.09436117 -1.2251456 -1.1656638
-0.3310755 -0.08319732 0.8810428 -0.35363424 -1.8266615 -0.18961312 -0.5122938 0.04681408
-0.52779377 -0.3578149 -0.23783274 -0.44974786 0.70272297 -0.18375885 0.04376282 0.19482522
0.29147395 0.06280618 0.12629734 0.022548584 0.87521917 0.2335349 1.0905489 -3.063678
2.4469693 0.64193654 -0.15594906 1.7665786 1.4135394 1.5449 2.4090245 0.7736023
-0.33398125 0.656617 0.9864841 0.2668075 -0.21099383 -0.15596308 -0.052684356 0.021205503
0.7394917 -0.85566866 -0.015954977 -0.05906189 -0.92464525 1.929336 0.33393908 2.2022245
1.0923477 -0.57886714 -0.29188722 0.46662 -2.8045003 -1.6517149 1.1335874 -0.039700363
-1.9793358 0.07822045 0.28363192 0.582233 0.07892113 1.5320487 1.3991624 0.4827934
-0.9743307 0.7857421 -0.053454 0.25056264 0.037677117 -2.3172903 0.039796058 -0.2375983
-0.5054572 0.7209384 0.5015758 0.36682376 -0.37258947 -1.8661205 0.015522568 -0.21204165
0.60884 0.25823057 -0.18827493 0.42379838 -0.2560287 -0.2104618 0.040693566 -0.1279671
-1.1694474 -0.9302794 0.99376094 0.09925178 -0.586693 -0.3723458 -0.55874354 0.15800388
-0.7202748 -4.168068 -0.12465354 -0.51078075 0.8245756 -1.7459532 2.4351296 -1.2393093
-0.24252783 -0.13910621 -0.31953302 -0.042519283 1.2209336 0.06564727 0.4137959 1.2733623
-0.6132536 -0.67311996 -1.0045135 0.21242504 -0.71305025 1.195407 -0.9345265 -1.488075
-0.3022973 2.2266996 -1.6606445 -0.2058149 1.7384789 0.09259917 -0.8426208 -1.2608764
1.0536225 0.6546189 -0.51791114 -0.025485905 -0.13197954 1.2137028 0.4469102 0.37463197
0.45055547 0.5126987 1.2341249 0.86545914 0.29339778 0.13853285 0.2644008 0.17693858
-1.6886256 -0.29898295 0.5776024 -0.53156775 0.055707183 2.5423458 -0.020301785 0.004419601
-0.18630654 -0.23405346 0.15440184 0.07976044 -1.7397296 0.1119174 0.27138323 0.20377298

mlp_extractor.value_net.0.bias f4 [64]
00000000: 6675 38bf aaba 2c3f 74c8 bbbe e7a9 bebf
00000010: ab6f 23bf 58a5 b93e e246 e2be d51f d4be
00000020: c7b0 203f e667 103f 7372 36be 60ac 193f
00000030: 31e3 1ebf 10ac 23bf f0e8 bf3e 8340 ba3f
00000040: 3923 85be d8f1 5fbf d657 16bd 4752 dc3e
00000050: 2892 0d3f 0c2c 173f 136e 463e 77e4 88bf
00000060: 37fc a5bd a914 ce3e 7d88 adbf b90b 0ebf
00000070: 5055 023f 9b0d ff3e 12d2 4dbd de65 bf3d
00000080: 0a01 04be 7229 5cbf 6a8f 26be d8e0 173d
00000090: cb78 cabc 028c 7fbe 9429 25bf af71 0f3f
000000a0: 40d0 db39 b450 58bf bd14 21bf f0ca f7be
000000b0: 295f 963f 418b b4be 6efe 2cbf 9e1e 1abf
000000c0: 3250 143f 15ee 62bd cefd 44bf 093c 6a3f
000000d0: 2e84 4abf 02b5 06be 9509 3d3c 3f11 2c3e
000000e0: d196 153f 8c0b 0d3f d1ee 993f f5ee 1e3f
000000f0: d61e 2cbf c387 4e3f c649 17bf 7c52 a7be
-0.72054136 0.67472327 -0.3667637 -1.48956 -0.63842267 0.3625896 -0.44194704 -0.41430536
0.6276974 0.56408536 -0.17817096 0.6002865 -0.62065417 -0.6393442 0.37482405 1.4550937
-0.26003435 -0.874784 -0.03670486 0.43031523 0.5530114 0.59051585 0.19377927 -1.0694722
-0.08104747 0.40250137 -1.3557278 -0.5548664 0.50911427 0.49815068 -0.050249167 0.093456015
-0.12891021 -0.8600074 -0.16265646 0.037079662 -0.024715802 -0.24955752 -0.6451657 0.5603284
0.00041926093 -0.84498143 -0.6292227 -0.48397017 1.174779 -0.35262492 -0.6757573 -0.6020297
0.5793487 -0.055402834 -0.76949775 0.91497856 -0.7910794 -0.13154987 0.011537929 0.16803454
0.5843325 0.55095744 1.2026006 0.6208337 -0.6723455 0.80675906 -0.59096944 -0.32680118

mlp_extractor.value_net.2.weight f4 [64, 64]
00000000: dddf 503e d4de 883e 1672 c93e 5ecc f53e
00000010: 23d5 253f 6913 953e a98f 353d 4a56 503f
00000020: 83b4 2fbf 2bb7 0a3e 71b3 bdbc 24f8 f9be
00000030: 70dd 50be 58da f33e 53a1 9d3d 5f0d 01be
00000040: 114b 453e 0645 5bbc 2235 d83e bf93 a43e
00000050: 57c3 91bc d8df 063e 66fe 003f 6674 6cba
00000060: e492 bf3c 89a9 7a3d 8c1f 443f f8ed 49be
00000070: 3e0e aebe ebdd f23e 9ad6 fe3d 1b19 41bf
00000080: 6b35 19be 4d9e d13d 7c97 c0be ea88 313e
00000090: caa2 253f a4f6 8c3e 7fe6 edbe 4628 7dbf
000000a0: c4e9 21bf b318 b33e 7b8c bcbc 18ea 713f
000000b0: 0b20 02bf a17a cf3e 768b 893b 257c 7a3d
000000c0: 6f49 e23e 0a24 093e 835e 2a3d 1047 d03e
000000d0: 273e 213f 2ade 253e 45bd 34bf d7ee 0b3d
000000e0: 569d e83e f4e8 95bf 6a28 d83d bbf1 663e
000000f0: 3dd5 0c3f 9747 36bf 40a8 83be ae8c b2be
00000100: f709 0c3f a606 1ebf a815 513e 7c54 af3d
00000110: 445e da3e 3b48 ce3e cd92 8a3e 11d6 8dbe
00000120: a0cc 9fbe d5fb d3be 8831 af3e 1eed 04bf
00000130: cd41 cdbe f419 36bf d87f 073f 5449 b13e
00000140: eb7e 433e f5ea ca3e 153b bbbe 6d61 4fbe
00000150: 4910 1ebe 3e7b 7bbe 43ef 7bbe a76e e33e
00000160: 5b27 28bf 93d0 b03e 09a5 ba3e e971 1fbe
00000170: 3841 8fbe d17b 0b3f d25d e13c 31c2 00be
00000180: f9a5 e8be f83b 0cbe 30f4 87bd 397f e1be
00000190: c1b7 9ebb cd59 e13e b0fa b6be c313 fe3e
000001a0: 804b 293e c28a 1e3f 168b 4dbd e150 ac3e
000001b0: eb01 47be dd43 653e 6529 853e 0207 1abf
000001c0: aaf7 07bf 9673 07bf 7f75 dd3e 2191 2abf
000001d0: f02f 163d 9f83 203f dcbe ec3e b587 813f
000001e0: 68bd 1b3f 7f90 18be 1020 b2be 5119 97bd
000001f0: 3bc6 c63e ec06 02bf c161 69be 5adc e4be
00000200: c757 04be 5ab2 213f f2a2 b03e 11c5 c43e
00000210: 5e31 223f 2124 9a3e 9a47 1abe ca40 00bf
00000220: 16e2 33bf e9eb e83e 4233 243d e9ad d13d
00000230: b2d1 95be c86d bdbd 75e2 b9bd 920c a23e
00000240: 19a9 023f 8ac4 a03e 4530 13bd cb75 4fbf
00000250: 3fce f6be f931 02bd 3692 2cbe 396a 2e3e
00000260: 5eed f0be 4e1d ed3e b106 dc3e ecba 07be
00000270: 52e7 13be 3b08 09be 98bc b63e a250 07bf
00000280: 2f48 03be c52a aa3d 78af ffbe 1ebc f13d
00000290: 0cb9 6fbe 0605 e5be c5f5 f7be 71fc 9bbe
000002a0: 8e04 1f3f 8503 7abe a971 9ebe 2cea 763d
000002b0: b093 f5be b3be d5be 0dba 1bbe 5fef cfbe
000002c0: 8b8a 003e ee7f 1dbe 6e31 98bc a086 20bd
000002d0: 9fb9 4c3f 7917 173d 723a 1a3f 9819 4f3f
000002e0: fefd 133f 0125 efbe ae4b 213e d9d1 2a3e
000002f0: 5e9d 883d 81e7 8f3e 5a8e dc3d 3112 803e
00000300: 97e6 a9be 17cc 8c3d 1fb4 d5bd be8d 9fbe
00000310: 74e6 1abe 2081 5e3e f826 b0be 0f97 ae3e
00000320: 87b3 c23e ba52 ed3e 617b 6e3d 9705 29bd
00000330: 333c 393e adb9 ffbe 6ffb 303e a144 313e
00000340: b028 80be bd22 d9bd d93d c93e 7ae4 14be
00000350: 8a4e ce3e 78ef f13e f6ae c0be 5ddf 39be
00000360: f712 e6be 47e1 393f bd22 d6be 85a7 5c3e
00000370: 9dbc a63d 1365 5d3e 2442 18bf a232 1bbe
00000380: 7572 0f3e 85f4 37bf 116b 80bf 478f febe
00000390: 2fa8 6dbe 8e3f d6ba 8ea6 8fbe 7e34 803e
000003a0: 3004 153f d92f 0a3d ec90 3fbe 21a0 cdbd
000003b0: 8808 d73e af11 19bf faa6 81bf 36f1 50be
000003c0: 5269 54bc 5902 fe3e a4a1 82bf 5350 ae3e
000003d0: 22e6 913e 1c42 563f 4c86 ea3e 4831 943e
000003e0: 2160 473f f57b a43c 6085 c43e db23 333f
000003f0: 622c 88bd 0ccc b03e 9201 53bf 77bf a33d
0.20397897 0.26732504 0.39344853 0.48007482 0.64778346 0.2911637 0.044326458 0.81381667
-0.68634814 0.13546436 -0.023156853 -0.4882213 -0.20396972 0.4762752 0.07696786 -0.12602757
0.19266917 -0.013383156 0.42228037 0.3214397 -0.01779334 0.13171327 0.5038818 -0.000902003
0.023385473 0.061196838 0.76610637 -0.19719684 -0.3399524 0.47434935 0.12443276 -0.7542893
-0.14961784 0.102352716 -0.37615573 0.17337385 0.6470152 0.27531922 -0.46464917 -0.9888958
-0.63247323 0.34979782 -0.023016205 0.94497824 -0.50830144 0.40523246 0.0041975332 0.06115355
0.4419665 0.13392654 0.04159404 0.40679216 0.6298546 0.1619803 -0.706013 0.034163322
0.45432538 -1.1711717 0.10554583 0.2255315 0.55012876 -0.7120299 -0.25714302 -0.34872955
0.54702705 -0.61728895 0.20418417 0.08561036 0.42650044 0.40289482 0.27065125 -0.27702382
-0.31210804 -0.4140307 0.34217477 -0.5192431 -0.40089265 -0.7113335 0.5292945 0.34626257
0.19091384 0.39632383 -0.36568514 -0.20252009 -0.154359 -0.24558732 -0.2460299 0.4442036
-0.6568505 0.3453413 0.36454037 -0.15570797 -0.27979445 0.54485804 0.027510557 -0.12574078
-0.45439127 -0.13694751 -0.06638372 -0.44042376 -0.0048436825 0.44013825 -0.35738134 0.49624452
0.16532707 0.6193048 -0.05018147 0.33655456 -0.19434325 0.22389169 0.26008144 -0.60166943
-0.5311228 -0.52910745 0.43253705 -0.666277 0.03666681 0.6270084 0.46239364 1.011954
0.60835886 -0.14898871 -0.34790087 -0.073778756 0.38823113 -0.5079181 -0.22791196 -0.44699365
-0.1292411 0.6316277 0.34499317 0.384316 0.6335658 0.3010569 -0.15066376 -0.5009886
-0.70266855 0.45492485 0.040087946 0.10238249 -0.29261547 -0.09249455 -0.090763964 0.31650215
0.5103927 0.31399947 -0.035934705 -0.8103911 -0.48204228 -0.03178594 -0.1685265 0.17032708
-0.47056097 0.4631142 0.42973855 -0.13254899 -0.1444371 -0.13382046 0.3569076 -0.5285741
-0.12820505 0.08308939 -0.4993856 0.11803459 -0.23410434 -0.44730395 -0.48429695 -0.30466035
0.62116325 -0.24415405 -0.3094609 0.060281917 -0.4796424 -0.41747054 -0.15207691 -0.40612313
0.1255285 -0.15380833 -0.018578257 -0.03919089 0.79970735 0.03688762 0.6024543 0.8089843
0.57809436 -0.4670792 0.15751526 0.16681613 0.066706404 0.2810631 0.10769339 0.2501388
-0.3318374 0.068748645 -0.10434746 -0.31162828 -0.15126973 0.21728945 -0.3440473 0.34099624
0.38027593 0.46352178 0.058223132 -0.041265097 0.1808937 -0.49946347 0.17283414 0.17311336
-0.25031042 -0.10602329 0.39305 -0.14540282 0.40294296 0.47253013 -0.37633485 -0.18151613
-0.44936344 0.7260937 -0.41823378 0.21548279 0.08141444 0.21620588 -0.5947592 -0.15156034
0.14008506 -0.7185748 -1.0032674 -0.49718687 -0.23208688 -0.0016345845 -0.2805676 0.25040048
0.58209515 0.033737037 -0.18707627 -0.10040308 0.41998696 -0.5979261 -1.0129082 -0.20404515
-0.012964563 0.49611166 -1.0205579 0.34045658 0.2849589 0.83694625 0.45805585 0.2894385
0.77881056 0.020078639 0.38383007 0.69976586 -0.0664909 0.34530675 -0.8242427 0.079955034

mlp_extractor.value_net.2.bias f4 [64]
00000000: e1aa 563e 2d46 783e ece6 64bd 868d e43e
00000010: a599 dd3d 2086 303e 6ac0 14bd d310 6f3e
00000020: 74e4 153f 3edc e4be f941 36be c792 073d
00000030: 9086 883e d31e 893e cd29 c4be 91b6 843e
00000040: f21f 3cbc 9a4d aabe ca88 79bc 48a6 6f3e
00000050: cc16 463e 07bd 9e3d 1f61 5d3e 6372 983e
00000060: 190f b83e ee79 a03e f3db 083f 6179 1fbd
00000070: 21d3 84bd 3c75 a03c defa 65be b943 7cbd
00000080: 4280 88be 8505 e3bd 6201 413f e1ae 42be
00000090: 1353 0eba 4c7b 67bf fbe4 a3bd 0e82 0a3c
000000a0: 6578 20be e7f6 9fbe 602f 2a3e 4848 823e
000000b0: 2dfb 253e b91a 163f 666d f2be 9fb5 5e3e
000000c0: 8932 713e 7163 eabc 96e9 c43e b6f2 9b3d
000000d0: db78 a33d 1230 ce3d b31a 3b3e dc98 c8be
000000e0: 0b57 2a3f c56c debe 9179 643e 638f 21bf
000000f0: bb19 38bf 7517 c8bd 5b4b 8d3d 67c5 3fbf
0.20963623 0.2424552 -0.055884287 0.44639224 0.10820321 0.17238665 -0.036316313 0.23346262
0.58551717 -0.4469928 -0.17798604 0.033098962 0.26665163 0.2678133 -0.3831314 0.25920537
-0.011482226 -0.3326233 -0.015230367 0.23403275 0.19344634 0.07750898 0.2161908 0.2977477
0.3594902 0.31343025 0.53460616 -0.038934115 -0.06485582 0.019587152 -0.2245898 -0.061588023
-0.26660353 -0.11085037 0.75392735 -0.19012024 -0.0005429249 -0.9042251 -0.08002659 0.008453859
-0.15670927 -0.3124306 0.16619635 0.2544577 0.16209097 0.58634526 -0.4734909 0.2174897
0.23554434 -0.02861187 0.38459462 0.07614653 0.07982036 0.100677624 0.18271904 -0.39179122
0.6653907 -0.4344236 0.22311999 -0.63109416 -0.7191426 -0.09770099 0.068991385 -0.7491059

action_net.weight f4 [5, 64]
00000000: 79e7 b0bd 5297 2ebe bffe c63e e1a3 d43e
00000010: 7b41 6cbe 65b4 abbd 1f3a bd3e a05d 09bd
00000020: 1842 6dbe f0f9 05be 281a 7fbe d073 ae3e
00000030: adbc f63e 6c16 a13e 2853 303d cd7e d33d
00000040: c727 6bbe 1e38 87be af65 48bd 6e83 e23d
00000050: 09d2 793e 2b14 d6be 9eb0 05bd a3a5 ebbe
00000060: 4c50 8a3d b6e6 8d3d 2b2d 97be a332 02bf
00000070: fd38 b0bd 5641 d2bc 2abf 793e b6d3 d03e
00000080: b96d 40be bb6b a7be d1d7 0b3e 13eb a43e
00000090: b655 8b3e bfb1 4fbc adf5 3f3e 6870 95bd
000000a0: 87ca ccbb f8e1 803e 4d4f 32bf 9618 9d3e
000000b0: 360c 2cbe 52b1 86be f041 513d 9a85 a93d
000000c0: 89f5 edbe ac8f 7f3d d9f6 8b3e 7a90 f3bc
000000d0: d71f 003d 2f12 a83e 3a17 44be d315 ca3e
000000e0: ab0a e2bb 88d0 84be 926c 1c3e 3bae 81be
000000f0: 0708 e8be b297 44be 5b61 513e bf03 58bd
00000100: 7997 a0be 715d 2ebf 8b2e cc3e 2a95 19bf
00000110: 6cce d1be 8448 a0be cb76 853e 45bc 573f
00000120: eab7 2fbf 74aa 4f3f eb4b d13e 2a9a 873d
00000130: fa97 52bf 636a cf3e 3067 803e 5e57 9ebe
00000140: acb7 d8be b20b ec3c 267c c7ba d91e 463e
00000150: fd93 dc3e f854 463e 6651 62bf ca0f 033f
00000160: f29d bfbd 6a1b 2f3f b68a afbe c52b 203f
00000170: 66ab cf3e 2cef 0e3f 71ef 98be 942d 5a3e
00000180: f3d0 efbe d5be 2c3f c1df b73a be80 003f
00000190: f928 3fbf 03fe a23e a3b7 0e3e b1ee 87be
000001a0: c766 483f 4e84 363f 70cb 62be 9068 d7bb
000001b0: 007a 8a3e 31a7 153e 7655 d43e 7e91 4e3f
000001c0: 8473 6ebe 87d0 033e 4be4 fa3e 48eb 40be
000001d0: be11 85be b096 ca3e 870b e2bd 9b2d 823f
000001e0: 66e9 f2be aa18 7a3c 9949 eabe a9ef 0a3f
000001f0: 16cf a8be 95a1 2d3e 64a2 7abe 2e0f 473e
00000200: 9106 b73e 3613 113f 684a 52bf 11e4 a9bd
00000210: 33e9 3d3e 63de 963e c2e5 0bbf 802f 35bf
00000220: 4656 233f ee6f e9be d71f 61be 936d 783d
00000230: 6454 003f 5951 0cbf 7181 5c3d 8910 d83d
00000240: 8a8e 873e 7d8f 42be 0b73 d13d 5192 3ebe
00000250: f958 fcbe 6644 16be 1d02 533f 0314 fdbe
00000260: c89d 1b3d 675d d7be 3073 153f aea8 35bd
00000270: e79f 5cbe 7307 cfbe 88ab f43d 78c6 65be
00000280: e6de 563e f164 4bbf 04ba 403d 34be 0ebf
00000290: c4c3 cb3e ab47 d3be 86b7 f0bd 2286 7d3e
000002a0: b3d4 d1be 855b 1cbf d8a7 c23e 4a5c b5bb
000002b0: b9b6 16be c5c2 b53d e8a4 92be 7285 5abf
000002c0: 19bd d63e 7295 8dbb 9d2b 49bf d7c2 923b
000002d0: bcbd e73e d1f8 0abe 46c5 c23d b258 a2bf
000002e0: 6733 d13e 40b3 d33e 22b5 863e d610 02bf
000002f0: 7781 013f ff3c 9d3e de0d ba3e 5313 33bd
00000300: 8619 68be c81c 72be e587 08bf 4ed5 85bd
00000310: 4a6e a83e 0fcb b7be 355f bd3e 6032 6b3e
00000320: cf04 0ebf 5241 b23e a914 193f 2f0f 283e
00000330: de4c 473e d3ea a33e 4029 bd3e c50d 353f
00000340: 432e 213e 19b9 b1be 8a0c e93e b0a6 c33e
00000350: 1a66 dfbe 41ab b1be e928 8dbd 7fb5 57bd
00000360: 3d45 1d3e 248d adbc 3162 fc3d b1b9 b63d
00000370: 441b 35be c9c2 923e a402 9d3e ca9d 15bf
00000380: e62e 143f bc8c cdbe 2336 f23e 47e0 a4be
00000390: 84e9 10bf 277e ecbc 9f6a 023f da29 ec3e
000003a0: fecd 3d3d cf23 403e 1739 fe3e daa2 0c3f
000003b0: 5a5a 2d3f d4e9 d3be adde a83e 4740 8ebc
000003c0: 2e26 02be 4893 013f a300 ec3c 4336 243f
000003d0: ce83 463f 92f6 d9bd 790c e0be 72c3 16be
000003e0: a1ef 55bf 7332 553f 356f 043f 3a12 05be
000003f0: 1602 dc3e 7c98 acbe 7e47 8ebe a125 abbd
-0.086379 -0.17049912 0.3886623 0.4153128 -0.23071854 -0.08384017 0.36958405 -0.033536553
-0.23169744 -0.13083625 -0.24912322 0.34072733 0.48190823 0.3146242 0.043048054 0.1032692
-0.22964393 -0.26410002 -0.048925098 0.110602245 0.24396528 -0.41812262 -0.03263914 -0.46024808
0.06753597 0.0692877 -0.29526648 -0.50858516 -0.0860462 -0.02566592 0.2438933 0.40786523
-0.18791856 -0.3269938 0.13656546 0.32210597 0.2721383 -0.012676655 0.18746062 -0.072968304
-0.006249729 0.251724 -0.69652253 0.3068282 -0.16801533 -0.2630716 0.051088274 0.082774356
-0.4647639 0.062392876 0.27336767 -0.029731978 0.031280365 0.32826373 -0.19149485 0.39469776
-0.0068982444 -0.25940347 0.15275791 -0.2532824 -0.45318624 -0.19198492 0.20447294 -0.052737948
-0.31365564 -0.6811133 0.3987926 -0.5999323 -0.409778 -0.31305325 0.26067194 0.8427165
-0.68640006 0.81119466 0.40878233 0.06621201 -0.8226315 0.40510854 0.25078726 -0.3092603
-0.4232763 0.02881417 -0.0015219494 0.19347705 0.43081656 0.1936835 -0.88405454 0.5119597
-0.093562976 0.68401206 -0.34285516 0.62566787 0.40560454 0.558337 -0.2987018 0.21306449
-0.46839103 0.67478687 0.0014028476 0.50196445 -0.74671894 0.3183442 0.1393724 -0.26549295
0.78281826 0.7129563 -0.22147918 -0.006573744 0.27046204 0.1461456 0.41471452 0.80690753
-0.23286253 0.12872516 0.490023 -0.18839753 -0.259901 0.3956809 -0.11037355 1.0170168
-0.47443694 0.015264669 -0.45759276 0.5427194 -0.32970494 0.1695617 -0.2447601 0.19439384
0.35747197 0.5666994 -0.82144785 -0.08295453 0.1854599 0.29466543 -0.5464746 -0.70775604
0.6380352 -0.45593208 -0.21984802 0.060651373 0.5012877 -0.54811627 0.053834382 0.10550029
0.26475936 -0.19000049 0.10227021 -0.18610503 -0.4928663 -0.1467453 0.824251 -0.4942933
0.03799227 -0.42063448 0.5837889 -0.04435032 -0.21545373 -0.4043537 0.119467795 -0.22438991
0.20983467 -0.794509 0.0470524 -0.55758977 0.39797795 -0.41265616 -0.11753754 0.24758199
-0.4098259 -0.6107715 0.3801868 -0.0055346834 -0.1471814 0.0887504 -0.28641438 -0.8535987
0.41941145 -0.004320794 -0.78582174 0.004478793 0.45261943 -0.13571478 0.09510283 -1.2683318
0.4085953 0.41347694 0.26310068 -0.5080694 0.5058817 0.307106 0.36338705 -0.0437196
-0.22665986 -0.23643792 -0.5333236 -0.06534825 0.32896644 -0.3589711 0.369867 0.22968435
-0.5547609 0.3481546 0.5979715 0.16412042 0.19462916 0.32015094 0.36945534 0.70724136
0.15740304 -0.3471153 0.4551738 0.3821311 -0.43632585 -0.3470097 -0.068925686 -0.052663323
0.15358444 -0.021185465 0.12323416 0.089221366 -0.17686182 0.28664234 0.30666077 -0.5844389
0.5788406 -0.40146434 0.47306928 -0.3220236 -0.56606317 -0.028868748 0.5094394 0.4612568
0.046339028 0.1876366 0.4965293 0.5493599 0.6771599 -0.41389334 0.32982388 -0.017364634
-0.12709877 0.5061536 0.028808897 0.64145297 0.7754487 -0.10642733 -0.43759516 -0.14722994
-0.8356877 0.83280104 0.5173219 -0.12995234 0.4297034 -0.33710086 -0.2778892 -0.083567865

action_net.bias f4 [5]
00000000: b38f 82be 99da 733e a4d7 55bd 2160 c03e
00000010: 459a 2ebc
-0.2550026 0.23813857 -0.052207604 0.3757334 -0.010656898

value_net.weight f4 [1, 64]
00000000: 4076 c5bf 0c91 dcbf 63c2 e63f d3d7 dbbf
00000010: 9d6a bfbf a04d 4840 2e4a e13f 7ffb eabf
00000020: 3841 5c40 4ade a43f f3f7 e33f c2ce fc3f
00000030: afa0 dbbf 78e2 ecbf a164 11c0 b0ad 5b40
00000040: b884 efbf b1fe 0240 2ecb babf c6b7 adbf
00000050: c1a7 c9bf 09a7 00c0 27f7 f4bf acaf f9bf
00000060: e157 2a40 5d6c 6cbf 6244 f9bf ad9c 983f
00000070: e026 c33f 0172 05c0 56c8 f63f 4e35 1fc0
00000080: e507 d63f 759d 0140 e1d1 aebf fa22 e03f
00000090: 2d0d b33f c669 ce3f 7d3d c33f 2083 f5bf
000000a0: 74a2 0b40 0f91 8b3f bb8a 03c0 af0e dabf
000000b0: 740f f5bf bd7f ebbf e717 6bbf 6060 debf
000000c0: 4c4a fdbf 866c a5bf 2b97 f63f a39c 0340
000000d0: 7f2f ce3f f29e 9e3f bb3b e63f 9cbc bcbf
000000e0: 1c9a a8bf 4f03 1b3f 65fd ccbf 24e1 c83f
000000f0: 0f41 c83f 01d7 cd3f df33 92bf 1a88 b63f
-1.5426712 -1.7231765 1.8028072 -1.7175239 -1.4954411 3.1297379 1.7600763 -1.8358
3.4414806 1.2880337 1.7810043 1.9750597 -1.7158412 -1.8506613 -2.271767 3.432476
-1.8712378 2.0467951 -1.4593256 -1.3571708 -1.575432 -2.010195 -1.9137925 -1.9506736
2.6616137 -0.9235285 -1.9473994 1.1922814 1.5246239 -2.0850832 1.9279888 -2.4876285
1.6721159 2.0252354 -1.36578 1.7510674 1.3988396 1.612603 1.525314 -1.9180641
2.1817904 1.0903643 -2.0553424 -1.7035731 -1.9145341 -1.8398358 -0.9183335 -1.7373161
-1.9788299 -1.2923744 1.9264883 2.0564353 1.6108245 1.2392256 1.7986978 -1.4745059
-1.317203 0.60551924 -1.601483 1.5693707 1.5644854 1.6081239 -1.142208 1.4260285
