Voronoi Formation/model2/model2.pth (torch, 18248 bytes, 4 tensors)

linear1.weight f4 [256, 11]
000000 40 d3 fd 3b a8 7d b5 bd 70 78 4a bd 40 1f 36 3e
       0.00774613 -0.08861858 -0.049431264 0.17785358
000010 f0 95 3a be 23 50 86 be a1 e6 86 be 84 46 a0 bd
       -0.18221259 -0.26233014 -0.2634783 -0.0782595
000020 b9 25 54 be 38 71 be 3d 3a 0c 45 3e 90 b5 04 be
       -0.20717515 0.092989385 0.19242945 -0.12959886
000030 e4 7b 9b 3d 33 93 99 be 28 dd 04 bd e7 1c 72 3e
       0.0759199 -0.29995117 -0.032437474 0.23643838
000040 0a a1 90 3e d6 7e 81 bd c7 cc 67 3d 0f a0 96 be
       0.28247863 -0.0632302 0.056591775 -0.2941899
000050 39 06 1f bd ae 44 8d 3d a4 14 ca 3d 1a 5e 8a be
       -0.038824294 0.06897865 0.09867218 -0.2702492
000060 2e 7f 51 be a0 5e 5d 3e 34 1e 80 be c4 86 7b 3e
       -0.20458671 0.21618128 -0.25023043 0.24563128
000070 ca a3 01 3e dc ef 95 3e 7e be 02 3e b9 61 8e be
       0.12660137 0.2928456 0.1276798 -0.2780893
000080 c0 14 e6 bb d4 a8 12 3e 2c 9c 69 bd a8 0d 5d be
       -0.0070215166 0.14322215 -0.057033703 -0.2158724
000090 34 d7 da bd 38 e6 b3 3d a8 68 52 3e 10 94 28 3e
       -0.10685578 0.08784145 0.20547736 0.16462731
0000a0 ee c6 4d be 76 87 96 3e b6 08 a3 3d e8 17 91 3d
       -0.20095417 0.29400223 0.07960646 0.07084638
0000b0 0e c6 87 3e c8 b3 d7 3d f1 6f 75 be ec 35 d5 3d
       0.2651829 0.105323374 -0.23968484 0.104106754
0000c0 51 83 ad 3d 70 d9 0b be 70 dc e1 3d c1 2d 2f be
       0.08472312 -0.13657165 0.11028373 -0.17107297
0000d0 9c f3 91 3e 6f 59 6d bd 53 a4 23 3e 80 84 5c bb
       0.28506172 -0.05794662 0.15980653 -0.0033648312
0000e0 f0 17 74 3e 57 1f 84 be e8 db e1 bd bb 99 b9 bd
       0.23837256 -0.2580516 -0.11028272 -0.09062525
0000f0 d0 2b 3b 3d 72 d4 5d be b0 89 14 be c4 78 a8 3d
       0.04569608 -0.21663073 -0.14505649 0.08226159
000100 aa 44 57 3e 12 a4 c2 bd 80 3a 3c 3b 84 22 b0 3d
       0.21022287 -0.0950395 0.0028721392 0.08600333
000110 cc a2 15 3e 18 98 77 bd 35 2a 4b 3e d0 6e f5 3c
       0.14612883 -0.060447782 0.1984032 0.029960066
000120 d0 0e e4 3d 3c e4 4e 3e 64 f0 55 3e b8 d0 6e be
       0.11135638 0.20204252 0.20892483 -0.23321807
000130 24 77 8a be 2c ec 97 3d 2a 24 35 3e e6 b3 4d be
       -0.27044022 0.07418093 0.17689577 -0.20088157
000140 10 c5 4b be cf d8 16 3d 40 99 ff bc 90 3e 85 bc
       -0.19899392 0.03682786 -0.031201005 -0.016265184
000150 fa ce 98 3b f8 5c bc 3d 8a 71 2b 3e 39 3c 0b 3e
       0.0046633454 0.0919742 0.1674253 0.13597192
000160 68 77 10 3d 4c 3b 94 3e c2 8a 82 3e 1a 3a 90 be
       0.035270125 0.2895149 0.2549649 -0.28169328
000170 88 70 48 be c0 81 95 3b 34 bd 52 3e c0 b8 11 3c
       -0.19574177 0.0045625865 0.20579988 0.0088941455
000180 78 6a 5d 3e 44 56 43 3e 5c 66 69 bd 0c ff 95 3e
       0.21622646 0.19075876 -0.056982383 0.29296148
000190 00 90 bd 3d 86 f4 46 be 77 8b 5a be e2 ab 55 bd
       0.092559814 -0.19429216 -0.21342264 -0.052165873
0001a0 3c 44 18 3e cc 42 67 3e b4 c6 68 3e 6c 10 a8 3d
       0.1486978 0.22584075 0.22732049 0.08206257
0001b0 72 70 ad bd be bf 37 3d 00 a5 f1 3b 30 9d 72 3e
       -0.08468713 0.044860594 0.007374406 0.23692775
0001c0 80 c4 5f be 59 3b 25 be dd 56 67 3e 0c 68 71 be
       -0.21852303 -0.1613592 0.2259173 -0.23574847
0001d0 68 c4 c7 3d a3 34 a6 3c 50 90 95 3e 44 4d ee bd
       0.097542584 0.020288771 0.29211664 -0.11635831
0001e0 f1 a5 ec 3d ae e8 12 be 2e c6 08 3e ac a9 a2 bd
       0.11555088 -0.14346573 0.1335685 -0.079425186
0001f0 9f e4 77 be f0 66 9d 3d 6a 5e 03 be b8 14 95 3e
       -0.24208306 0.076856494 -0.12828985 0.2911737
000200 7b 5c 28 be 37 65 30 be c6 13 9c bd 7e 1f 80 be
       -0.16441528 -0.1722611 -0.07620959 -0.25024027
000210 9e b4 58 be a6 32 ec bd 8a 08 88 be de 63 80 3e
       -0.2116265 -0.11533098 -0.26569015 0.25076193
000220 3c 14 39 be 58 8d 06 3e d2 64 46 3e 42 9f 9b 3d
       -0.18074125 0.13139856 0.19374397 0.075987354
000230 20 73 80 3e 1c 1b 99 3e 10 5d 0f bd ac 3f 97 bd
       0.25087833 0.29903495 -0.03500086 -0.07385191
000240 c8 71 4a bd 60 6a 65 bc 0a 97 43 be 72 82 ea bd
       -0.049424917 -0.014002413 -0.19100586 -0.11450662
000250 94 ae 7d be ae f0 92 be 21 24 42 3e d8 92 c1 3d
       -0.24773628 -0.2869925 0.18959095 0.09451836
000260 39 50 7a be 40 b0 20 be 92 6e 48 be 75 a6 0c be
       -0.24444665 -0.15692234 -0.19573429 -0.13735373
000270 a8 f6 24 3d a2 13 a9 bd fa 71 86 3e e0 06 28 3c
       0.040274292 -0.08255698 0.26258832 0.010255545
000280 06 15 13 3e bd c6 7d 3e 4c 99 85 3e cf cf 37 be
       0.14363489 0.24782844 0.2609352 -0.17950366
000290 b8 82 86 be e2 d5 05 3e 00 10 73 3c f0 b5 65 3d
       -0.26271605 0.13069871 0.014835358 0.056081712
0002a0 18 e8 af 3d 76 a5 04 be 00 05 8f be 00 eb 62 3e
       0.0858919 -0.12953743 -0.27933502 0.22159958
0002b0 f0 54 5c bd 82 11 44 3e f0 25 50 be d8 2d 19 bd
       -0.05379194 0.19147304 -0.20326972 -0.037397236
0002c0 28 15 3f 3e 90 0b a7 bc e8 27 4a bd d8 c9 54 3e
       0.18660414 -0.020391256 -0.049354464 0.20780122
0002d0 5e 6f 86 be 04 0b a0 3d 8c 9b 57 3e 68 4b 5b 3e
       -0.2625684 0.07814601 0.2105543 0.21415484
0002e0 86 f9 89 be 90 f8 c6 bc 48 23 87 3d 80 f5 4d bc
       -0.26948184 -0.024288446 0.06598526 -0.012570739
0002f0 3c b1 89 be 39 e8 53 be 6e af 81 bd 08 9e db 3d
       -0.26893032 -0.20694055 -0.06332289 0.107235014
000300 00 e0 83 bc a0 0a 5e 3c 4a 35 62 be 92 cc 75 be
       -0.016098022 0.013552338 -0.2209064 -0.24003819
000310 38 5d 2f 3e 55 11 6c be ba 2a 8a 3e 5a fb 36 be
       0.17125404 -0.23053487 0.26985723 -0.1786932
000320 78 f1 33 be 9c 5c 60 be 5a d7 60 3e 76 27 65 be
       -0.17572582 -0.21910328 0.2195715 -0.22378334
000330 88 d8 0b 3e ed 33 de bd 82 13 03 be 04 84 8e 3e
       0.13656819 -0.10849748 -0.1280041 0.27835095
000340 1c b8 a1 bd 8a d4 66 be 94 0c 92 bd 42 24 8f be
       -0.07896444 -0.22542015 -0.07131305 -0.2795735
000350 6a 8f 5a be 9c aa 8d be b0 89 89 be e0 39 24 bd
       -0.2134377 -0.27669227 -0.2686286 -0.040094256
000360 be 4d 5b be 68 40 ab 3d 20 cf 6a 3d 50 35 fb 3d
       -0.21416375 0.08361894 0.057326436 0.12266028
000370 48 d0 95 bd a4 63 52 be 50 ff d9 bc 72 b1 30 3e
       -0.07315117 -0.20545822 -0.026611 0.1725519
000380 83 bd 8c 3e 1a 82 0e 3e ee 94 14 be 62 25 78 3e
       0.27488336 0.13916817 -0.14509937 0.2423301
000390 14 7a 7f be c9 35 d4 3d ef da 16 be 2c 69 0b 3e
       -0.24948913 0.10361821 -0.14731954 0.13614339
0003a0 d9 9d 76 be 0c ac 53 3e e4 62 5a 3e df 24 6d 3d
       -0.24083652 0.206711 0.21326786 0.05789649
0003b0 a0 bc 9d bd e6 78 4a 3e 55 84 e4 3b 9c ec bd bd
       -0.07701993 0.19772682 0.006973783 -0.09273645
0003c0 18 f4 47 bd a1 60 91 3e cc 83 7d be 9f 39 54 be
       -0.04881677 0.28394035 -0.24757308 -0.20725106
0003d0 c6 cf 8a 3e a8 0b 3d 3d f7 24 1b be 38 bf 8a 3d
       0.27111644 0.046153694 -0.1515082 0.06774753
0003e0 a0 a4 d8 3d 78 a6 6b 3e a0 e4 84 3d 98 48 00 3e
       0.10578275 0.23012722 0.06488919 0.12527692
0003f0 f0 54 93 bd 5a ed 94 be a0 9d fc bd b0 af 53 3e
       -0.07193935 -0.29087335 -0.12334752 0.20672488

linear1.bias f4 [256]
000000 b0 7e 83 bc d4 1c 91 bd ed c9 99 be 2c af dc 3d
       -0.01605162 -0.07085577 -0.3003687 0.10775599
000010 ae ef 38 3e 05 ca dd 3d 33 e0 7e 3e 07 ed 52 3e
       0.1806018 0.10829548 0.24890213 0.20598231
000020 86 40 0a be 7d 25 37 be ff 4f 93 be 28 69 7e 3d
       -0.13501176 -0.17885394 -0.2877197 0.062112004
000030 18 bd 2d be 0a 32 86 3e 08 07 8e bd fc fe bc 3d
       -0.16966665 0.26210052 -0.06934935 0.09228322
000040 f0 47 3e bd 3e 1b 5c be 6e 48 16 be 68 be a4 3d
       -0.046455324 -0.21494767 -0.14676067 0.080441296
000050 ec 88 1f 3e 82 75 93 3d b7 f6 cb bd 85 9f 12 be
       0.15579575 0.07200147 -0.099591665 -0.14318664
000060 6f ad 2d be 51 29 5f 3e 90 83 54 3d c6 d7 24 be
       -0.16960691 0.21793105 0.05188328 -0.16097936
000070 0f 3b 08 3e 01 fd ba 3d dc 64 d1 3d d2 b6 ad 39
       0.13303779 0.09130288 0.102243155 0.00033133343
000080 8e 55 77 be 5a 1e e0 bd d3 1b ef bd ce cb 99 3e
       -0.2415373 -0.10943289 -0.11675229 0.30038303
000090 36 ab 86 3d 6a 7a 27 be 70 da 7e 3e 31 59 45 3e
       0.06575625 -0.16355291 0.24888015 0.19272305
0000a0 75 31 16 3e c6 24 3f 3e 72 d7 60 be 96 c2 bd bd
       0.14667304 0.18666372 -0.21957186 -0.0926563
0000b0 c2 28 6f 3e 25 c8 94 be a8 73 51 3d 6d 10 38 3e
       0.23355392 -0.29058948 0.05113569 0.17975016
0000c0 e4 c4 88 be 99 50 0a be 02 5b 81 3e 39 50 98 3e
       -0.26712716 -0.13507308 0.25264746 0.29748705
0000d0 04 05 73 bd 10 1f 83 bc 39 a9 99 3e 13 8a 92 3e
       -0.059330955 -0.016006023 0.3001192 0.28620967
0000e0 fb 3a a1 3e 28 f7 75 3d e3 7f 2a 3e 63 dd 8e 3e
       0.3149031 0.06005016 0.16650347 0.2790328
0000f0 c4 c3 19 3d 47 ce 81 3e 86 e6 57 be 4e 4b c6 3d
       0.037540212 0.2535269 -0.21084031 0.09682332
000100 5e 47 92 be b5 6c a2 3c 36 00 32 be 53 07 68 3e
       -0.28570074 0.019827226 -0.17382893 0.22659044
000110 3a 24 52 be e6 9d 57 be 64 c4 50 be 19 53 d9 bc
       -0.20521632 -0.21056327 -0.20387417 -0.026528882
000120 00 c0 cc b8 db b9 d0 3c c8 34 91 be 00 18 a0 3d
       -9.763241e-05 0.025479248 -0.2836058 0.07817078
000130 88 e6 90 3d 68 83 8f bd 3b 9c 5b 3e 4c d6 38 be
       0.0707522 -0.07007486 0.21446316 -0.18050498
000140 52 4d 40 3e 8f dd 12 be cc cf d7 3d 7c 38 8a 3d
       0.18779495 -0.1434233 0.10537681 0.06749055
000150 98 47 86 be 69 7a 1b 3e cb 11 5a 3e 61 39 8c be
       -0.26226497 0.15183415 0.2129585 -0.27387527
000160 ca fe 98 3e 1b 00 3c 3e 11 59 36 3e 45 82 5f be
       0.2988189 0.18359415 0.17807414 -0.21827038
000170 79 47 8e 3c 3f c2 ff 3b 3b 46 0e bc 40 b8 16 3e
       0.017368065 0.0078051384 -0.008683736 0.14718723
000180 98 1b 5b 3d 13 72 8d 3e 7f 47 83 3e ab 68 65 be
       0.053493112 0.27626094 0.25640485 -0.22403209
000190 3c f5 3a 3e 1f 1d 98 3e 3e 98 03 be 84 a0 68 3e
       0.18257612 0.29709718 -0.12851045 0.22717482
0001a0 00 bd 26 3d 4d 50 15 3e e1 56 e9 3d b1 e4 33 3e
       0.04070759 0.14581414 0.11393524 0.17567708
0001b0 ba ae da bc f0 b5 1b bd 3c fa 37 3d a6 66 88 3e
       -0.026694644 -0.038015306 0.044916376 0.26640815
0001c0 48 62 67 3e 4f f0 99 be a1 e8 69 3e 80 5b 8d bd
       0.22596085 -0.30066153 0.22842647 -0.06902218
0001d0 07 04 d0 bd 48 32 48 3c 8b c2 93 3e d9 33 f8 3c
       -0.10157018 0.012219019 0.28859362 0.03029816
0001e0 d4 8b 3d be 81 65 0f be c2 d3 58 bd d4 07 02 3e
       -0.18510371 -0.14003564 -0.052936323 0.12698299
0001f0 55 15 65 be 8e 7c c4 3c ae 33 90 3e 84 29 19 3e
       -0.22371419 0.023985174 0.28164428 0.14957243
000200 78 69 ad 3d 34 96 6a be 00 4c 92 3d e8 92 25 be
       0.08467382 -0.2290886 0.07143402 -0.16169322
000210 3e 70 98 3e 41 ad 43 3e 66 9e 75 3e ea 03 84 be
       0.29773134 0.1910906 0.23986205 -0.25784236
000220 3c 6f a6 bb 0f 2f 54 3e fc 1b 50 3e 97 6e 3b be
       -0.005079178 0.20721076 0.20323175 -0.18303905
000230 0a 85 30 3e 1c 11 39 be 3a 0d 0e be 86 e8 26 bd
       0.1723825 -0.18072933 -0.13872233 -0.040749095
000240 b0 f7 25 3d 74 9a 14 3e 4a d3 33 be 28 4a 4a 3d
       0.040519416 0.14512044 -0.17561069 0.049387127
000250 28 2b 99 be 60 ca b9 bd c5 b9 f5 3d 43 0c e6 3d
       -0.29915738 -0.09071803 0.11998323 0.112328075
000260 ff 97 26 bc d7 89 39 3d 87 c1 96 3e a9 1d 6b 3e
       -0.010168075 0.04529747 0.29444525 0.22960533
000270 6c 95 ef bd 8c 29 ce bd f7 71 cd 3d 0e 61 f1 bd
       -0.11698422 -0.10066518 0.10031503 -0.1178609
000280 3b 41 80 be a0 6b bd 3d 88 98 b2 bd 41 83 c0 3d
       -0.25049767 0.092490435 -0.08720499 0.09400035
000290 85 a9 d4 3c 91 fa 43 3e 8c d1 d7 3d 79 b5 dd bd
       0.02595974 0.19138552 0.10538015 -0.10825629
0002a0 20 d1 2a 3e e9 3d 94 3e 74 83 75 3e 2f 68 7e 3e
       0.16681337 0.28953484 0.23975927 0.2484443
0002b0 20 bf d2 bd da 03 8a bd bc 42 7b 3e 88 4f ba bd
       -0.102903605 -0.06739016 0.24537176 -0.09097201
0002c0 1d 3b 8b 3e 70 18 2f 3d 1f 89 54 3e ee 45 f3 3c
       0.27193537 0.042747915 0.20755433 0.029696431
0002d0 07 ce d5 3b 7f 5a 8e be fb 2e 31 be a6 1d d3 bc
       0.0065248045 -0.27803418 -0.17303078 -0.025770973
0002e0 3c 8a 20 3b 26 0c 53 be fc e2 c0 bd d0 03 4b be
       0.0024496457 -0.20610103 -0.09418294 -0.19825673
0002f0 22 d6 e7 bd cc e4 42 3e 1e 88 99 ba 19 a3 8c 3e
       -0.113201395 0.19032592 -0.001171354 0.27468184
000300 c2 45 e1 bd 54 da 51 3e d4 6c 77 bc 61 5c e6 3d
       -0.10999633 0.20493442 -0.01510163 0.11248089
000310 0c cc cd 3d 7d fd 49 be 11 28 8e be 9e 73 51 be
       0.100486845 -0.19725604 -0.27764943 -0.2045426
000320 bf 26 92 be a0 ba df bd 7c c1 a5 bd 04 92 6b 3e
       -0.28545186 -0.10924268 -0.08093545 0.2300492
000330 42 a4 0f be 69 9b 8c bd b9 53 6c 3d eb 43 3f be
       -0.14027503 -0.0686558 0.05769703 -0.18678252
000340 99 92 94 3e 98 44 35 bd 53 8e 1b bd 10 b0 47 3e
       0.29018095 -0.04425487 -0.037977528 0.19500756
000350 89 61 a8 3d e4 e0 82 3d 6a d3 2b be 0a 56 ad 3d
       0.08221728 0.06390551 -0.16779867 0.08463676
000360 0e 64 92 bd 40 c6 5a 3d 41 02 64 bd df 21 85 be
       -0.0714799 0.053411722 -0.055666212 -0.26002404
000370 10 d5 0d bc 94 57 5d 3d 03 85 cf 3b 67 59 52 3e
       -0.008656755 0.0540386 0.006332995 0.20541917
000380 be 53 95 be 1e 5c b7 bd 77 ad 9d 3c 58 93 0c be
       -0.29165453 -0.08953117 0.019247754 -0.13728082
000390 28 e2 6b 3e ea fb 52 3e 58 6f 67 3d 5a d2 d5 bd
       0.2303549 0.2060391 0.05650267 -0.10440512
0003a0 47 09 4b be fe 8c 2c be 0a 26 37 3e 54 45 51 be
       -0.19827758 -0.16850659 0.17885605 -0.20436603
0003b0 f1 c2 98 be a5 10 df 3d ac b8 23 bd ba 49 dd bd
       -0.29836228 0.108918466 -0.03997104 -0.10805078
0003c0 06 42 ce bd 80 82 6f be 3f ae 81 be e1 9a d3 3d
       -0.10071187 -0.23389626 -0.25328252 0.10332275
0003d0 30 49 44 be 56 d5 55 be d8 a0 c2 bd 6f 22 65 bd
       -0.19168544 -0.20882162 -0.09503335 -0.05594104
0003e0 7d 38 02 3e 45 f1 36 3e 56 90 c1 bd 79 a1 b8 3d
       0.12716861 0.17865475 -0.09451358 0.090151735
0003f0 b1 7f 46 be 42 33 3a 3e b7 1a 0c be 7d 07 38 3e
       -0.19384648 0.18183616 -0.13682066 0.17971607

linear2.weight f4 [4, 256]
000000 a0 9e 8c 3b 51 0d 4b bb 20 9b 76 3c 02 04 37 3d
       0.0042913705 -0.003098328 0.015051633 0.044681557
000010 e4 f8 7f bd 42 e9 de 3c 43 d3 5d 3c 55 a2 4c bd
       -0.06249322 0.027210835 0.013539138 -0.0499595
000020 b0 64 76 bc c7 ef e5 bc d7 05 1d bd c0 f0 8f 3a
       -0.015038654 -0.028068436 -0.038335647 0.0010981783
000030 f8 fa 92 bd 93 58 0f 3c 73 d7 97 bd 68 1f e6 bc
       -0.07176775 0.008749145 -0.074141406 -0.028091148
000040 94 44 81 bc 86 e6 2a bd 05 a2 e8 bc 88 86 2f 3c
       -0.01577977 -0.04172375 -0.02839757 0.010713227
000050 29 0c 23 bd 3a 1a 96 3b 3e 10 55 3a 8e 54 89 bd
       -0.03980652 0.004580763 0.00081277255 -0.06705581
000060 32 c7 9e 3b c7 56 5c bd ae 05 53 3d 80 e8 3c 3d
       0.0048455233 -0.053793695 0.05151909 0.046120167
000070 54 7f f6 3c 94 ac 19 bd c2 72 07 3d 9b b4 7f 3a
       0.030090012 -0.0375181 0.033068426 0.00097543903
000080 08 30 af bc e0 45 eb bb 47 6e d3 bc 6a f5 96 bd
       -0.021385208 -0.0071799606 -0.02580942 -0.07371028
000090 de 9c 1e bd 98 84 2e bc 57 15 9b 3c 80 77 f1 bb
       -0.03872382 -0.01065173 0.018931074 -0.007368982
0000a0 ec e0 59 b9 1a 4b 9b 3c de 07 93 bd 42 2e 7d bd
       -0.00020778523 0.01895671 -0.07179235 -0.061811693
0000b0 bd 25 07 3c b4 18 5b 3d e4 8b de 3c a5 ce 40 3c
       0.008248744 0.053490356 0.027166314 0.011768018
0000c0 a8 89 d0 bc d4 c9 2c bd 30 77 a3 ba 8a 28 81 bd
       -0.025456265 -0.042184666 -0.0012471434 -0.0630656
0000d0 6c ea d0 3c 5e 13 2b 3d 23 eb 9a bd e2 80 4d bc
       0.025502406 0.041766517 -0.0756438 -0.012542935
0000e0 1f 96 3e bd 4c 9a 86 bc 56 b1 82 bc 0c 10 3c bd
       -0.046529885 -0.016430996 -0.015953701 -0.04591374
0000f0 92 14 3f bd d9 49 1f bd 66 ae 4f bd 51 76 14 bd
       -0.046650477 -0.038888786 -0.05070343 -0.036245648
000100 69 44 e4 3b c1 7f 2c 3c 30 12 ef 3b c5 3b 89 bd
       0.006966163 0.010528506 0.0072958693 -0.06700853
000110 84 b2 6a bd 84 7c e3 3c a4 b7 d2 3a 68 35 0c bb
       -0.057299152 0.027769335 0.0016076458 -0.0021394137
000120 84 97 a5 bc e2 bd 61 3d ed d6 e4 bc 76 8b 31 3d
       -0.02021385 0.055112727 -0.027934516 0.04334589
000130 ac 8f 29 3d a8 a8 7c bd 75 1e bd 3c e4 fd bc 3c
       0.04139678 -0.06168428 0.023085812 0.023070283
000140 a7 4d 7d bd 76 ea 08 3c ae 55 72 3d 38 b4 d8 3c
       -0.061841633 0.008356681 0.05916374 0.026453122
000150 18 83 29 bd 08 fb 11 3d 98 66 8a 3c 00 c2 3e b9
       -0.041384786 0.035639793 0.016894624 -0.00018192083
000160 9e b5 25 bc 7e 48 c3 3c 73 15 7e bd 3a 57 0f 3d
       -0.010114102 0.023838278 -0.062032174 0.034995295
000170 a1 1b 4a bd 64 1d 5e bd 50 08 12 3d 76 2d 28 3d
       -0.049342755 -0.054227248 0.03565246 0.04105898
000180 60 56 ab bb d0 f6 40 3d 77 a7 cd bc eb 39 62 bc
       -0.0052288026 0.04711038 -0.025104268 -0.013807754
000190 e2 33 f4 3c 56 14 13 bd 12 c2 bc 3c eb b0 98 bb
       0.029809896 -0.035908066 0.023041759 -0.004659762
0001a0 90 9f a1 bc 68 83 f5 3c 80 18 3a bd 1e 5d a5 39
       -0.019729406 0.029969886 -0.04543352 0.0003154063
0001b0 8e b2 18 3d 80 53 10 3a 12 5b 4f 3b 62 40 ea 3c
       0.037279658 0.00055056065 0.0031639975 0.028595153
0001c0 7f 0a 91 bc a0 06 95 3b 29 b4 e4 3c c1 01 31 3d
       -0.0177052 0.004547909 0.027917938 0.043214563
0001d0 32 ce 25 bd 04 3d 9d bd a2 69 aa bd e3 01 25 bd
       -0.040479846 -0.076776534 -0.08320929 -0.040285002
0001e0 94 98 40 3d 86 a3 35 3d 6c ca c4 bc f4 21 0e bd
       0.04702051 0.0443454 -0.024022304 -0.03470035
0001f0 68 b1 33 bd 2b ab f6 bc 18 a4 23 3c 5c 71 53 bd
       -0.04387036 -0.030110916 0.0099878535 -0.05162178
000200 3a e2 13 3d c0 f4 78 3b 11 f5 1f 3d 70 43 e5 3c
       0.03610442 0.003798768 0.039052073 0.027986258
000210 a8 65 0a bd 77 50 8c 3b e8 ba 96 3b ac 4e fd bc
       -0.033788353 0.004282053 0.0045999177 -0.030921303
000220 12 e7 5a bd 1f 5c 53 3c 02 d6 99 bd e4 64 20 3c
       -0.053443022 0.012900381 -0.07511522 0.009789679
000230 d4 5f ae ba 54 22 cd 3c 7c 7b 70 3d c7 4d 2e 3d
       -0.0013303705 0.025040783 0.058711514 0.042554643
000240 e0 6c b4 bc fb 59 45 bd 56 97 1e bd b7 14 3a bc
       -0.022024572 -0.048181515 -0.038718544 -0.011357478
000250 60 62 5e 3b 00 cc 3c 39 e9 09 6c bc 61 b8 79 3c
       0.0033933148 0.00018005073 -0.01440666 0.015241713
000260 4b 52 8d bc 88 50 bb 3c e5 56 9e bd 52 bd 81 bd
       -0.017251154 0.022865549 -0.077314176 -0.06334938
000270 76 15 4f 3d 90 a9 5c bc 8e 26 87 bd 9d 19 22 3d
       0.050557576 -0.013468161 -0.065991506 0.039575208
000280 d6 39 48 bd b0 46 07 bd 8c cf 55 3d 3a 74 c7 bc
       -0.04888328 -0.033026397 0.052199885 -0.024347413
000290 ee 9a 1f bd 5f ac 84 3c 2d b1 58 3d 06 53 b1 bc
       -0.03896611 0.016195474 0.052903343 -0.021646034
0002a0 bc 2c 97 bc 32 d1 64 bd ab 94 1a 3d 77 e4 9d bc
       -0.018453948 -0.055863567 0.037739437 -0.01927398
0002b0 24 ae 76 3d f0 e2 30 bc cc 5c fe bb 1c ef 7b bd
       0.060224667 -0.010796294 -0.007762527 -0.06150733
0002c0 5b da 81 bd 2c 9c 51 3d 6b ac a9 bd d2 9b 2b 3c
       -0.06340476 0.051174328 -0.08284839 0.010474162
0002d0 25 9d d9 bc 6e ae f7 3b 66 30 4f bd eb 6f 02 bc
       -0.02656419 0.0075586354 -0.050583266 -0.007961254
0002e0 1a 2b 1d bd cb ae ef 38 66 cb 72 3d a8 5e 6b 3c
       -0.038371183 0.00011428966 0.059276007 0.0143658295
0002f0 d0 fa b8 3c 89 5a f5 3c db 7a 9a bd 1e 70 fa bc
       0.022580534 0.029950397 -0.07542964 -0.03057104
000300 60 9e 0d 3c d0 01 05 3c 36 5a 83 bc ed f7 9c 3b
       0.008643717 0.008118108 -0.016034227 0.0047902972
000310 92 e9 04 bd 4e 8d 7b bd 60 3b 76 3d 7c 74 1c bd
       -0.032449313 -0.061414056 0.06011522 -0.038197026
000320 17 1f 3c 3d 44 49 b8 bc 6b 9d 01 3d 4a 1c 01 bd
       0.045928087 -0.022495873 0.031644266 -0.03152112
000330 ac 0d 1d 3d fa be 45 bd 49 ee 8a bd 55 20 d3 3c
       0.038343117 -0.048277833 -0.067837305 0.025772253
000340 48 a6 69 bc 86 d4 38 bd 68 82 23 bd 40 ca 4c 3d
       -0.014260836 -0.045124553 -0.039919287 0.049997568
000350 f8 dd da 3c da 66 54 bc 4f ce b1 3b 94 af db bc
       0.026717171 -0.012963975 0.005426205 -0.02681712
000360 90 2e 8a bb 86 63 97 ba eb 91 18 bd 52 49 51 bd
       -0.0042169765 -0.0011550046 -0.037248533 -0.051095314
000370 e1 fe e0 3a 9c dc 5e bc 26 49 76 bd 83 e7 90 bc
       0.0017165804 -0.013602402 -0.060128354 -0.017688518
000380 dc cb 92 3c d0 25 96 3b c8 d9 97 3a 08 7b 2f 3d
       0.017919473 0.0045821443 0.001158529 0.04284194
000390 0d c0 90 bd e4 06 1a 3d 30 f9 c1 bb c0 22 3e 3b
       -0.07067881 0.037604228 -0.005919598 0.0029012412
0003a0 00 59 0b bd 00 44 6f 3c 18 e0 12 3c be df 31 3d
       -0.034020424 0.014603615 0.008964561 0.043426268
0003b0 90 90 4d bd 0c 40 a4 bd d5 ed 1f bc b3 f8 87 3b
       -0.050186694 -0.080200285 -0.009761293 0.0041495203
0003c0 c2 78 27 3d 20 70 7a bc 5e d5 cc bc 48 b4 82 bd
       0.040886648 -0.015285522 -0.025004085 -0.06382042
0003d0 b8 d5 69 3d 84 7d a7 3a a6 eb 3e 3d e8 b4 85 bd
       0.057088584 0.0012778495 0.04661145 -0.06528646
0003e0 4a ce 3b bc 03 f1 36 bb 50 56 ea 3c 8d 44 64 bd
       -0.011462757 -0.002791465 0.02860561 -0.055729438
0003f0 51 63 96 bd ca b1 e2 3c 1f 48 40 3d 8a 8b 97 bd
       -0.07343162 0.027672667 0.04694378 -0.07399662

linear2.bias f4 [4]
000000 e6 3c 29 bc 6b b9 ff 3c 5f 72 e8 3c e0 fe f5 bb
       -0.010329461 0.031216344 0.028374849 -0.00750719
